Big Data in Healthcare/homework5/903469283-ksims35-hw5/output/seizure/MyCNN.pth (torch_old, 399664 bytes, 18 tensors)

weight f4 [3, 1, 3]
000000 41 c2 aa 3e 60 f7 64 be f7 23 27 be 3d e8 80 3e
       0.3335133 -0.22359991 -0.16322313 0.25177184
000010 05 65 10 bf 89 ba ae 3e a4 68 5a be 86 de 8f 3e
       -0.56404144 0.3412669 -0.2132898 0.2809946
000020 85 9a 8f 3d
       0.07011894

bias f4 [3]
000000 30 48 7d be 4d 39 9c 3e 69 6f f9 3b
       -0.24734569 0.30512467 0.007612158

weight f4 [15, 3, 3]
000000 c3 61 07 3c 04 8e 1d be 26 a4 09 3d f0 98 e4 bd
       0.008263054 -0.15386206 0.03360381 -0.11161983
000010 51 1d f8 3c d6 eb e7 bd 10 8a aa 3e cb 48 09 3e
       0.030287417 -0.11324279 0.33308458 0.13406675
000020 19 c0 34 be cd 3e 53 be 2e c9 e6 3b cd 9b 87 be
       -0.17651404 -0.20629425 0.0070430255 -0.26486054
000030 39 05 0b be 3c e3 a9 3d 9f 85 8b 3e 73 39 20 3e
       -0.13576211 0.08295295 0.27250382 0.15646915
000040 d2 49 b9 be 7a 5a 2b 3e 60 e2 db 3d b2 cc b3 3e
       -0.36189133 0.16733733 0.10736537 0.35117108
000050 57 49 6b 3e c0 9c 9d be 4e f1 b3 be 44 66 84 be
       0.22977196 -0.30783653 -0.35145038 -0.25859272
000060 fc 89 96 3e 7e 66 b6 bd cc 63 d3 3d c0 ca 2b be
       0.2940215 -0.089062676 0.10321769 -0.16776562
000070 8d eb 9a 3e b8 75 41 be c0 3e 64 3e 56 4a c7 bc
       0.30257836 -0.18892562 0.22289562 -0.024327438
000080 58 6c 83 be d1 4e ad 3d ff e4 47 be 7c 9e 0a 3d
       -0.25668597 0.08462299 -0.19520949 0.03384255
000090 39 13 98 be de c3 46 bd 17 97 5f be 5d 1a 82 be
       -0.29702166 -0.048526637 -0.2183498 -0.2541074
0000a0 88 3a 17 3d 02 31 32 be 51 f1 b2 3e 42 4d 9b 3e
       0.036921054 -0.17401507 0.34949735 0.3033238
0000b0 02 35 a6 3c dd 09 bf be 6e 08 2e 3e f9 17 fc 3d
       0.020288948 -0.37312213 0.16995403 0.1230926
0000c0 ec e6 32 be 66 0a 86 3d f2 f9 90 3d 4f 33 ab 3e
       -0.17470902 0.06544952 0.07078923 0.33437583
0000d0 cc 29 73 be 8e 73 e5 bd 2c f7 f0 3d 04 85 f3 3c
       -0.23746413 -0.11203681 0.11765894 0.029726513
0000e0 88 c1 7e be 78 15 79 be b8 40 2f 3d 9b 45 dd bd
       -0.24878514 -0.24324596 0.04278633 -0.10804292
0000f0 3b 3a 34 3e 09 5a 94 bc 99 b5 ce 3d f4 d2 c3 3d
       0.17600338 -0.018109338 0.10093231 0.095617205
000100 6d c0 0b 3e 14 11 31 3e f9 f3 29 be c2 74 50 3e
       0.13647623 0.17291671 -0.16596974 0.2035704
000110 aa 6f 8d be 7b cd 14 bf 46 01 72 be d9 8f 05 bf
       -0.27624255 -0.5812604 -0.23633298 -0.5217262
000120 fc fc 20 3e 68 95 79 be 6f 77 a3 be a8 7f 96 3e
       0.15721506 -0.243734 -0.31927058 0.2939427
000130 fc f6 40 bc 2a 88 65 3e 4a ac c7 3d cc e9 7f be
       -0.011777636 0.22415224 0.097496584 -0.2499153
000140 b6 2a 29 3d b6 46 52 3d 43 b3 8d be 21 ba a8 bd
       0.041300498 0.051336966 -0.27675828 -0.08238626
000150 22 4a c7 3d 00 ba cd 3d 68 fb 41 be 63 43 f0 bd
       0.097309366 0.10045242 -0.1894356 -0.11731603
000160 bc 9c b5 3e 42 31 9d bd 89 94 6d 3e 6a 17 f0 3d
       0.3547114 -0.07675411 0.23201193 0.11723216
000170 5d 72 bf be 22 5d ab be d7 e3 4d 3e af 19 4c bd
       -0.3739194 -0.33469492 0.20106445 -0.04982918
000180 e8 3a 53 3e 10 bb 20 3c 78 95 b2 3d 60 f0 81 3e
       0.2062794 0.009810224 0.08719915 0.25378704
000190 af fb 93 3e 10 03 5f be 64 28 c0 3c d0 df 43 3e
       0.28902957 -0.21778512 0.02345676 0.19128346
0001a0 98 af 8f 3e 8c f4 4a 3e 01 6b a0 be f4 3a 81 be
       0.28063655 0.1981985 -0.31331638 -0.2524029
0001b0 48 5c 63 be b8 2e cb 3d f8 38 9e 3e e7 20 c7 be
       -0.22203171 0.0992102 0.3090284 -0.3889229
0001c0 a6 fc 7f 3e 3d 42 4f be 04 77 7e be b9 39 f8 bc
       0.24998721 -0.20240112 -0.24850088 -0.030300962
0001d0 b8 cb 70 3e d8 91 73 3c 07 7a d3 be 0b 15 85 bc
       0.23515213 0.014866315 -0.41304037 -0.016245386
0001e0 2b 49 82 3e f4 d2 88 3e fc 54 33 3e 62 a9 54 3e
       0.25446448 0.26723444 0.17512888 0.2076774
0001f0 a9 2a 36 3e 5e b9 90 3d 2d 5c d9 be 25 4a e3 be
       0.17789711 0.07066606 -0.42453137 -0.44392505
000200 7a c1 97 be 60 a2 93 bc 97 a9 e7 bd 5b a6 0f 3e
       -0.29639798 -0.018021762 -0.113116436 0.14028303
000210 a1 80 0c 3e c4 5d 09 bd 94 31 21 3e
       0.13720943 -0.033536687 0.15741569

bias f4 [15]
000000 51 ed 82 bc 1d 1e 82 3e 9e 0c 01 3d 04 05 b6 be
       -0.015982302 0.254136 0.031506173 -0.35550702
000010 8c 99 e4 3d 7e ad e2 bd f5 ce 21 be df ad a4 be
       0.11162099 -0.11068247 -0.15801604 -0.32163903
000020 35 b9 8c bb 43 d9 3d 3d 16 d3 9d be 21 1e 90 3e
       -0.0042945393 0.046349775 -0.30825108 0.28147987
000030 ab 84 a8 be 18 6f ee bd 51 67 5e 3e
       -0.32913718 -0.11642283 0.217191

weight f4 [20, 15, 3]
000000 30 2b 77 3d 2b 6b bc 3d 1e 18 a1 bc 51 4d 39 bd
       0.06034392 0.09200128 -0.01966482 -0.04523975
000010 01 0d b8 bd a6 3b ce 3c 65 0e 2e be fa 64 76 bd
       -0.08986855 0.025174927 -0.16997679 -0.060154893
000020 e7 59 e6 bd 8f 07 8d bd 8a b2 9f bd fe 2a cf bd
       -0.11247616 -0.06886207 -0.077977255 -0.10115622
000030 48 0a 42 3e 32 dc 46 3e a2 89 2d 3e fd d4 40 be
       0.18949234 0.19419935 0.16947034 -0.18831249
000040 a2 27 f4 bd a8 71 55 3d 3c 7f be 3c a9 52 c2 3c
       -0.11921622 0.052110344 0.02325403 0.023721056
000050 f8 f3 9c bd 0e 4e 5a be 61 5c 15 be e3 ec 64 bc
       -0.07663721 -0.21318838 -0.14586021 -0.013972494
000060 8f a4 7f be c4 72 60 be 35 a0 cf bd b4 ec b1 bd
       -0.24965118 -0.2191878 -0.10137979 -0.08687726
000070 f3 1c 2e 3d b2 e0 d8 3b db a5 20 bd d4 48 d0 3c
       0.042508077 0.0066185826 -0.039220672 0.025425352
000080 bb 10 fe 3d 34 51 c5 be 75 a0 c4 b9 a1 ee 97 bc
       0.12405535 -0.38538516 -0.00037503583 -0.018546404
000090 1c 3d 1c 3e 12 15 fb bd 94 9f 05 bd 49 1b c0 bd
       0.15257686 -0.12259878 -0.03262289 -0.09380204
0000a0 74 fe e9 3d 9f e0 e4 bc a0 a5 d8 3d 75 5e a7 3d
       0.11425486 -0.027939139 0.105784655 0.08172313
0000b0 c9 ad f2 3d 49 ed a9 bd 7a 01 04 be f9 9d 24 3d
       0.11849553 -0.08297212 -0.12891188 0.040189717
0000c0 e2 23 a2 3d 6d dc 46 3d d9 6b 85 be 4c b3 cb 3d
       0.07917 0.04855006 -0.26058844 0.099463075
0000d0 47 7d 0d 3e e2 e9 1d 3e 29 dd d6 3d c2 03 02 bd
       0.13817321 0.1542125 0.10491402 -0.031741865
0000e0 4d 8d 81 bd 7e 33 ac bc ae 56 77 be 67 38 d9 3d
       -0.06325779 -0.021020647 -0.2415416 0.10606461
0000f0 95 bf 70 be b5 91 e4 bd b4 cf 00 3d fe 8d 0b be
       -0.23510583 -0.11160604 0.03144808 -0.13628384
000100 0f 45 d1 bd 97 84 96 3d 04 82 2f 3e 7f 65 29 3e
       -0.1021825 0.07349508 0.17139441 0.16542624
000110 43 ea 92 3c 6c f3 89 be ce 60 92 be 25 b6 25 be
       0.01793397 -0.2694353 -0.2858948 -0.16182764
000120 70 96 e5 be db 77 27 be 0d 14 86 be 00 17 f6 3d
       -0.44841337 -0.16354315 -0.26187173 0.12016106
000130 99 e5 94 bb 37 85 0b be e3 a7 18 bd d5 9a 51 bd
       -0.0045439717 -0.13625036 -0.037269484 -0.05117305
000140 b0 77 aa 3d 35 6c 5f bd 5a 4b a1 bc 53 98 af bc
       0.0832361 -0.054546554 -0.01968925 -0.021434939
000150 ca 0b 6f be fd e4 52 be ab 36 12 be 88 43 a9 bd
       -0.23344341 -0.20595165 -0.14278667 -0.08264834
000160 0a 23 d0 3d 40 a5 24 be 19 62 72 3d 8b 37 df 3d
       0.10162933 -0.16078663 0.059175584 0.10899266
000170 00 96 c8 3b 13 85 18 be 29 90 93 3c 68 90 a2 3d
       0.006121397 -0.14894514 0.018013077 0.079376996
000180 78 62 8d 3c aa 44 3a bd a7 a4 01 3e ef c3 db 3c
       0.017258868 -0.04547564 0.12660466 0.026826827
000190 f6 30 21 bd 83 4b 1d 3e cb 57 b9 3d 60 42 9b bd
       -0.039353333 0.15360837 0.09049948 -0.075810194
0001a0 92 44 93 3d c7 66 4b be 3e 91 05 3e 4f c3 8a bd
       0.07190813 -0.19863425 0.13043687 -0.067755334
0001b0 18 95 8b 3d 47 aa 6d 3d aa 5e da 3c 7a f4 fd 3b
       0.06815547 0.058023717 0.026656467 0.007750091
0001c0 57 db 5b be 27 ad 0a be 06 9b 4e be 34 3d f7 3c
       -0.2147039 -0.13542615 -0.20176324 0.030180551
0001d0 f4 ea 11 be 1a 00 17 3b 30 c1 05 bd 6f a7 2b 3d
       -0.14249784 0.0023040832 -0.03265494 0.041907724
0001e0 d2 16 0e 3e 18 fd 4f 3d 61 6b 46 bd a5 8a 1e be
       0.13875893 0.05077848 -0.04844225 -0.15482576
0001f0 7d bf 4a be ac d7 e4 3d 52 d5 46 bd 53 cf b3 3c
       -0.1979961 0.11173949 -0.04854328 0.021949446
000200 38 67 69 3d 83 9a ae bd dd 15 c6 3d 5d 6a 8b 3d
       0.056983203 -0.085255645 0.09672139 0.068073966
000210 32 9d 12 3d f9 58 a4 bd 59 e7 89 bd e3 6a ba bd
       0.035794444 -0.08024783 -0.06733579 -0.09102418
000220 da bd 47 be 5d 2f 22 be 80 94 1e 3e 12 35 ef 3c
       -0.19506016 -0.1583838 0.15486336 0.02920011
000230 3e de ab 3d f3 dc 9b bd 90 4f 4c bc e3 d6 d1 bd
       0.08391999 -0.07610502 -0.012470141 -0.102460645
000240 15 fd 09 bd e1 5a 09 3e e8 16 81 bd ac 99 69 bc
       -0.033688623 0.13413574 -0.06303197 -0.01425783
000250 94 92 51 be 86 b0 56 be 6f a3 9b bd 53 72 b8 bb
       -0.20466071 -0.20965776 -0.07599532 -0.005628863
000260 f2 e7 39 3d 32 d4 48 be 8b 94 62 bd 36 25 68 3b
       0.045387216 -0.19612196 -0.055317443 0.003542257
000270 3c 0a ca 3d 8b f7 c8 3d a4 f1 52 3a 50 b1 23 be
       0.09865233 0.0981284 0.00080468715 -0.15985608
000280 34 fe d3 bc ee c1 20 bd 74 93 83 3b 40 fc 17 be
       -0.02587805 -0.039247446 0.0040153805 -0.1484232
000290 86 42 ad bd 60 81 b4 3b d0 dc 05 bd 77 8b 53 bd
       -0.08459954 0.0055085868 -0.032681286 -0.051646676
0002a0 fe 9a b9 3d 16 50 17 3e 88 60 26 3e 44 27 3c bd
       0.090627655 0.14776644 0.16247761 -0.045935884
0002b0 4e 16 72 bc 47 c7 1f be 6c 0d 78 bd 46 21 98 bd
       -0.014775826 -0.15603362 -0.060559675 -0.074282214
0002c0 b6 2f a8 3d 41 5a 08 be 70 85 21 be b6 cd 49 bd
       0.08212225 -0.13315679 -0.15773559 -0.049268447
0002d0 17 32 08 be 3a 8d 64 3e 87 a9 03 bd 3a 5e b4 bd
       -0.13300358 0.22319499 -0.032144096 -0.08807035
0002e0 5f 93 04 be ec e2 35 be cf 81 39 be 5e ef b1 bc
       -0.12946843 -0.17762345 -0.18115924 -0.021720584
0002f0 10 72 17 3e 52 67 0f bd 9e 87 b1 3c e3 d5 5d bd
       0.14789605 -0.035010643 0.021671113 -0.054159056
000300 85 c5 08 3e 1d 07 0a 3e bb bc 00 3e 40 75 c5 bd
       0.13356598 0.13479276 0.12571995 -0.09641504
000310 9f 77 20 3e 51 89 15 bd 37 47 6b bd 6a f9 19 be
       0.15670632 -0.03650791 -0.057440963 -0.1503655
000320 56 2b 64 3a be 3d ec bd 7e 49 a3 bc 14 ec 42 3c
       0.00087039673 -0.11535214 -0.019932505 0.011897106
000330 5d 49 af bd d4 fc dd bd 4b 7c a6 3c f9 03 26 3d
       -0.08558915 -0.10839239 0.02032294 0.040531132
000340 03 f3 e1 bd 41 00 8b bd 69 da c3 3c 0a e2 62 bd
       -0.11032679 -0.06787158 0.023907857 -0.05539135
000350 a2 13 ba bb f1 01 11 3b 6e a2 f0 bd df 3d 0a 3e
       -0.00567861 0.0022126401 -0.11749731 0.13500164
000360 7a 6f d1 3d 3d 13 6e 3d 56 04 25 bc bd e9 fb bd
       0.102263406 0.058123816 -0.010071835 -0.123004414
000370 0d 23 f7 3d a1 12 c9 bd b8 b6 02 be 0d 38 b8 3d
       0.12067232 -0.09818006 -0.12765014 0.08995066
000380 b2 5e e0 3c 64 18 a1 bc 4c fd 83 be a2 7b 71 be
       0.027388904 -0.01966495 -0.25779188 -0.23582318
000390 30 d2 b1 bd c1 64 19 3e 4d 19 03 3e 14 61 b7 bd
       -0.08682668 0.14979841 0.1280262 -0.08954063
0003a0 52 25 05 3e b4 8a b8 3c 9e 6c 13 3e a4 9b 64 3d
       0.13002518 0.022527076 0.14396903 0.055812493
0003b0 c3 18 9d 3d 37 6c 16 3d 01 e9 97 be ea fd b7 bd
       0.076707385 0.036724295 -0.29669955 -0.08983977
0003c0 2e 55 da bb 94 f7 28 be d9 2d 84 bd 4d e2 01 be
       -0.0066629862 -0.16500694 -0.06454057 -0.12683983
0003d0 f8 99 2b be 04 e7 15 be 6c e0 6a 3e 3c 02 4c 3c
       -0.16757953 -0.14638907 0.22937173 0.012451705
0003e0 5a 82 93 3d 0e a9 94 bd 8c 25 8c bd 96 60 d9 bd
       0.07202597 -0.07258807 -0.06843099 -0.106141254
0003f0 82 14 fb bd 37 69 ac bd 8a 3e 89 be 40 ca 36 3e
       -0.12259771 -0.08418506 -0.26805526 0.1785059

bias f4 [20]
000000 13 c0 90 be 8c 76 d6 3c 4b 51 dc be d7 6d 84 3d
       -0.2827154 0.026179574 -0.43030772 0.06466263
000010 ee f7 03 be 56 b0 9d bd bd 8b de be 14 0a fa bd
       -0.12887546 -0.07699649 -0.43465987 -0.122089535
000020 ac d1 85 3e aa 51 b2 3e eb 8b 8a be 35 30 0f 3e
       0.2613653 0.3482793 -0.27059874 0.13983233
000030 6e fe 89 bc e7 4f b3 be 09 95 ce 3c 99 6a 26 3e
       -0.016844954 -0.35021898 0.02521755 0.16251601
000040 2c 83 a9 bd 85 f2 a6 bd 93 63 80 3e 50 39 bd 3c
       -0.08276972 -0.08151726 0.2507597 0.023098618

weight f4 [30, 20, 3]
000000 38 66 b3 3d 13 ff 88 3d c2 5b c1 3d d1 ef a8 3d
       0.08759731 0.066892765 0.094413295 0.08248866
000010 36 e0 4b 3d 72 9b 89 3c 6a d6 c3 bd 68 be d8 ba
       0.04977437 0.016797755 -0.095623806 -0.0016536238
000020 d3 94 e6 3d aa 6f 07 3d d6 d0 4b bd 06 b5 5b be
       0.11258855 0.033065476 -0.04975971 -0.21455774
000030 12 cc d3 3d 29 d3 31 be 81 73 35 be 3f 81 d8 3c
       0.10341658 -0.17365707 -0.17719842 0.026428817
000040 4b b4 a9 3d 93 44 14 bd 4d 24 90 3d 2d 0b b9 3c
       0.08286341 -0.03619821 0.07038174 0.022588337
000050 25 7c 11 be 55 ac ec bb 32 e8 4b bd 86 5e 28 3d
       -0.14207514 -0.007222692 -0.049781986 0.04110577
000060 63 1c 22 3e c0 b0 86 3d 17 40 b6 3d 43 79 e4 3d
       0.15831141 0.06576681 0.08898943 0.11155941
000070 b4 1b 30 be 02 07 04 bb 9a 67 9a bd 3d 4e 48 3c
       -0.17198068 -0.0020145779 -0.07539292 0.012225685
000080 72 6c ad bb ef dd 89 3e d2 e9 c4 bc be 2f 1d be
       -0.0052924687 0.26927134 -0.024037275 -0.15350243
000090 04 cc 76 bc 15 50 4c bd f6 b5 bb 3d 9d 8e 39 3e
       -0.01506329 -0.04988106 0.09165566 0.18120809
0000a0 ee 21 77 3d fc f9 82 3d 61 da b8 38 db 75 80 bd
       0.060335092 0.06395337 8.81448e-05 -0.06272479
0000b0 bd 7d a5 bd 6b ea 2d 3d 83 d6 05 be f9 af 88 bc
       -0.08080623 0.042459887 -0.13070111 -0.016685473
0000c0 97 f6 e9 3d 3a 26 e8 3d 2e e2 4e be 71 ff ec 3d
       0.114239864 0.11335416 -0.20203468 0.11572159
0000d0 7f 5b c5 bd 50 93 de bc 81 c7 2a 3e 49 c7 0d 3e
       -0.09636592 -0.027169853 0.16677667 0.13845553
0000e0 30 17 d7 bd 18 b2 ed 3c 8b 03 7a be 33 99 e5 3d
       -0.105024695 0.029015586 -0.24415414 0.11210861
0000f0 a0 fd 0d 3e a9 2b 44 bd ca e9 9e bd 38 eb 13 3c
       0.13866282 -0.0478932 -0.077594355 0.0090282485
000100 8e 20 41 bc 3c 67 e3 bc 6f f0 97 3d 6b a8 d0 bd
       -0.011787547 -0.027759187 0.07418906 -0.10188373
000110 23 ea 82 bd aa b0 a9 3a f7 6a ac bd 0d 99 74 bd
       -0.06392314 0.0012946327 -0.084188394 -0.059716273
000120 6e 53 94 3c 9d 8a 00 be 93 6f 25 3e 62 ea 5a bc
       0.018106189 -0.12552877 0.16155843 -0.013361545
000130 f6 6a 68 bd 0f 63 36 bd f5 d0 17 be 22 93 79 3d
       -0.05674263 -0.044528063 -0.14825805 0.060931332
000140 04 b9 78 3d 3c b7 b0 bc 66 2c 98 bc 08 07 1d 3e
       0.06072332 -0.021571748 -0.018575858 0.15334713
000150 a8 a7 7c be ba 4c ef 3c c8 5f cc be 9f 03 03 be
       -0.24673331 0.02921139 -0.39916825 -0.1279435
000160 1e 78 99 3c 8a b8 a8 bd c3 b1 76 3d 07 3e 24 bd
       0.018734034 -0.08238323 0.06022812 -0.040098216
000170 0f 84 c6 bc 8a d2 51 be 4e b6 9e 3d 86 64 6e 3d
       -0.024232892 -0.2049047 0.077496156 0.058201335
000180 86 be e9 bd 90 fe 55 bd 0c 11 43 be 2f 32 63 3e
       -0.114132926 -0.052244723 -0.19049472 0.22187112
000190 6a ee a3 3d fc 89 ed 3d 0d 9b 9c 3d 07 da 70 3d
       0.08004458 0.11598584 0.07646761 0.058801677
0001a0 77 16 88 3d 63 fc 9c 3d aa e5 93 3d 22 39 bb 3b
       0.0664491 0.076653264 0.07221539 0.005713598
0001b0 94 cd 04 3e c9 42 c9 3d 57 ab 39 3c b0 53 7b bd
       0.12969047 0.098271914 0.0113323545 -0.061359107
0001c0 2a 48 34 3d 31 72 e2 3d b1 a8 21 3e 1f 0d 15 bc
       0.044014134 0.110569365 0.15787007 -0.009097367
0001d0 26 9e 42 bc cd c0 4c be 6b 5f 8c bd ca d5 8a 3c
       -0.011878526 -0.19995423 -0.06854137 0.016947646
0001e0 02 35 50 3b 26 f4 46 3d 58 5a b0 3d 08 03 a6 bd
       0.0031769876 0.04857268 0.08610982 -0.08106047
0001f0 9d de a4 bd 3d fd 0e bd a3 b3 bd bd 30 40 9d bd
       -0.080502726 -0.034909476 -0.092627786 -0.076782584
000200 4b 06 48 3e 57 ff 11 3d 2f 6f f7 bd c9 23 b3 bd
       0.1953365 0.0356439 -0.120817535 -0.0874706
000210 84 32 9e 3d 1c d9 94 3d 8f 34 d3 3d 92 01 15 bd
       0.07724479 0.07267973 0.10312759 -0.03637845
000220 da 32 03 bc 53 fb 43 be fb 4e 91 bc 77 0d b6 bd
       -0.008007729 -0.19138841 -0.017737856 -0.08889287
000230 93 ca 8d bb fd 54 20 3e aa a4 98 3d f2 71 da bd
       -0.0043271272 0.1565742 0.07453282 -0.106662646
000240 6c 1f 34 bd 45 9f 5d bd 9c 6a d0 bd 97 cf e9 bd
       -0.04397528 -0.05410697 -0.10176584 -0.11416548
000250 94 c5 b2 3d 53 c6 e2 3d 30 96 e9 3d f1 a0 b1 bd
       0.08729091 0.110729836 0.11405599 -0.08673275
000260 1f 59 0b 3e fa 1a e0 bd 43 1e b6 bd 9b 8c f9 bb
       0.13608216 -0.10942645 -0.08892491 -0.0076156384
000270 67 ee 81 bc ad c2 4f bd a5 71 6d 3d bc 0a 92 bd
       -0.01586075 -0.050722767 0.057969708 -0.07130954
000280 2a c3 3a 3e 07 b5 6a bd 6a b6 ad bd 69 ae df bd
       0.18238512 -0.057301547 -0.08482058 -0.10921938
000290 19 b8 00 3e b5 ae e0 3d 45 78 ac bd 8b 44 a0 bd
       0.12570228 0.10970823 -0.08421377 -0.078255735
0002a0 7d 96 de 3d e3 30 17 3d cc 57 a6 3d 63 8d 98 bd
       0.10868547 0.036911856 0.08122215 -0.074488424
0002b0 25 c8 ea 3d 0f c5 12 3e f2 2f eb bc cf 89 8b bd
       0.11463956 0.14332984 -0.028709386 -0.06813394
0002c0 8e 30 d8 3d ed 07 60 bd 64 64 39 be 4c 64 f9 bc
       0.10556136 -0.05469506 -0.18104702 -0.030443333
0002d0 ef f4 5d bd df 8a 85 bc 6a fa ee 3d 3b 09 01 be
       -0.054188665 -0.01630157 0.116688564 -0.12601177
0002e0 d9 5a e6 3d 9c 99 ac 3d 24 9a af bd 97 b4 b6 bd
       0.112477966 0.08427736 -0.08574322 -0.089211635
0002f0 70 09 7f bd 07 a5 82 3c 82 80 12 3e fa 82 3f 3e
       -0.06226486 0.015947832 0.14306834 0.18702307
000300 fd 99 1e be e8 b1 a3 bd 6c 8b c1 bd 95 95 c8 bd
       -0.1548843 -0.07992917 -0.09450421 -0.097941555
000310 4e 16 ce 3d 23 8e 46 bd 95 80 d8 3b b3 42 c4 3c
       0.10062848 -0.048475396 0.006607125 0.023957586
000320 b1 c3 9b bc a9 eb 96 bd 61 8c 6c bd f3 0f 00 bc
       -0.019014211 -0.07369167 -0.057751063 -0.007816303
000330 32 81 ec 3d ac f7 ad 3d 98 22 da bb 33 a5 0b 3c
       0.115480796 0.08494505 -0.006656956 0.008523273
000340 d2 95 af 3d 04 af fa bc 18 42 d0 3d 8f 4d f0 bc
       0.08573498 -0.030601032 0.101688564 -0.029333858
000350 d6 7a 17 bc 59 e1 68 3e aa cd c5 bd 14 7b 81 bd
       -0.009245595 0.22742213 -0.09658368 -0.063223034
000360 da ee de 3d 90 6c fb bd 10 bc 05 be ff 8b a2 be
       0.10885401 -0.12276566 -0.13060021 -0.31747434
000370 9c 4b 8e bd 21 45 07 3e 71 60 e3 3c c7 1c ab 3d
       -0.06948015 0.13209964 0.027755948 0.08355098
000380 ec 59 ed bd 7c 00 85 3d 94 e4 98 bd 46 32 a4 3d
       -0.11589417 0.06494233 -0.07465473 0.080174014
000390 b7 e6 5d bd b6 14 17 be ba 82 e9 3c 81 4d 94 3c
       -0.054175105 -0.14753994 0.028504718 0.018103363
0003a0 4d 50 a9 bd 36 8a 1f bd b3 4b a2 bc b8 a7 c9 3d
       -0.08267269 -0.038950168 -0.019811487 0.09846443
0003b0 f1 28 55 bb d8 99 01 be b5 cd 52 3c 08 4f e2 3d
       -0.0032525624 -0.12656343 0.012866427 0.1105023
0003c0 c5 30 97 bc 36 bf 37 3e 0a 58 e4 bc 5d c5 fb bd
       -0.018455872 0.17944035 -0.027874012 -0.122935034
0003d0 0b a9 59 be 1e a8 20 3e 7b 22 0c bd 04 b5 54 bd
       -0.21255891 0.15689132 -0.03421257 -0.051930442
0003e0 eb 36 65 bd db fc ca 3d c4 02 ba bc 90 5a a1 3e
       -0.055960577 0.099115096 -0.022706397 0.31514406
0003f0 81 b5 da bd 87 ed 06 3e e6 4d 9b 3d 66 72 73 bd
       -0.106791504 0.13176547 0.07583217 -0.05943527

bias f4 [30]
000000 c4 8a ba be 77 58 a5 bd cf f2 0c 3e 76 97 a1 3e
       -0.36433995 -0.08073514 0.13764499 0.31560868
000010 04 5c ae bd 7e 91 32 3e d6 88 35 bd ee c6 d5 3c
       -0.08513644 0.17438313 -0.04431995 0.026095834
000020 ef 65 95 bd 30 84 b2 bd 6b c1 00 be 57 16 52 3e
       -0.07294833 -0.08716619 -0.12573783 0.20516334
000030 ca b2 91 3e a8 c1 50 be 08 91 b7 bd 27 c8 d1 bd
       0.28456718 -0.20386374 -0.089632094 -0.10243254
000040 9e b5 81 3e 20 7c d1 be 90 9e 1c 3e 16 a3 87 be
       0.25333875 -0.40915012 0.15294862 -0.26491612
000050 29 98 40 be 1b 8b 08 be 76 7c a4 be d0 00 5e 3d
       -0.18808044 -0.13334315 -0.32126206 0.054199994
000060 5c 11 2c be 72 09 38 3b 1b c5 65 3e 59 cb a8 be
       -0.16803497 0.0028081802 0.22438471 -0.32967642
000070 0f 0b 3a 3e 44 46 ff 3d
       0.18168281 0.12464574

weight f4 [100, 30, 3]
000000 17 e5 99 3c 8a db 76 bd b4 3f f9 3d 31 48 0c be
       0.018785996 -0.060267963 0.121703535 -0.13699414
000010 d9 a8 02 be 02 ed aa 3c 51 4b 9b 3d cf 8a be 3c
       -0.12759723 0.020864967 0.07582725 0.023259548
000020 b9 65 4b be 05 4e 5f bc 0b bc 89 3d b3 cf e2 bd
       -0.19863023 -0.013629441 0.067253195 -0.11074772
000030 22 d0 ba 3d cf a9 ce 3d 73 54 b1 bd 64 68 93 bd
       0.091217294 0.10090982 -0.086586855 -0.07197645
000040 7a 99 2f 3d 6d dc fa 3c 1d cb 53 3d f6 bf e5 bd
       0.042870976 0.030622685 0.051707376 -0.11218254
000050 02 03 87 bb 3f a1 81 3d 56 aa 9b 3d e9 63 1a 3e
       -0.0041202316 0.063295834 0.076008484 0.15077175
000060 59 b1 9f bc 10 14 f5 3d 5a a9 9f 3d 48 ef 17 3d
       -0.019493746 0.11966717 0.07795973 0.03709343
000070 b4 f4 5a bd 80 15 fe bc e9 32 26 bd c3 79 53 bd
       -0.053456023 -0.031016111 -0.040575895 -0.051629793
000080 0c 5b 09 3d ea 7b c2 bd 60 dd dd bd ea eb 38 3d
       0.033534095 -0.09496291 -0.108332396 0.04514686
000090 0d 1c 34 be 1f 69 0e 3d 16 bb a1 bb 5a 39 fc bd
       -0.17588826 0.03476822 -0.0049356325 -0.123156264
0000a0 b3 e5 43 3d b0 9a 25 3d 10 5d cd bd ef 11 ab bd
       0.04782648 0.040430725 -0.10027516 -0.0835303
0000b0 7a 5c 0f bd 85 d9 1b bd 7f 65 4e 3c 3f 1a bf 3d
       -0.035000302 -0.03804924 0.012597441 0.09331178
0000c0 65 cf 66 3d 67 c6 26 be 54 66 20 be f2 06 be bd
       0.05635013 -0.16286622 -0.15664035 -0.092786685
0000d0 5d de f1 3d 9b a8 f5 3d f0 f6 05 be d3 23 f1 3c
       0.118099906 0.119950496 -0.1308248 0.029436028
0000e0 52 08 fd 3b 6f 95 8c 3b ce 7c b1 3c 41 2d 79 bd
       0.007721939 0.004290275 0.021665957 -0.060834173
0000f0 92 aa 0c 3e ae 85 11 bd fa 52 f6 3d 2b e0 81 bd
       0.13736942 -0.035527878 0.12027545 -0.06341585
000100 65 9c 0d 3e 49 25 82 bd be 06 2c bd 33 d1 1c 3e
       0.13829191 -0.06354768 -0.041998617 0.15314178
000110 74 6a a9 bd 60 91 89 bc 3f 39 ce bc c9 cc 91 be
       -0.082722574 -0.016792953 -0.025173781 -0.2847655
000120 cf ea e2 bc 4d 5e 5f be 1d cd fe bd d0 30 66 bd
       -0.027699856 -0.21813317 -0.12441466 -0.056198895
000130 cd 1f 5e 3c 9e 02 99 bd 6f a0 36 3c dc 78 17 be
       0.013557387 -0.07471202 0.011146649 -0.14792198
000140 59 54 51 3c eb c7 39 3e 78 1b 4c be ab c1 3f bd
       0.012776458 0.18142669 -0.19932353 -0.046815556
000150 b6 e6 7c 3e 39 90 e5 3d f4 73 dc 3d 2d b2 18 be
       0.24697384 0.11209149 0.10764304 -0.14911719
000160 c4 b2 bd ba 79 12 c4 bd 64 5b 24 3e d4 69 07 3e
       -0.0014472832 -0.09573836 0.16050488 0.13223964
000170 84 69 79 3d 29 4b 35 3c 8a 1a e3 3c 6e d3 42 bd
       0.060891643 0.011065283 0.027722616 -0.047564916
000180 e1 cd a8 bd ce 00 98 3d 61 6a b0 bd be 0b 32 be
       -0.08242393 0.074220285 -0.0861404 -0.17387292
000190 83 3f 31 be cd 58 c3 bd 07 9a aa bd 2c dc c2 bd
       -0.17309384 -0.09538422 -0.0833016 -0.09514651
0001a0 c4 aa 9c 3d c0 73 18 be 3a aa 43 be 92 b0 5f bb
       0.076497585 -0.14887905 -0.19107905 -0.0034132344
0001b0 d1 2e 1f 3d ac 2b 1e bc ba 84 7e bb 6a 1b 62 3d
       0.038863007 -0.009653967 -0.0038836435 0.055201925
0001c0 fd ab c9 3c ab 0d 1c be 22 32 c4 bd 11 5b 8c bc
       0.024618143 -0.15239589 -0.095798746 -0.017133268
0001d0 3e dc ba bd d1 bc bd bc 0c 7a 6a bd d9 7d b3 3d
       -0.09124039 -0.023161324 -0.0572453 0.08764238
0001e0 b0 53 8f 3d dc 35 45 3a e8 62 01 bd 13 d9 1a be
       0.06998384 0.0007522979 -0.031588465 -0.1512187
0001f0 ac 36 b9 bd 33 a1 86 bd e9 64 b6 3a 23 4a 12 be
       -0.09043631 -0.06573715 0.0013915572 -0.14286093
000200 06 41 87 be 89 d5 c7 3d 87 4d 7f 3c 0b 53 d6 bc
       -0.26416796 0.097575255 0.015582449 -0.026162645
000210 c8 ff 7c 3d d8 d0 af 3b e5 73 eb bc a8 30 b1 3c
       0.06176737 0.0053654723 -0.028741786 0.021629646
000220 8f 75 14 bc 96 fe c7 bd 8c 2b f8 bc 58 9e b8 3d
       -0.009061231 -0.09765355 -0.030294202 0.09014577
000230 7f 44 21 3d ff d9 91 bc 72 af f5 3d 8f 38 14 3e
       0.039371964 -0.017804144 0.11996354 0.144747
000240 92 a4 fc 3d a9 01 c5 3c 98 97 f5 3c 09 29 6a be
       0.12336077 0.024048643 0.029979512 -0.22867216
000250 84 b8 32 3c 44 18 2f 3e a2 e2 76 3d 45 73 4e 3d
       0.01090825 0.170991 0.060274728 0.0504029
000260 1b 55 34 3c c4 8e c0 3d ef f1 e6 3d 63 ec 2e 3e
       0.011006619 0.094022304 0.11276614 0.17082362
000270 2f 25 33 be 38 5b b7 3c 5d d7 e5 3d 07 4b 05 bd
       -0.17494653 0.022382364 0.11222718 -0.032542255
000280 0e 34 24 3e 80 58 d8 3c 86 e9 ee bc 61 d4 d1 3d
       0.16035482 0.026409388 -0.029164087 0.10245586
000290 ed 5d db 3c 10 84 ec 3d 45 38 0a 3d 3e fc f3 bc
       0.026778186 0.115486264 0.03374507 -0.029783364
0002a0 66 27 18 3d fb af d7 3d fa 51 8c bd 15 77 f1 3d
       0.03714695 0.105316125 -0.06851573 0.11790291
0002b0 28 46 2d 3e b4 2e 95 3b 2f 42 99 3d ab 74 d4 bd
       0.16921294 0.0045526866 0.07483327 -0.10373815
0002c0 43 7d 61 bd ec 47 17 bb 08 5b 02 bd 92 47 98 3d
       -0.0550511 -0.002308364 -0.031825095 0.07435526
0002d0 25 85 87 3d 19 7a 8b 3c 12 a0 58 bb 5e d9 b6 3d
       0.06617192 0.017025994 -0.0033054394 0.08928178
0002e0 b4 bc e8 3d 30 b1 1e be a9 11 a3 bd 54 fe c8 3d
       0.11364117 -0.15497279 -0.07962353 0.09814134
0002f0 22 e6 2a bd 81 f4 3e be 88 07 e3 bd 9e b7 8f 3d
       -0.041723378 -0.18647958 -0.11085421 0.07017444
000300 60 b1 4a be f1 e1 56 3e d3 81 cd 3d 4b df bd bd
       -0.19794226 0.20984627 0.10034528 -0.092711054
000310 cf 84 2a 3d 06 19 6c 3c 5d 8a 40 3d fc 31 38 bc
       0.041630562 0.014410263 0.047006954 -0.011242386
000320 97 87 91 3d 91 aa 45 bc ad 40 02 3d 71 74 c4 bb
       0.0710594 -0.012064592 0.03179996 -0.005995326
000330 48 b9 0b be 82 c5 d7 bd 6c 0a cc 3d 56 30 08 bc
       -0.13644898 -0.105357185 0.09962925 -0.008312305
000340 de 54 de bc 44 79 0a 3d 96 a5 0d be 20 0d ec bd
       -0.027140077 0.033807054 -0.13832697 -0.11525941
000350 b7 65 96 3d 1d eb 46 be 4f b2 d3 bd 7d e6 3e bd
       0.07343619 -0.19425626 -0.10336744 -0.04660653
000360 c7 28 ce bd 30 0c b6 3a c6 68 bd 3d 1c 3e 8f bd
       -0.100663714 0.001388913 0.092484996 -0.06994268
000370 c3 2a f7 bd 19 58 0e 3e e4 23 fc 3d df fb 15 3d
       -0.12068703 0.13900794 0.12311533 0.036617156
000380 05 15 30 3c 2d 03 ae bd 0f e0 58 3d 92 dc 5e bb
       0.010747199 -0.084966995 0.052948054 -0.0034005982
000390 b1 90 13 bd 50 d7 12 bc 6b 77 05 bd 69 6b 22 3c
       -0.03602666 -0.008962467 -0.03258459 0.009913304
0003a0 47 05 3d bc f2 63 e8 3b d6 04 e6 3a 71 e3 ea bd
       -0.011536903 0.0070919925 0.0017549049 -0.11469162
0003b0 0e bc f7 3c 50 8b 4f be 98 9b a0 3d 2a 51 47 3d
       0.030241039 -0.20267987 0.07842177 0.04866139
0003c0 de c4 0d 3d 8f a0 b3 3c e1 7d 6c 3e e4 1c 56 bc
       0.034611575 0.021927146 0.23094894 -0.0130684115
0003d0 15 3e ac 3d dd 8a bf 3d aa 66 c6 bd 1e 50 ce bc
       0.08410279 0.09352658 -0.0968755 -0.025184687
0003e0 da 2e 74 bd ba 71 c0 b9 63 4d f9 3d 6f 53 81 3e
       -0.059614994 -0.00036705827 0.121729635 0.25258967
0003f0 20 b3 d3 bc 7a cc 72 3d a9 d9 d4 3b ec 79 bb 3d
       -0.02584225 0.059277035 0.0064956737 0.09154114

bias f4 [100]
000000 ca 90 bb 3c 41 de 7c be 25 11 8a be d2 f7 80 3e
       0.02289619 -0.24694158 -0.26966205 0.25189072
000010 0b c0 89 bd 6c 31 8c be e7 49 c2 be 84 18 e7 be
       -0.067260824 -0.27381456 -0.37947008 -0.4513589
000020 bf e8 ba be 8e 67 30 be 44 d4 08 be e2 4f 35 3e
       -0.36505696 -0.17227003 -0.13362223 0.17706254
000030 fc 5d 4f bd cf 10 05 3e 31 52 ac be 29 21 a9 3e
       -0.05062674 0.12994693 -0.33656457 0.33033112
000040 22 2e 07 be 0c 65 87 be 8f fc 74 3d a0 94 4a 3e
       -0.13201192 -0.2644428 0.05981117 0.19783258
000050 42 a6 b8 3c 5d ef 4a be 99 24 64 be 64 89 43 3e
       0.022540215 -0.19817872 -0.22279586 0.19095379
000060 e1 aa 8a bd ec b8 2a be 31 7c 0b be b7 2b 7e be
       -0.06770874 -0.16672105 -0.13621594 -0.24821363
000070 be dd f2 bd aa 4a 2d be 87 c9 a7 be aa 49 e5 3d
       -0.118587 -0.16923013 -0.3277094 0.11195691
000080 b5 19 37 3e e5 84 85 be 84 85 16 be 9a e8 0d 3e
       0.178809 -0.26077953 -0.1469937 0.13858262
000090 56 0b 12 3e 48 64 9a bd c6 af c7 be fe ff 01 3c
       0.14262137 -0.075386584 -0.39001292 0.007934568
0000a0 2b 94 b8 be 66 5a 73 3e 41 81 a3 3e ba 85 81 be
       -0.36050543 0.23764953 0.3193455 -0.25297338
0000b0 39 ab 65 be 2b 85 81 bd 4e 4a c8 bc 31 07 af bd
       -0.22428598 -0.06324228 -0.024449494 -0.085462935
0000c0 3a 4e 7c bc 57 1c 19 be 70 dc 57 be 9a d1 95 be
       -0.01539951 -0.14952217 -0.21080184 -0.29261476
0000d0 df 8f 36 3e 26 05 00 3d ca 85 c9 be 02 d0 ba 3d
       0.1782832 0.03125491 -0.39359885 0.091217056
0000e0 2c 70 cd be 90 54 f1 3d b9 52 b9 be 04 df 77 be
       -0.40124643 0.11783707 -0.36195925 -0.24206167
0000f0 bd 2a 9c be 59 0f ca bd a4 4b 05 be 6b e0 ed 3c
       -0.30501357 -0.098662086 -0.13017136 0.029037675
000100 27 95 9e 3d f5 c9 04 be 30 28 c8 be 45 75 55 3c
       0.07743292 -0.12967665 -0.3909316 0.0130284475
000110 e6 86 16 be b1 5b a2 bd 9e b8 b2 bc c0 c7 9e 3c
       -0.14699897 -0.07927645 -0.021816548 0.019382358
000120 02 df 92 be c3 26 cc be cc d7 26 be a4 c2 06 3e
       -0.28685766 -0.39873323 -0.16293257 0.13160187
000130 6d 4a 64 be ac 64 9a be ad 6a d6 be 0d 83 4a 3d
       -0.22294016 -0.30154932 -0.41878262 0.049441386
000140 87 55 15 3e b2 5e 40 bd 98 04 90 bd 0c ef cc be
       0.14583407 -0.04696531 -0.07032126 -0.40026128
000150 96 16 36 be d0 81 ad be 63 d0 b7 3c f3 d2 43 3e
       -0.17782053 -0.33888102 0.022438234 0.1912344
000160 3e 99 9e be 14 0d 58 be d4 b5 94 3d 5f d3 4c 3e
       -0.3097629 -0.21098739 0.072612435 0.20002507
000170 18 75 08 be 9f fc ca be e7 43 bb be 27 93 08 3e
       -0.13325918 -0.3964586 -0.36575243 0.13337384
000180 85 c2 ad 3d 89 ce ac be a0 23 09 bd c0 ed 0b 3e
       0.08484367 -0.33751324 -0.03348124 0.13664913

weight f4 [100, 800]
000000 33 76 47 bd 51 fe 9f bd b8 20 d7 bc a8 df bc bb
       -0.048696708 -0.07812179 -0.026260719 -0.0057639666
000010 f2 27 9f bc 3d 2b 6d bc 3c 61 8b bd 3e 28 d1 bc
       -0.019428227 -0.014475641 -0.06805655 -0.025531884
000020 7d 6e 39 bd b8 09 2d 3d 66 a0 22 bd ff 61 44 bd
       -0.045271385 0.042245597 -0.03970375 -0.04794502
000030 82 c8 42 bb ef eb 6b bd 16 af 5c 3b 6c 9c b2 bc
       -0.0029721563 -0.05759805 0.0033673695 -0.021803103
000040 6d 76 39 bd c4 9f ee bc 64 6a 25 bd e6 c3 32 bb
       -0.045278955 -0.029128917 -0.040384665 -0.002727741
000050 9d f7 5b bd 64 70 bd bc 8c e4 04 3c 65 12 78 bd
       -0.05370294 -0.023124881 0.00811113 -0.060564417
000060 d3 9c 19 bd 39 ab 1c 3c 27 6d 83 bc dc 62 fe bc
       -0.037503075 0.009562307 -0.016043259 -0.031053
000070 05 24 c8 3b 8e a8 bb bc 58 60 e2 bb 99 8c 96 bc
       0.0061078095 -0.022907522 -0.0069084577 -0.018377589
000080 22 98 f8 bb cb b8 ff 3c 91 90 1b bd 9d 66 5d bd
       -0.007586495 0.031216046 -0.037979666 -0.054052938
000090 a8 8f fb bc 5f 98 8c 3c 3d 9d 2c 3d 6a 30 7b bd
       -0.03070815 0.0171625 0.04214214 -0.061325468
0000a0 8d 2b 1d bd 82 f4 b1 bc c3 fd 28 bb fc 61 13 bd
       -0.03837161 -0.021723036 -0.002578602 -0.035982117
0000b0 5c 88 00 bd 86 81 0f bd b2 ac fa bc 34 c5 17 bd
       -0.031380042 -0.035035633 -0.030599926 -0.037053302
0000c0 61 d8 c2 3c 4d 43 03 bd c4 4c 8c 3c 06 8d 7c bc
       0.023784818 -0.032046605 0.017126448 -0.015414482
0000d0 18 5d 7f 3a 2a 68 db bc 64 1a da bc a0 17 14 bd
       0.000974135 -0.026783068 -0.026623912 -0.036155343
0000e0 a5 80 68 bc 78 e4 b3 3c f7 23 18 bc c8 ab a9 ba
       -0.0141908275 0.021959528 -0.009285918 -0.0012944872
0000f0 f4 b4 99 3b e2 40 ba 3c a0 ab 4f bb 53 88 9d bc
       0.0046907607 0.022736017 -0.003168799 -0.019230044
000100 cd c3 fc 3b 9d 06 94 bc 0f 3b 13 3c 4d 4a 59 3c
       0.007713771 -0.01806956 0.008986249 0.013262344
000110 20 58 80 bc a8 2f 93 bc 4b 14 af bc bb 78 1d bd
       -0.015667021 -0.01796706 -0.021371981 -0.038445216
000120 7e d8 44 3b 7a 3b 1f 3c 48 f0 b2 bc 57 74 48 bc
       0.0030036266 0.00971877 -0.02184309 -0.012234769
000130 0b 06 7d bc d9 78 37 bc 79 c3 26 bc 19 f5 21 bd
       -0.015443335 -0.011198246 -0.01017844 -0.039540384
000140 54 00 d8 bc cd 56 ed bb 8d 38 b5 3b 89 5e 89 bc
       -0.026367344 -0.0072430135 0.005530423 -0.01676871
000150 8a d6 1c bd ec 08 b5 3c 3e 38 40 3d af 18 7d bd
       -0.038290538 0.02209898 0.046928637 -0.06179112
000160 dc ec 62 bc b8 79 ca bb 54 3e ff bc cf 53 d2 bc
       -0.013850417 -0.006179061 -0.03115765 -0.025674729
000170 c8 6a 68 3c 62 ba d4 bc f2 54 90 bc 05 a4 07 bd
       0.014185615 -0.02596778 -0.01761863 -0.033115406
000180 bd 60 ab bc 9f ce 1d bd 98 43 09 bd 0a f9 e3 3a
       -0.020920152 -0.038527127 -0.033511728 0.0017392945
000190 14 9c 46 bc e8 17 aa 3b 23 55 ba bc f6 11 71 3c
       -0.012122173 0.005190838 -0.022745674 0.014713755
0001a0 e4 51 8b 3c 99 ca e9 bc c1 a9 92 bc 51 a0 86 bb
       0.017006822 -0.028538989 -0.01790321 -0.0041084667
0001b0 93 ca 12 bc e3 72 21 bc 76 42 0b bd 78 a5 5f bd
       -0.00895943 -0.009854051 -0.03399893 -0.054601163
0001c0 3a 9a 1b 3c 9a b3 a0 bb 57 20 d8 3c 4f 7d e1 bc
       0.00949722 -0.0049042227 0.026382608 -0.027525572
0001d0 b2 0c a5 3a 72 ad e4 bc a7 1d 9a bc af 96 dd bc
       0.0012592284 -0.027914736 -0.018812967 -0.02704939
0001e0 15 8c 84 bc af 12 5d bb 4b a9 3e bd 32 2c d8 bc
       -0.016180078 -0.003373306 -0.04654817 -0.026388261
0001f0 48 4d fa bc af 93 94 bc 9b d0 dd bc 9f 03 03 bd
       -0.030554429 -0.018136827 -0.02707701 -0.031985875
000200 76 e8 82 3c c1 41 74 3c c5 7b 8e bc 5b e1 98 ba
       0.015979987 0.014908255 -0.017393002 -0.0011663841
000210 4f ed 8b 3b 5e ad 0e bc da ba f7 bc 64 33 38 bc
       0.0042702327 -0.008708326 -0.030240465 -0.011242721
000220 9f 3d 3a bd 89 bb 2e bd 16 54 f6 bc 0e e5 dd bd
       -0.045468923 -0.042659316 -0.030069392 -0.10834704
000230 c0 c6 ae bd d5 7f 2e bd 88 5d 44 bd 2e 7f 1e bd
       -0.08534002 -0.04260238 -0.04794076 -0.038695507
000240 3e d8 e8 bc 0e 53 e8 bc bd e4 7d bc 11 b2 3d 3c
       -0.028423425 -0.028359916 -0.01549643 0.011578099
000250 0b 11 52 bd d2 3b e5 bc e1 e6 5f 3c 23 71 e1 bb
       -0.051285785 -0.027982626 0.013665886 -0.006879942
000260 f7 4a 95 3c 9a 7f 3a bc f4 ba 36 3c 2b 63 7d bc
       0.018224223 -0.011382962 0.011152972 -0.015465538
000270 6e 79 bf 3b c4 9b cb bc bc e0 25 bd 9a c3 27 bd
       0.005843333 -0.024854548 -0.040497527 -0.040958025
000280 09 c0 54 3c 54 f8 93 bc 59 4d 14 bd bc f3 d1 3c
       0.012985238 -0.018062748 -0.036206577 0.025628917
000290 71 e9 81 bc a0 29 90 3c 1c 67 84 3c 6e 5d ef 3b
       -0.015858384 0.017597973 0.016162448 0.007304839
0002a0 18 f3 7d bc 07 57 cd 3c 5c fa 97 3c c7 8e 84 39
       -0.015499853 0.025065912 0.018551998 0.0002528338
0002b0 3f 2e 46 3c 03 30 d0 bb 88 e8 1b 3c ad af 88 bb
       0.012095987 -0.0063533797 0.009515889 -0.004171333
0002c0 0d 19 17 bd da 32 1c bc 98 b9 06 3b 2d 38 b0 3c
       -0.036889125 -0.009533608 0.00205574 0.021511162
0002d0 51 c7 14 bd 24 c8 06 bc f4 49 65 bc b9 4c 43 bd
       -0.036322895 -0.008226428 -0.013994683 -0.04768059
0002e0 c4 70 40 ba 91 ac 1a bd 7b ea 12 bd 12 60 cb 3c
       -0.0007341022 -0.03776223 -0.03586815 0.024826083
0002f0 6c 84 23 bd e6 e9 3a bd 21 c5 a4 bc d6 4e fa bc
       -0.03992121 -0.04563322 -0.02011353 -0.03055517
000300 62 58 55 3c 0c 7a d2 bc 9c 66 db bc 76 7f c4 bb
       0.01302156 -0.025692962 -0.026782326 -0.00599664
000310 83 43 11 3c a2 e3 08 3c 24 00 10 bc 0f b4 21 bd
       0.008866194 0.008355053 -0.008789096 -0.039478358
000320 87 a2 e9 bb 86 a6 fe 39 29 00 b2 3c 84 e4 16 bd
       -0.0071299705 0.00048570725 0.021728592 -0.036839023
000330 86 c1 ac bb 2e 93 6a bc 27 0d 4b 3c 03 0c 1c bd
       -0.005272093 -0.014317317 0.0123932725 -0.038097393
000340 db ff 2b bc 36 12 2b bc 23 d4 52 3a 90 b0 63 bc
       -0.010498012 -0.010441354 0.0008042475 -0.013897076
000350 99 cc 69 3c 03 c8 30 39 c0 30 85 bc 4b 85 f0 bc
       0.014269971 0.00016859178 -0.016258597 -0.029360434
000360 41 98 2b bc 37 06 16 bd 0e e3 0d bd 09 17 91 ba
       -0.010473312 -0.03662702 -0.034640364 -0.0011069487
000370 65 ec 70 bc 1e 2b ab 3c f5 0c a0 3c d2 b5 b0 bc
       -0.014704798 0.020894583 0.019537428 -0.021571074
000380 25 72 59 3c da 73 10 3c 1d da 04 3b 81 fb f9 ba
       0.013271843 0.008816684 0.0020271607 -0.0019072146
000390 b4 8a df bc c8 b8 f4 bc 34 6f 68 bc 7e fe 31 bc
       -0.027287818 -0.029873267 -0.014186669 -0.010863898
0003a0 73 95 85 3c 4e 62 21 3d e5 07 0c bd c4 a5 5e bd
       0.016306615 0.03940039 -0.034187216 -0.054357305
0003b0 47 ed 59 bd 1f 1e 8a bd d8 21 1b 3c c7 f2 f3 3c
       -0.0532048 -0.067440264 0.009468518 0.029778851
0003c0 b1 7d b1 bc d2 b8 3d bc d8 17 f1 bc ac 43 36 3b
       -0.02166638 -0.011579709 -0.029430315 0.0027811332
0003d0 77 d3 b4 3c ca 07 e1 bc 93 75 09 bd 29 cc a2 bc
       0.02207349 -0.027469534 -0.033559393 -0.019872742
0003e0 96 38 1e bd 30 34 67 bb 45 4f d7 bc ff a9 11 bd
       -0.038628183 -0.003527891 -0.026282916 -0.03556251
0003f0 22 18 66 3c 44 31 46 3b 92 b6 1b bd 75 80 d5 bc
       0.01404384 0.0030241767 -0.03801591 -0.02606223

bias f4 [100]
000000 b9 60 a3 bb bd 37 7e 3e c7 c3 34 bd 29 11 09 bc
       -0.0049858955 0.2482595 -0.04413202 -0.008365908
000010 bd 9a 04 3d 11 7a 31 3c ae 40 53 3c 54 7a 5e 3e
       0.032374132 0.010832326 0.012893839 0.21726352
000020 1e 07 3d 3e c5 87 02 bc 90 94 53 3e 8a 80 3e be
       0.18459746 -0.00796694 0.20662141 -0.18603721
000030 c8 91 2d be 61 0f 94 3c 22 54 67 3d b2 f5 94 be
       -0.16950142 0.01807374 0.05647672 -0.290937
000040 cb ea 98 bd fb 19 6f be b6 f8 5c bc 05 23 98 3b
       -0.07466658 -0.23349755 -0.013487032 0.0046428465
000050 66 c8 73 be 64 fe 0d bc f2 ed 3e be 80 a6 48 bb
       -0.23806915 -0.0086666085 -0.18645456 -0.003061682
000060 50 f8 25 bd 31 d8 1c bd 81 85 c4 3c d3 30 18 bd
       -0.040520012 -0.038292114 0.02398944 -0.037155937
000070 89 9f 49 3c 8d 5c 7f be 4c 07 37 3c 37 76 8e 3c
       0.012306103 -0.24937649 0.011171173 0.017390354
000080 fc 15 6a be f7 42 b2 3c d8 ef d7 bc ec d9 12 bd
       -0.22859949 0.021760447 -0.026359484 -0.035852358
000090 0d 24 90 be 28 8e de bc 14 bb 47 bd 0c b9 7c bc
       -0.28152505 -0.027167395 -0.048762396 -0.015424978
0000a0 47 dc c2 3c 92 22 ca 3c 4a f6 a1 3b c2 98 72 bd
       0.023786677 0.024674688 0.00494269 -0.059227712
0000b0 94 55 d0 bc 0a a1 dd 3d 4a 21 d5 3a 47 e5 4f bb
       -0.025431432 0.108217314 0.0016260531 -0.0031722353
0000c0 5c ac a8 bb 16 d5 1f bd 15 9c ca bd 1a 72 b5 3c
       -0.0051475 -0.039021574 -0.098930515 0.022149134
0000d0 a5 4a 75 bc 97 18 19 bd ad f1 98 3b 1d 75 b3 bd
       -0.01497141 -0.037376966 0.004667482 -0.08762572
0000e0 eb a7 73 be 5f 84 1f bb 0b de 21 bd 94 a5 e4 3a
       -0.23794524 -0.0024340374 -0.039518397 0.0017444366
0000f0 5d 86 16 3d ef 73 1d 3e 4b d6 ac 3c 15 31 e2 ba
       0.036749233 0.15376256 0.021098277 -0.0017257059
000100 b4 2b d4 3d c1 7b 05 bc 37 17 9e bd 6a c6 1f 3d
       0.10359898 -0.008147181 -0.07719272 0.03900758
000110 81 b2 80 be e2 be ae be 06 28 06 3c 1f a6 16 bd
       -0.25136188 -0.34130007 0.008188253 -0.03677952
000120 68 e3 79 bc 00 ef cb bc 87 42 00 3e 0d 7a ab ba
       -0.015251972 -0.024894238 0.12525378 -0.0013082639
000130 d3 d3 1b be 0c 51 80 be b8 93 71 bd e5 6f 2f bd
       -0.15217523 -0.25061834 -0.058978766 -0.04283132
000140 45 a0 ab 3e 10 8a 4d 3a d3 99 e6 bc 06 66 18 bd
       0.33520713 0.00078407023 -0.028149521 -0.037206672
000150 f5 f6 05 bd fa 50 24 bd 58 21 bf bb 08 1c b5 3c
       -0.03270622 -0.040116288 -0.0058328323 0.022108093
000160 c0 f9 0a bd 69 2b 09 bc c5 91 d5 bc 7c ee 9f bc
       -0.033929586 -0.008372166 -0.026070485 -0.019522898
000170 5c f6 c3 3b 7f 9c e9 3d 27 2e d2 bc ff f0 bc 3b
       0.005980296 0.114068024 -0.025656773 0.0057660337
000180 99 96 0d be 87 23 08 3e d4 fc bf 3c 53 1d b4 bd
       -0.1382698 0.13294803 0.023435988 -0.08794656

weight f4 [50, 100]
000000 21 fc 60 bd a6 90 16 3e 2e 0b 46 3d 70 c2 de 3c
       -0.05492795 0.14703616 0.048350506 0.027192324
000010 da af cd 3d bb 68 96 bd 6d ab 51 3e a5 e7 86 3d
       0.10043307 -0.073441945 0.2047555 0.065871514
000020 f3 74 90 3d b5 5e 6e bc 90 e5 6c 3d db ee 07 3d
       0.07053556 -0.014548947 0.057836115 0.033186775
000030 a2 7e 10 be b2 22 40 bd 07 40 91 be d4 19 6a bd
       -0.14110807 -0.046908088 -0.2836916 -0.057153538
000040 6c 55 90 bd 53 b0 6f 3c 6c f8 40 ba 50 2a 98 bd
       -0.07047543 0.014629441 -0.00073612365 -0.074299455
000050 e1 80 d3 3b 3b 56 bb 3d c0 47 85 b9 50 b0 d3 3c
       0.0064545725 0.091473065 -0.00025421195 0.025840908
000060 87 15 f6 3d 7e 38 22 3d 65 47 b0 bd 93 dd 96 bd
       0.12015825 0.039604656 -0.086073674 -0.07366481
000070 2e df 6c bb c1 61 be bd df b2 97 3d 57 d6 71 3d
       -0.0036143768 -0.09295989 0.07407164 0.0590423
000080 1f f9 cf bd 8a 44 bf bd 81 46 30 be ba 2d 23 bd
       -0.10154938 -0.09339245 -0.17214395 -0.03983853
000090 9a f7 8a 3c 92 e0 89 3d f7 29 e5 bd 0b e4 48 3d
       0.016963769 0.067322865 -0.11189645 0.049045604
0000a0 67 3a a1 3d 81 5d d1 3b b5 e4 c4 3b 44 28 b1 bd
       0.078724675 0.0063893204 0.0060087093 -0.08650258
0000b0 d8 48 29 3e 78 a9 31 3e a4 17 68 3d 25 f1 6d 3d
       0.16531694 0.17349803 0.05666317 0.0580913
0000c0 d5 7c b6 bd 47 1c 8e bd 67 04 c5 bc d8 34 33 3d
       -0.089105286 -0.06938987 -0.02404995 0.043751568
0000d0 32 62 1c 3d be d0 4c 3d f2 ef fb 3c 84 a6 75 bd
       0.038179584 0.05000376 0.030754063 -0.059973255
0000e0 a3 bb 9b bd cb 74 bc bc 14 dd 50 3d 33 17 94 bc
       -0.07604148 -0.02300491 0.050992087 -0.018077468
0000f0 78 23 e1 3c bd 01 1b bb c1 1a 8f bd 1f a4 f3 bc
       0.027482733 -0.002365216 -0.06987525 -0.029741345
000100 bb 5d 0f 3e bd 0b f2 bd cc 96 7a 3d 64 d8 3a be
       0.14000599 -0.11818645 0.061178967 -0.18246609
000110 db 09 ce 3d 73 4a 1f be 2f cc 06 bd af 2f aa bd
       0.100604735 -0.15555744 -0.03290957 -0.08309876
000120 f9 b6 11 bd a0 4f 06 bd f1 71 91 3d a2 10 fb 3c
       -0.035574887 -0.03279078 0.07101811 0.03064758
000130 20 03 25 bd 96 b9 a7 3b 27 33 5e bd 6e 22 ad 3d
       -0.040286183 0.005118559 -0.054248 0.084538326
000140 70 b0 46 3e 0b d2 bd ba a5 93 55 bc 3a 81 fb 3a
       0.19403243 -0.0014482153 -0.0130356895 0.0019188293
000150 06 9b 9e bb 02 34 1d bd bd 66 97 3d 22 8b 07 bd
       -0.0048402576 -0.038379677 0.07392643 -0.03309167
000160 16 2d 87 bd 1a 22 9c 3d fd 39 13 bd f7 1d 9c bd
       -0.06600396 0.07623692 -0.035943974 -0.07622903
000170 f9 4c ae bd 2b 85 92 bd a0 33 a4 3d 7c 66 75 bd
       -0.08510775 -0.07154306 0.08017659 -0.05991219
000180 9d 8b 80 bc b5 0e 47 be b0 fc b6 3d 1e 34 32 3e
       -0.015691573 -0.19439204 0.08934915 0.17402694
000190 53 8f ad 3d e3 5f 30 be f0 2a ac bd 02 b4 a8 bd
       0.084746026 -0.17224078 -0.08406627 -0.08237459
0001a0 7d da d0 b9 2a e2 b4 3d 2c fb 0a be e0 b7 32 bd
       -0.00039835638 0.088322 -0.13572377 -0.043632388
0001b0 a0 02 93 bc 2d 0d 2e bc 64 8a 41 be 14 a6 dd 3d
       -0.017945588 -0.010623259 -0.18900448 0.108226925
0001c0 36 57 ba bc 29 00 2b bd 7b 29 dc bd d9 94 0d 3d
       -0.022746664 -0.0417482 -0.10750099 0.03456578
0001d0 55 e6 54 be 96 b6 a0 3d ba db 86 3d a3 01 52 3d
       -0.2079099 0.078473255 0.06584878 0.051271092
0001e0 65 36 a0 3c b2 c1 b4 bd 55 49 d8 3d 4e 10 68 3d
       0.019557187 -0.08826007 0.10560862 0.056656174
0001f0 99 bb 20 3d 61 68 3d bd c7 07 15 be 9d e2 d7 3c
       0.039241407 -0.04624212 -0.14553748 0.026353175
000200 b9 d9 78 3d b3 7f f4 3c c9 4a df 3c 1a 70 7c bc
       0.06075451 0.029846048 0.02725734 -0.0154075865
000210 db 25 9d 3d ef 16 e5 bb 42 df 17 bd 93 85 89 bc
       0.07673236 -0.0069912593 -0.03707815 -0.016787326
000220 2b f0 27 3e 93 e2 c7 bd c2 bb 9c bd 57 a2 81 bd
       0.1640021 -0.097600125 -0.076529995 -0.06329792
000230 3f 90 bb 3c a4 05 c4 3d ee 13 aa 3d a8 17 b8 3d
       0.02289593 0.09571388 0.083045825 0.08988887
000240 4f d3 8a 3d 62 93 13 bd fc 2c 36 3d 61 9f a0 3d
       0.06778585 -0.036029227 0.044476494 0.07842899
000250 f6 75 a1 bc 61 bf 8f bd 4f fe ff bc e0 04 af bc
       -0.019709568 -0.070189245 -0.031249193 -0.02136463
000260 ea db 21 3d 70 e5 a1 3d 20 8e c5 3d ff c2 27 bd
       0.039516367 0.0790509 0.09646249 -0.040957447
000270 5e bf 7e 3d e9 94 7f bd a4 b8 bf bb d8 a4 bc bd
       0.06219422 -0.06239787 -0.0058508683 -0.09211129
000280 14 0f 07 bc 19 d5 0b be 37 73 81 3d 2e 45 03 3d
       -0.008243341 -0.13655509 0.063208036 0.032048397
000290 2f b2 92 bd e0 5a 99 3d 35 d5 43 bd ea 2a 98 bd
       -0.07162892 0.07488036 -0.047810752 -0.0743006
0002a0 a5 93 8c bc 35 ae d0 3d 33 ad f4 3c 68 07 c8 bb
       -0.017160246 0.10189477 0.029867744 -0.0061043985
0002b0 eb 09 b4 bc cf b0 14 bd 7c b6 0f 3d 1f bb 24 bd
       -0.021977386 -0.03630143 0.03508614 -0.040217515
0002c0 99 e7 b0 3d 8d 8c 30 3e 3b 78 2f 3d c7 e7 cf 3d
       0.08637924 0.17241116 0.04283927 0.1015163
0002d0 5c 2b 25 be 9d cc 21 3d 1f e7 90 3d 6a 7c db bd
       -0.16129822 0.039501775 0.07075333 -0.107170895
0002e0 b5 af bf 3d 88 8d 48 3d a4 a7 a8 bd bd d0 cc bd
       0.09359685 0.0489631 -0.082351 -0.10000751
0002f0 0b 3e fb 3c e2 26 a3 3d 2a 30 52 3c e3 95 81 bd
       0.030669233 0.07966401 0.012828866 -0.06327417
000300 7a 12 81 3d 70 23 cc bc ef f4 9e 3d ec da a7 bc
       0.06302352 -0.024919242 0.07761561 -0.020490132
000310 cb a5 0f 3c dd 39 0e be 2c b5 89 bc 65 b6 81 bb
       0.0087675555 -0.1388926 -0.016810022 -0.0039585107
000320 4c 13 ec bc 4d 32 a8 3d 55 50 dd 3c b4 2b 17 3b
       -0.028817795 0.08212719 0.027015844 0.002306682
000330 b6 7f 17 3d 74 ff f8 3d b6 e1 a1 3d 96 f9 a1 3d
       0.03698703 0.12158099 0.07904379 0.07908933
000340 d4 3f ab 3d e5 37 48 bd cf 33 dd bd de e3 53 bd
       0.083617836 -0.04888143 -0.10800897 -0.051730983
000350 72 02 86 bd d1 73 d7 3d b2 f1 5e 3e 96 c2 57 bd
       -0.06543435 0.10520137 0.21771887 -0.052675806
000360 3f b5 8d 3d 67 39 a6 bd 78 0e 0a 3d 99 39 08 3e
       0.069193356 -0.081164174 0.033705205 0.13303222
000370 e7 81 bf 3d c2 1b 80 3d b8 3d 56 3d 26 cc 85 3d
       0.09350949 0.062552944 0.052304953 0.06533079
000380 87 0e 83 bd 51 29 56 3a d2 f7 c0 bc fa d0 35 3c
       -0.06399255 0.0008169609 -0.02355567 0.011097187
000390 4f 01 b2 bc e9 9e c7 bd f4 93 79 3d 4a b0 32 bd
       -0.02172914 -0.097471066 0.060932115 -0.043625154
0003a0 fa f1 8c bc 5c 03 bf 3d fd d5 08 3d bb 37 8f 3d
       -0.017205227 0.093268126 0.0334072 0.069930516
0003b0 fc cd 26 bd 28 c6 16 be 1a a5 a3 bc 10 a6 57 bd
       -0.040723786 -0.14724028 -0.019976187 -0.052648604
0003c0 eb 79 a7 3c c3 c5 dd bb 13 df fb bc 49 72 8f ba
       0.020443877 -0.00676796 -0.030746019 -0.0010944094
0003d0 70 4d 0b 3e 11 5c e2 bd b3 9c b4 3d 30 4a 05 bc
       0.13603759 -0.110527165 0.088189505 -0.008135363
0003e0 b9 27 53 3c 73 70 ee bc 27 a8 b8 bd 38 e8 ae bb
       0.012887889 -0.029106354 -0.090164475 -0.005337741
0003f0 af f0 85 3d de 0b 1c bd c3 8e 31 bb 2e 36 8a be
       0.065400474 -0.038097255 -0.002709315 -0.2699446

bias f4 [50]
000000 10 3a a7 3e e1 7c 6d be ca dc 24 3e 56 16 f4 3d
       0.32661486 -0.23192169 0.1609985 0.11918323
000010 04 f7 42 be 72 df 7f 3b f7 c2 80 3e ee 40 60 3d
       -0.19039541 0.0039043096 0.25148746 0.05474942
000020 92 00 f7 3d 8e 28 66 3e 50 c4 95 3d 81 6c ba bc
       0.12060656 0.22476408 0.07312834 -0.022756817
000030 91 e3 8c be 00 c5 8b 3c cb 62 2c be 1a ff ed 3d
       -0.2751737 0.01706171 -0.16834562 0.116209224
000040 ab 72 7a be 16 7f 3f be 3a a0 1c bd 6c 41 02 be
       -0.24457805 -0.18700823 -0.03823874 -0.12720269
000050 13 5d 72 3e e9 78 a4 bd a7 a2 1b 3e 4c e3 44 3e
       0.23668317 -0.08030874 0.15198766 0.19227332
000060 88 a6 0a bd ba 94 96 be a9 fa 59 bd b8 be 08 bd
       -0.033850223 -0.29410344 -0.053217564 -0.03338501
000070 95 e9 72 3b 3b 0d a7 bd 57 ab 07 bd 0f 83 de bc
       0.0037065495 -0.081568204 -0.033122387 -0.027162103
000080 b7 fc a4 bb e7 5b 42 3e 31 d4 28 bd 5b 95 db bd
       -0.005035009 0.1898037 -0.041217986 -0.10721847
000090 c0 76 59 3e 80 e7 6f 3d 65 77 79 bb 88 cd 8d 3c
       0.21236706 0.058570385 -0.003806555 0.017309919
0000a0 16 8b 9f be 23 d0 3c 3e c6 11 fe 3d cf fc 02 3d
       -0.31160802 0.18438773 0.12405734 0.03197938
0000b0 83 8d 2c be 80 48 94 be 05 69 89 bd ff e2 8a bd
       -0.16850857 -0.28961563 -0.06709484 -0.06781577
0000c0 6c f9 7a be e8 6b f4 bc
       -0.2450921 -0.02983661
