Big Data in Healthcare/homework5/903469283-ksims35-hw5/output/seizure/MyMLP.pth (torch_old, 100996 bytes, 10 tensors)

weight f4 [100, 178]
000000 17 75 ad 3c fd 42 2c be 8b 5f 16 be 62 eb 3e bd
       0.021173997 -0.16822429 -0.14684884 -0.046611197
000010 f7 d6 9b bd ce 8d de 3d ba 58 0d 3c f7 97 e4 3d
       -0.07609361 0.10866891 0.008627111 0.111617975
000020 a5 f6 c5 3d a8 5f 0b 3e 81 73 d2 3d 31 3c 57 bb
       0.09666184 0.13610709 0.10275937 -0.0032842273
000030 fd fb f8 3c 23 ea 07 bd 34 6a 89 bd 12 1f 11 3c
       0.030393595 -0.033182275 -0.0670971 0.008857505
000040 25 9c 85 3c cb 34 0a bc fc 16 af 3d c8 44 fe 3c
       0.016309807 -0.008435438 0.08549306 0.031038657
000050 d2 30 75 bc 01 f0 d4 bd ca 6d cf bd 6e d0 e3 bd
       -0.014965253 -0.103973396 -0.101283625 -0.11123739
000060 de ce a5 bd bc 59 01 bc 4c 55 95 3d a5 05 b4 3d
       -0.080960974 -0.0078949295 0.0729166 0.08790139
000070 ea 0c c1 3d 5a 81 06 3e 68 ea 2f 3e ed b2 31 3e
       0.09426291 0.13135281 0.17179263 0.17353411
000080 0a f5 27 3e 7d 36 b8 bd 7c 46 ac bd 09 51 35 be
       0.16402069 -0.08994768 -0.08411881 -0.17706694
000090 5b 4e e9 bd 1c 11 da bd 7e 84 9f 3b 49 c9 46 bd
       -0.11391898 -0.106477946 0.004868089 -0.048531804
0000a0 91 ab 23 3d ce d2 55 3d 70 52 e1 3d eb 7a 88 3d
       0.03995854 0.052202992 0.11002052 0.0666407
0000b0 18 74 00 bd 01 23 fc 3c b5 aa 36 bd 2b c9 d3 3d
       -0.031360716 0.03077841 -0.044596393 0.10341104
0000c0 6b bf f5 3c 5b a5 f0 bc 05 e6 b3 bd 4c e1 98 bd
       0.029998502 -0.029375723 -0.08784107 -0.07464847
0000d0 46 c2 da 3c 82 60 14 bd bf bf 01 3e d9 fa 84 3e
       0.026703965 -0.03622485 0.12670802 0.25972632
0000e0 c9 29 00 3e 86 e4 1c bd c2 82 62 bd e5 24 ba bd
       0.1251594 -0.038303874 -0.05530048 -0.09089068
0000f0 d5 4c 19 be 74 84 0c 3e 42 fa 44 3e 38 98 32 3e
       -0.14970715 0.13722402 0.19236091 0.1744088
000100 37 b5 0d bc 34 ca 5f bd 32 e1 81 bd 60 07 34 be
       -0.008649162 -0.054636195 -0.06341781 -0.17580938
000110 62 d0 1c be 5d 6c 7f bd bc 26 06 3e b2 2f 23 3e
       -0.15313867 -0.062359203 0.13100713 0.15936163
000120 74 aa 43 3e fd ee fe 3d 2b ef 05 bc 35 ab 88 3d
       0.19107991 0.12447927 -0.008174698 0.0667328
000130 86 74 4c 3d 1c 6f 9f 3d df 2d 2e bd 07 1e 4a bc
       0.049915813 0.07784864 -0.042524215 -0.012336261
000140 74 b7 75 bd 2f d3 d2 bd f2 76 45 bd 66 ba 4a bd
       -0.059989408 -0.10294186 -0.04820914 -0.04949417
000150 22 69 84 3d 6e 7a 56 bd b5 8d d7 bd c5 97 28 3c
       0.06465365 -0.05236285 -0.10525075 0.010290091
000160 8e 10 ed bd 81 c1 65 3d 53 78 c4 3d 13 cf 19 3d
       -0.11575423 0.056092743 0.095932625 0.037550997
000170 72 39 09 3a aa ad 8d 3c bd a0 c7 bd 95 28 85 bd
       0.0005234695 0.017294724 -0.09747455 -0.06501881
000180 14 9f c4 3d f8 68 a4 3d df 1f cb bc 5b 9f 4c bc
       0.09600654 0.08027834 -0.02479547 -0.012489165
000190 97 1c 2b 3e aa 95 f2 3d a6 4d 02 3e f1 92 87 3d
       0.16710125 0.118449524 0.12724933 0.06619824
0001a0 80 53 23 be ae 33 7e be ca f1 a5 bd 77 96 b7 bb
       -0.15949821 -0.24824402 -0.08102758 -0.0056026536
0001b0 86 4e 25 3d 4d 5d ae 3c b3 e3 64 3d e8 13 2d 3e
       0.04035809 0.021284724 0.055881213 0.16902125
0001c0 9f 5c 0b 3d 0d 31 8c bc 71 00 99 bc 82 8d 5f 3d
       0.034023877 -0.017113233 -0.018676968 0.05457831
0001d0 f9 3c 0e 3c 01 5c 17 bd 5b d5 5c be 05 7e 7a be
       0.008681529 -0.036952976 -0.21565764 -0.24462135
0001e0 e9 ec 09 be 8a 37 ea bd 37 34 bc 3c be cd c3 bd
       -0.1346928 -0.114363745 0.022974117 -0.095607266
0001f0 fe e0 4b 3e 89 b2 6f 3e c0 f4 f7 3d eb e2 7b 3d
       0.19910046 0.2340795 0.12107229 0.061495703
000200 88 7a 87 bb 1e da 24 be d3 ef 95 be 74 2f cc bd
       -0.00413448 -0.1609883 -0.29284534 -0.099699885
000210 08 8c 68 3a 5d d1 25 3d 2d e1 04 3e c7 ad 53 3e
       0.0008870964 0.040482868 0.12976523 0.2067176
000220 0c 7f 2c 3e e8 fd bb 3d bf 7a 74 bd 59 dd 20 be
       0.1684534 0.09179288 -0.059687372 -0.15709437
000230 0d 4d 23 be 8b 00 18 be 65 d4 a6 bd 02 0f 54 bc
       -0.15947361 -0.14843957 -0.0814598 -0.012943031
000240 5e 95 eb 3c d1 e9 70 3b b4 75 23 3e 2f b9 1e 3e
       0.028757747 0.003676046 0.15962869 0.1550033
000250 e4 16 87 3e b9 06 2c 3e b7 96 2a 3d 82 ab 04 bd
       0.26384652 0.1679944 0.04164764 -0.032390125
000260 21 33 80 bd ea 4d 2c be 62 f8 75 be 92 1b 52 be
       -0.06259752 -0.16826597 -0.24020532 -0.2051833
000270 4a 4c 79 be 9f d8 bc bd f5 60 9d 3d 30 32 06 3e
       -0.24345508 -0.09221005 0.07684509 0.13105083
000280 1a 83 4d 3e 55 6b 8b 3e 3a f0 62 3e c2 1f d0 3d
       0.20069543 0.27230325 0.22161952 0.10162307
000290 09 74 f6 bd 94 05 54 be 86 ad 9d be d7 b6 80 be
       -0.12033851 -0.20705253 -0.3079645 -0.25139496
0002a0 b6 a8 18 be c7 44 12 bd 19 62 65 3d 23 19 c6 3d
       -0.14908108 -0.035710122 0.056001756 0.09672763
0002b0 13 e3 3c 3e 08 0c 16 3e 5d 58 06 3e 45 75 e2 3c
       0.18445997 0.14653027 0.13119645 0.02764381
0002c0 b1 1c bb 3d 0a ef 0e be c5 7e b0 3d 72 70 f5 3d
       0.09136332 -0.13958374 0.08617929 0.11984338
0002d0 9b b5 bb 3d cf 9f 56 3d f1 a6 79 bc a8 64 43 3c
       0.09165498 0.0523985 -0.015237556 0.011925854
0002e0 e3 91 fc bc b4 d0 2e 3e 47 90 82 3d de e9 cb bc
       -0.030831283 0.17071801 0.06375175 -0.02489179
0002f0 4a 1b d7 3c 20 1a 99 bd 89 0d 7e bc 87 11 13 bd
       0.02625813 -0.07475686 -0.015506157 -0.035905387
000300 9a d1 00 bd 97 76 79 3b 76 75 1a 3d 7f 27 a6 3c
       -0.03144989 0.003806507 0.037709676 0.020282505
000310 9e cb 19 3e 7b 42 a6 3c f8 83 51 3d cc a3 0c be
       0.1501908 0.020295372 0.051151246 -0.13734359
000320 1b f5 02 bd 73 54 fb bd b1 df a6 3b 19 6b 87 bb
       -0.031972032 -0.12271967 0.005092584 -0.00413264
000330 3c 3c 94 3d 98 fa 49 3d cc aa c5 3c dd 0b a6 3d
       0.07238051 0.04931125 0.024129294 0.081077315
000340 79 ae 2f 3c ab 46 3b 3c ed 57 ba 3c eb b1 09 3b
       0.01072275 0.011430423 0.022747004 0.0021010588
000350 68 00 bc bd cc a3 9b 3d fd 1e fd 3d be 4d 16 3e
       -0.09179765 0.07599601 0.12359426 0.14678094
000360 bc 0b 14 3e 8a 02 8a bd ec ad 11 bd 0c 7c ca 3d
       0.14457601 -0.067387655 -0.035566255 0.09886941
000370 81 5f c9 3d ff f4 51 3e 9f ee e9 3d 35 3e 58 3d
       0.09832669 0.20503615 0.114224665 0.0527937
000380 bf 76 9e 3d 91 bf 02 be fe 27 c3 bd fb 03 4d bd
       0.07737493 -0.1276839 -0.09529112 -0.050052624
000390 cb 9c 8d bd 3f aa 10 3c e6 bf 0a be 73 1b e0 bd
       -0.069146715 0.008829652 -0.13549766 -0.109427355
0003a0 ae 52 0c 3d 39 15 a6 bd 1a c2 0e bd 92 13 ac 3d
       0.034258537 -0.08109517 -0.03485308 0.0840217
0003b0 f0 ca ee bc 27 d7 b5 3a e0 fd 15 bb 74 9e 4b be
       -0.029149503 0.0013873324 -0.0022886917 -0.19884664
0003c0 42 d9 83 be b4 88 20 be a1 d8 47 3d 03 a2 02 3d
       -0.25751692 -0.15677148 0.048790578 0.031892788
0003d0 5d 9a 55 3d a4 32 ba 3d 2b 9d ce bc 6c d7 82 3d
       0.052149165 0.0909169 -0.025221428 0.06388745
0003e0 30 01 9e 3d cb 4b 34 3e a2 71 0f 3e 90 6e 08 3d
       0.0771507 0.17607038 0.14008191 0.033308566
0003f0 6b dd d8 3d ad 0b 10 3e d0 73 09 3e 81 94 f2 3c
       0.10589107 0.14066954 0.13423085 0.029611828

bias f4 [100]
000000 b3 36 0f c0 0a 93 66 3f e9 86 cc 3d 59 5f 86 bf
       -2.2377136 0.90068114 0.099866696 -1.0497848
000010 70 6a a3 3d bb 87 3b bf a1 a9 1b 3e 14 81 5e 3f
       0.07979286 -0.73253983 0.15201427 0.8691571
000020 18 40 ca bf 1d 0c 53 bf ba 9a 5e 3f 76 1f cb bf
       -1.580081 -0.8244036 0.86954844 -1.5868976
000030 5a 74 03 40 26 30 09 c0 a4 40 14 c0 d6 d5 71 bf
       2.0539765 -2.1435637 -2.3164454 -0.9446691
000040 03 c9 c5 bf 59 71 e2 bf 85 c6 89 3e fc 7b af 3e
       -1.5451969 -1.7690841 0.2690927 0.3427428
000050 f1 03 02 bf c9 59 da bf 4d 7d 03 3f 23 1f e3 bf
       -0.50787264 -1.705865 0.5136307 -1.7743877
000060 8f e5 a9 bf f1 07 0b bf b8 db 89 3f 56 2c 9e bf
       -1.3273181 -0.5430899 1.0770178 -1.235728
000070 4d b1 f5 bf 6b 76 b2 bf 06 7d c8 3f ff 92 4a bf
       -1.9194733 -1.3942388 1.5663154 -0.7913055
000080 ec 2c 6f be 67 ea 11 c0 77 e0 f7 3d 36 f5 8e bf
       -0.2335698 -2.2799318 0.1210336 -1.1168582
000090 38 c7 7f bf ea 9f 04 40 27 d9 b0 bf 9f 04 29 3f
       -0.9991336 2.0722604 -1.381627 0.66022676
0000a0 13 45 c7 bf ce 5a aa be c9 cb fc bf b0 24 a3 3f
       -1.5567955 -0.33272403 -1.974969 1.2745571
0000b0 68 6e 0e c0 e3 50 ca bf f2 bc a7 bf b2 95 04 3d
       -2.2254887 -1.5805935 -1.3104537 0.032369323
0000c0 2e 86 27 3f bb 28 f2 3d fc c8 e2 bf bd cc e1 3d
       0.65439117 0.11824175 -1.7717586 0.11025379
0000d0 30 a7 e9 bf c4 95 a5 bf 27 2c b9 bf 3f 90 bb bf
       -1.8254147 -1.293633 -1.4466599 -1.4653395
0000e0 b4 4c 80 3f ee 2a f1 3d 22 f9 8e bf 8b 70 cf bf
       1.0023408 0.11775766 -1.1169779 -1.620622
0000f0 0b 87 e0 bf d8 0b 82 bf b0 24 05 40 4d 23 31 3f
       -1.7541212 -1.0159864 2.0803642 0.6919449
000100 2d 6e 09 3f 19 91 bf bf be 80 95 bf c8 c2 c0 bf
       0.5368374 -1.4966155 -1.1679914 -1.5059443
000110 0c 98 c4 bf 29 53 d0 3e c0 d4 89 3f 93 ef ae bf
       -1.5358901 0.40688446 1.0768051 -1.3666862
000120 62 98 88 3e 73 63 ba bf c2 c8 9e 3f e1 d4 dc bf
       0.2667876 -1.45616 1.2405016 -1.7252465
000130 92 16 90 bf 8e 79 cc be 06 cc de bf 7a 62 8c bf
       -1.1256888 -0.3993649 -1.7406013 -1.0967553
000140 a8 74 a3 bf a8 33 cc 3d b6 5d c5 3e 27 2f 87 3e
       -1.2769976 0.0997079 0.38548058 0.26403162
000150 c4 e2 09 3f 26 1d 54 bf f8 da 39 bf 4a aa a5 3e
       0.5386164 -0.82856977 -0.72599745 0.32356483
000160 3b 89 2e bf d8 62 f3 be e9 43 86 be c2 70 15 3f
       -0.6817815 -0.4753635 -0.26223686 0.5837518
000170 c7 2a 25 bf 3e 05 c8 bf 79 46 f9 3f c2 33 d8 3e
       -0.645184 -1.56266 1.9474632 0.42226988
000180 88 d0 d6 3f 82 5f 20 bf ec b0 fa bf 10 7a 3c bd
       1.6782389 -0.62645733 -1.9585242 -0.046014845

weight f4 [50, 100]
000000 ab 62 d7 3d b4 fa c2 3d b1 04 3d be 9f ce c5 bd
       0.10516866 0.09520474 -0.18458821 -0.096585505
000010 ff 3f 49 3e b6 0b 05 3d 3d d5 3a bd da bd 12 3e
       0.19653319 0.03248187 -0.045613516 0.14330235
000020 8f c3 5b bc 1d 3e 73 3d ae 61 d8 bd bf 6b cc bd
       -0.013413324 0.059385408 -0.10565506 -0.099814884
000030 3b f4 eb bd 70 e5 6a be f3 fe c6 3d f8 a1 21 be
       -0.11521193 -0.22939086 0.097165965 -0.15784442
000040 77 8d 8e bd 70 0c 39 bb 28 7d 06 be 61 5f 91 3d
       -0.06960576 -0.0028236173 -0.13133681 0.0709827
000050 34 f1 75 3d ea 47 98 3d 88 ec 99 3d 51 9e 3f 3d
       0.060044482 0.074355915 0.07515818 0.04678184
000060 58 cb a6 37 fe b0 43 bd 86 a4 84 3d 73 fb c4 3d
       1.9883431e-05 -0.047776215 0.06476693 0.09618273
000070 dd cd 0a 3e ce 39 a1 3c c7 fb a8 bd 9a af e0 bd
       0.13555093 0.019680884 -0.08251148 -0.10970993
000080 f4 fa ed bc 56 b7 51 3c 30 a2 b8 bd 10 95 15 3d
       -0.029050328 0.012800058 -0.0901531 0.03651911
000090 e9 85 5d 3c 1f f6 18 bc 35 62 72 bd 18 13 1b 3d
       0.013520696 -0.009336024 -0.05917569 0.037860006
0000a0 19 f2 2e be 9a c2 bf bd 88 2b 8b bd 27 8c b6 3c
       -0.1708454 -0.09363289 -0.06795412 0.022283627
0000b0 65 93 40 be f6 67 fd be e0 4f 6a bb 66 88 18 be
       -0.18806227 -0.49493378 -0.0035753176 -0.14895782
0000c0 57 67 31 be 7c a7 8c bd 2d 4f 0f 3d 60 19 12 be
       -0.17324577 -0.068678826 0.034987617 -0.14267492
0000d0 53 0f 9c 3c d6 d2 66 3d 43 d2 94 be 1d d6 0c be
       0.019050276 0.056353413 -0.29066667 -0.13753553
0000e0 f2 5b 29 be 60 d6 df be 2a 78 ce bd 31 31 2e 3e
       -0.1653898 -0.43718243 -0.10081513 0.17010953
0000f0 34 69 2d bd 99 2b 13 3c ef 58 82 3c 8f 36 74 be
       -0.042336658 0.008982562 0.015911547 -0.23848937
000100 db 6e 79 be 4f 0d 04 be b7 7b 78 bd ae 76 b6 3c
       -0.24358694 -0.12895702 -0.06066486 0.022273388
000110 74 8b a6 bd ac 87 96 bd cd f5 53 be 11 0e 32 be
       -0.08132067 -0.07350096 -0.20699234 -0.17388178
000120 d0 06 51 3e 9d ce 46 bd 44 cf a6 3c 41 3f 05 3e
       0.20412755 -0.048536886 0.020362504 0.1301241
000130 fc 5d f9 3d 3d e3 61 be e5 5a 76 be 58 76 22 be
       0.12176129 -0.22059341 -0.24058111 -0.15865457
000140 fb 05 e9 bd 08 f9 87 3d 9a 68 52 bc 45 8e 91 bd
       -0.11378094 0.06639296 -0.012842322 -0.07107214
000150 5b 98 6c 3d 1b 8e 83 3d 31 1d 07 3d eb 61 9f bc
       0.057762485 0.06423589 0.032986823 -0.01945587
000160 9e 81 ec bd 97 31 02 bd cd da d5 ba 00 6f 9c 3c
       -0.1154816 -0.031785574 -0.0016315818 0.019095898
000170 ee 78 f3 bd ae 86 0a 3d 03 ca a8 bd e9 38 0e 3d
       -0.118883 0.033819847 -0.08241656 0.034722243
000180 36 5e 8a 3c 4c 0d 1d be f9 29 85 bd 8c f5 4a 3e
       0.016890626 -0.15337104 -0.06502146 0.19820231
000190 24 77 67 be 53 6a eb 3d 24 bb 04 be e8 97 19 bd
       -0.22604042 0.11494889 -0.12962013 -0.037498385
0001a0 33 c8 33 bd 1f c4 4e 3d d3 96 ee bc 13 c8 a7 be
       -0.043892097 0.050480004 -0.029124653 -0.32769832
0001b0 35 4b 83 3d 54 61 fb 3a a4 7e 15 bd d7 83 14 3c
       0.06410829 0.0019178786 -0.036497727 0.009064636
0001c0 e1 4b b5 bc 87 df a5 bb b4 0c a5 3c 55 e9 32 3c
       -0.022130908 -0.005062047 0.020147659 0.0109198885
0001d0 b8 bc 79 3e 3c 75 f6 bc 4e 18 57 3e b6 c2 e0 3d
       0.24388397 -0.030085199 0.21005365 0.10974638
0001e0 9b ff fa bc b6 53 5f bc ba d7 3f 3e b2 ee 8f 3d
       -0.03063946 -0.013630798 0.18734637 0.070279494
0001f0 92 98 02 be 22 64 19 be 07 62 db 3d 7f 9b b8 bb
       -0.12753513 -0.14979604 0.107120566 -0.005633771
000200 d8 1e 8b be 33 42 11 be 20 84 be 3b da 95 61 be
       -0.2717197 -0.14185409 0.0058140904 -0.2202982
000210 eb c3 98 3d e7 02 ac bd bb 3e 03 be 5f d6 94 be
       0.074592434 -0.08398991 -0.12816899 -0.29069802
000220 ae 9f 8f bd d7 8d c0 bd 32 3b 00 3d f7 96 87 be
       -0.07012878 -0.09402054 0.031306453 -0.26482365
000230 3d 24 c9 3d 53 be 0a bd 7b 27 72 3c b7 25 24 bd
       0.09821365 -0.033872914 0.014779921 -0.04007503
000240 33 02 93 3c ec 6e 80 3d f9 cd 3f be b3 2a 5b bd
       0.017945385 0.06271157 -0.18730916 -0.053507518
000250 4b b8 83 be 6e ad 29 be d0 09 c9 3d cc d2 65 3e
       -0.25726542 -0.16570064 0.09816325 0.22443694
000260 e8 29 e4 3d b4 9b 6d be 68 b1 27 3e ce 69 45 3d
       0.111408055 -0.23203927 0.16376269 0.048196606
000270 8c 27 10 be 23 18 a4 bd 42 a8 84 3d fb 6c 51 3d
       -0.14077586 -0.08012416 0.06477405 0.051129322
000280 d5 9e 8e 3d d8 28 49 3e 5c 9c eb bd 21 80 d3 bd
       0.069638886 0.19644487 -0.115044326 -0.10327173
000290 58 99 c1 bd 6f b1 26 be 43 3b 1c be c9 cc 4c bd
       -0.09453076 -0.16278623 -0.15256982 -0.049999986
0002a0 9c 66 18 3e fa 70 3c 3d f0 d9 9b be 2a 67 86 bd
       0.14882892 0.04600618 -0.3043971 -0.06562646
0002b0 f8 80 71 3c dd c9 0b 3e 16 ed 60 3d a9 6b 9f bd
       0.014740221 0.13651223 0.054913603 -0.077842064
0002c0 53 8c 42 bd 1d f5 cf 3d b2 c0 d9 bc 3f 42 ce bc
       -0.047497105 0.101541735 -0.026581142 -0.025178073
0002d0 67 14 33 3e fb 3a 0c 3e 03 94 93 3d 2a 18 9d bc
       0.17488252 0.13694374 0.07205965 -0.019176561
0002e0 ee c3 67 bb 86 84 c9 bd 85 9f 1d be 81 8e 05 be
       -0.0035364586 -0.0983973 -0.15392883 -0.13042642
0002f0 23 a1 4a be dd fa dd 3d ea 00 28 be a8 81 96 be
       -0.19788031 0.10838864 -0.16406599 -0.29395795
000300 ad 5d 12 3e 96 87 49 3d b4 de 9f bd 21 d6 3d 3e
       0.14293547 0.04920157 -0.07806149 0.18538715
000310 7c 63 49 3d b4 c6 4a 3d 3c f9 03 be 59 40 09 3c
       0.04916714 0.049505904 -0.12888044 0.008377158
000320 bb c7 8a bc 4f a1 ad 3d 9c e0 4e bd 76 56 78 bd
       -0.016940942 0.08478033 -0.050507173 -0.06062933
000330 09 c2 a5 3d f3 d3 08 3d a0 18 b1 bd e6 f4 95 bd
       0.0809365 0.033405256 -0.08647275 -0.07322101
000340 3a ad 20 bd 7a 76 2a 3e da 2b 73 bd ff b9 39 3c
       -0.0392277 0.16646758 -0.059367992 0.011335849
000350 7a c4 4d be c1 a9 c8 3c 36 07 0a bc da 88 89 be
       -0.20094481 0.024495007 -0.008424571 -0.26862222
000360 0a 8d 54 be 12 33 89 bd 7d ee a8 3d 95 f6 38 be
       -0.20756927 -0.06699194 0.08248613 -0.18062814
000370 d3 c3 63 3e 46 0b db 3d 3c 40 43 bd 45 d7 0a 3d
       0.2224267 0.106955096 -0.04766868 0.033896703
000380 31 c8 1c 3e 91 dc 0e 3e b4 1e 13 bd 4f bd ad bb
       0.15310742 0.13951327 -0.035917953 -0.0053021084
000390 dc 36 d9 3b 56 8b 20 bd db fb 7a bc 1b 3b 17 3e
       0.006628854 -0.03919538 -0.015318836 0.1476864
0003a0 d2 13 fb 3d 07 3a 14 3e e6 5c 7b be c8 3e e1 3d
       0.1225964 0.1447526 -0.24547157 0.10998303
0003b0 6d a4 ee bc 31 64 1e be 2e 17 0a 3d 84 6d 37 3e
       -0.029131139 -0.15467907 0.033713512 0.1791287
0003c0 7e e2 be 3d c7 0c c8 bc f3 7e 44 3d 15 16 fa bc
       0.09320544 -0.024420155 0.04797263 -0.030528108
0003d0 cc e6 31 3c 0d f1 16 3d f9 5b a2 bd 7b 1f d8 3b
       0.010858249 0.036850978 -0.07927699 0.0065955496
0003e0 7a df 96 bd 52 2c 45 3c 3b 00 bb 3d 86 58 9f 3b
       -0.073668435 0.012034493 0.09130903 0.0048628477
0003f0 b1 50 a8 bc 02 90 c4 bc b5 ff 0b 3c 05 51 3c bd
       -0.02054629 -0.02399445 0.008544852 -0.045975704

bias f4 [50]
000000 3f ba 95 bf ed 26 15 be 81 9f 2d c0 2e f0 d8 3c
       -1.1697463 -0.1456563 -2.7128603 0.026481714
000010 42 12 d1 be fd ee 07 3f bc e2 af 3f 78 bf c3 be
       -0.40834242 0.5309904 1.3741069 -0.38232017
000020 57 04 9c bf 6d 2e 2d 3e bb ae 0f be 1d 9f 73 bf
       -1.2188824 0.16912241 -0.14031498 -0.9516466
000030 fe f9 1d 3f b8 38 3a bf aa 5e e5 be 49 3f c2 3f
       0.6170958 -0.72742796 -0.44798785 1.5175563
000040 74 e6 4c 3f 0f 2a 8c 3f 35 00 2a 3c 41 a5 5f bf
       0.80039144 1.0950335 0.010376026 -0.8736153
000050 04 5b d2 39 dc 9f 1a bf 01 83 49 3d 64 cb 1e 3d
       0.00040122133 -0.60400176 0.0491972 0.038768187
000060 c1 1d a8 3f 06 08 73 3e f0 dc a7 bf ca d5 19 c0
       1.313408 0.2373353 -1.31143 -2.4036736
000070 f3 02 45 bf cc 63 3e bf 87 e8 d4 3e 47 41 c0 bd
       -0.76957625 -0.7437103 0.41583654 -0.09387451
000080 ab e2 91 3f 40 2e 7e 3f 90 9d 15 be 5d 53 96 be
       1.1397299 0.9928932 -0.14610887 -0.29360476
000090 ed fa 45 c0 8c da 87 bf 39 29 3c 3e 1c f0 7f 3d
       -3.0934403 -1.061357 0.183751 0.062484846
0000a0 fa b2 07 bf 73 51 b5 bd 56 f9 e7 3e 9c 2b 62 3f
       -0.5300747 -0.08853426 0.45307416 0.8834779
0000b0 9c 2e 03 bf a9 b9 92 3f e0 64 c3 3f ff c6 81 bf
       -0.51242995 1.1462909 1.526516 -1.0138854
0000c0 f5 e8 06 3f d1 c0 4a 3f
       0.52699214 0.79200464

weight f4 [24, 50]
000000 6b 94 84 be 79 58 3b be d8 ce 09 be b4 05 3c be
       -0.25894484 -0.18295468 -0.13457811 -0.1836155
000010 eb 21 84 3d 82 09 ad 3e 8d 0d b6 3d 00 18 44 be
       0.06451782 0.33796316 0.08889303 -0.1914978
000020 5c 2f d8 bc 02 8b f4 bd 38 4f 98 bc fa b4 11 3c
       -0.02638977 -0.11940576 -0.018592462 0.008893246
000030 9c 3b 25 3e 71 80 75 be 4f 48 8a 3b c3 28 19 bd
       0.1613602 -0.23974778 0.0042200456 -0.03739239
000040 ef c9 b0 3d 82 66 24 3e 85 51 0a 3e 57 b0 d2 bd
       0.08632266 0.16054729 0.1350766 -0.102875404
000050 3b 42 8c bd 84 4c 6a be bc f6 5c bd 6d 4d 4b be
       -0.0684857 -0.22880751 -0.05394624 -0.19853754
000060 f1 2e 3a 3c 5f 59 96 be d7 2f b9 bd 35 b7 92 bd
       0.011363731 -0.2936506 -0.09042328 -0.0716385
000070 cf c4 72 bd 7f f1 1d be e3 fc 35 be a1 8a ba 3c
       -0.059269723 -0.15424155 -0.1777225 0.022771182
000080 87 06 1f be 65 c6 26 3e 63 e9 8c be 6c 48 ae 3c
       -0.15529834 0.16286619 -0.2752181 0.021274768
000090 29 59 48 be e8 4f c3 3d 8c c4 86 3c fc 94 d5 bc
       -0.19565262 0.09536725 0.016451143 -0.026072018
0000a0 41 3f 8b 3d 92 2c d8 3d ca 3c 41 3e 27 84 d5 bc
       0.06799174 0.10555376 0.18870845 -0.026063992
0000b0 79 8f 15 be 7a 60 01 3e f8 5e 9a 3c 92 e6 6e be
       -0.14605512 0.12634459 0.018844113 -0.23330143
0000c0 91 35 9f 3c 0a fe 67 be 08 96 88 3d 3d 55 e0 3b
       0.019434722 -0.22655502 0.06669241 0.0068460987
0000d0 0f 79 c9 bc 0a e7 03 3e da 73 66 be 14 fd 91 3e
       -0.024593858 0.12881103 -0.22505131 0.28513396
0000e0 46 7c 2d be d3 33 13 bd 27 f0 e4 bc c6 4b 31 3e
       -0.16941938 -0.035938095 -0.027946545 0.17314062
0000f0 e3 3f 47 3e 4f ad 36 bd 86 c3 c6 be 25 a3 9e be
       0.19457965 -0.044598874 -0.38821048 -0.30983844
000100 7a f8 07 3b f6 b2 bb 3c 25 b6 28 be 67 16 82 bc
       0.0020747469 0.022912484 -0.16475733 -0.015879823
000110 f0 06 f4 bd ef c2 0d bd 88 20 57 3e 4c 0f 4b bd
       -0.11915386 -0.03460973 0.21008503 -0.049575135
000120 98 e9 83 bd 27 95 b3 3c 48 fa 1b be 6d a9 30 bc
       -0.06441039 0.021921707 -0.15232193 -0.010782582
000130 8d d3 aa bd aa 89 db bd 33 7b 60 bd b6 c2 f0 bd
       -0.08341131 -0.10719617 -0.054804992 -0.11755888
000140 aa bb d1 3d 3c 2a fa 3d 10 68 31 bd b4 f1 1f 3e
       0.10240872 0.12215087 -0.043312132 0.15619546
000150 4d d2 85 3d 4b 30 ca bd 1a 72 81 be 90 cf ae bd
       0.06534252 -0.098724924 -0.25282365 -0.08535683
000160 f2 d4 45 bd a1 0e 84 3d 8a 8d c1 bd e3 bb ac bd
       -0.048298784 0.06448103 -0.094508246 -0.08434274
000170 ca 61 a6 3e ba 18 97 3d b4 fa 17 bc 05 01 a9 3c
       0.32496482 0.07377763 -0.009276081 0.020630369
000180 f6 e3 0d be a1 be 58 be 0f a0 1f 3c 55 d7 4c be
       -0.13856491 -0.21166469 0.009742751 -0.20004018
000190 d0 db f6 bd 06 69 93 3c b2 29 ae bd 8e 9e a1 be
       -0.12053645 0.017994415 -0.085040465 -0.3156628
0001a0 3c 92 50 be f2 0f 5a 3a e1 4a ed 3d de 05 cd 3d
       -0.20368284 0.0008318416 0.11586548 0.10010885
0001b0 ac fe bf 3c d4 85 8c be 80 84 03 be 6d 39 5b bd
       0.023436867 -0.27445853 -0.12843513 -0.053521562
0001c0 36 f5 44 3c 56 0f 07 be eb ac df 3c 51 a3 95 bc
       0.0120213535 -0.13189444 0.027304133 -0.018266352
0001d0 4d 4a 4f be 3a 81 8b be a9 e0 f5 3d f1 53 57 3d
       -0.20243187 -0.2724703 0.12005741 0.052570287
0001e0 a8 0e 8e bd f1 1e 2a 3d cd 61 ea bc d8 dc d1 3c
       -0.06936389 0.041533414 -0.028611088 0.025618002
0001f0 4b 18 07 be b4 a2 1b be a3 09 6b bd df 8b 9d be
       -0.13192861 -0.15198785 -0.057382237 -0.30770776
000200 7b 81 1e be 74 a9 16 3e ec e2 10 3e 29 5a ad bc
       -0.1547908 0.14713079 0.14149064 -0.021161156
000210 bf ca 94 3d bf 57 0a be 4c 98 24 3d a2 ff aa be
       0.07265233 -0.13510035 0.040184304 -0.33398157
000220 5d c7 03 bd f0 6a cd bd 8c a8 d6 3b 04 02 bf 3d
       -0.03217255 -0.10030162 0.006550854 0.09326556
000230 e2 ff 0d bd 40 3e 63 be 5e 56 78 be 83 89 0b 3e
       -0.034667857 -0.22191715 -0.24251696 0.13626675
000240 42 dd 1c bd 8a cb 0e 3e 26 7a 7d bd 96 33 a6 3d
       -0.038296945 0.13944831 -0.061884068 0.08115308
000250 75 11 35 3d 28 30 27 be 64 29 c0 3d f2 5d a6 bd
       0.0442061 -0.16326964 0.09382895 -0.081233874
000260 f6 2b 03 3e e2 96 46 3d 99 d7 6a be 8b d4 03 bd
       0.12809739 0.048483737 -0.22933806 -0.03218512
000270 3d a8 02 be 90 50 af bd c9 ce f2 3b 9a 36 95 bd
       -0.1275949 -0.08560288 0.0074099046 -0.07285805
000280 3c 6a 31 be 2b 5f 7e be c3 a1 41 be 61 12 20 bd
       -0.17325681 -0.24840991 -0.18909363 -0.039080027
000290 46 06 b6 3c 6b 15 6c 3d 3e 48 da bd fc ff d8 3d
       0.022219788 0.057637613 -0.1065831 0.105957
0002a0 1e ef 6e bd 28 c4 6f be 2c 14 21 3e 74 fe 86 3d
       -0.05833351 -0.23414671 0.15730351 0.06591502
0002b0 d6 37 48 3e a8 ad 2a bd f0 24 8b bc 85 e8 53 bd
       0.1955255 -0.041669518 -0.016985387 -0.05173542
0002c0 42 35 7d be e5 66 8d bd ef 4b 58 3c be a0 b1 3a
       -0.24727347 -0.06904391 0.013201698 0.0013551933
0002d0 e6 2e 04 be 28 9e 22 bd e1 8d a5 3d 34 27 49 3e
       -0.12908515 -0.03970161 0.08083702 0.19643861
0002e0 b3 08 12 bd 8e 09 06 be f4 52 02 be 23 17 cc 3c
       -0.035652827 -0.13089582 -0.12726957 0.024913376
0002f0 b3 19 26 bd 28 9e d4 bd 5d 6d 6f be e7 29 54 be
       -0.040551852 -0.103817284 -0.23381563 -0.2071911
000300 46 3a ef bd 52 7f 78 be 38 2e cf bd 26 b3 c5 bd
       -0.11681037 -0.24267319 -0.101162374 -0.096533105
000310 74 d2 96 3c 8b 32 46 be c2 40 76 bc 74 e0 82 3c
       0.018410899 -0.19355218 -0.015030088 0.015976168
000320 8a e2 01 3e b9 a3 9d bd e3 ca 62 b9 df bf 00 be
       0.12684074 -0.07697243 -0.00021628621 -0.12573193
000330 cd d5 07 3e c8 cc 24 3d 40 a5 95 3c ad a9 fc bd
       0.13265152 0.040234357 0.018267274 -0.123370506
000340 6b 97 2e 3e 10 e3 af be a6 7e e0 3d 69 41 70 be
       0.17049949 -0.34352922 0.10961656 -0.23462452
000350 db d7 86 3e 58 c4 18 3d cc 71 12 3d 73 83 87 be
       0.2633656 0.037296623 0.035753056 -0.26467475
000360 8b 92 98 3e bd c2 c6 bd e8 a6 80 3d 6e 9c f7 3d
       0.29799303 -0.09705112 0.06281835 0.120903835
000370 88 03 91 3e 4c aa ef bd d5 1d 67 be 6e ef eb bd
       0.28323007 -0.117024034 -0.22569974 -0.11520277
000380 33 c9 02 bd b7 ae 90 be f5 cc e2 bd f6 58 92 be
       -0.03193016 -0.28258297 -0.11074249 -0.28583497
000390 60 31 12 3e af 9f 2a bd 86 dd 1a 3d f2 21 9b 3d
       0.14276648 -0.041656192 0.037808917 0.07574834
0003a0 96 ad 84 bc af 62 ea bc ea b8 ea 3d 56 e2 a0 3c
       -0.016196053 -0.02861151 0.11461051 0.019639175
0003b0 e8 f5 f1 bd 4a ea 84 be 26 11 43 be 50 98 f4 bd
       -0.11814481 -0.25959998 -0.1904951 -0.11943114
0003c0 11 15 11 bc 42 c8 0a be 34 75 12 bd a7 36 f6 3d
       -0.00885512 -0.13552955 -0.035756305 0.12022143
0003d0 d0 3b 83 bd 54 97 19 3e 1a 5a 11 3e ee d0 a0 be
       -0.06407893 0.14999133 0.14194527 -0.314094
0003e0 25 18 73 3c b1 ac 87 be 10 dc 87 be 37 51 ba bd
       0.0148372995 -0.2649894 -0.26535082 -0.09097522
0003f0 b9 4f 70 be b4 fc 7c 3e dd fd cb bd cf 6c ac 3c
       -0.23467912 0.24705774 -0.0996053 0.021047978

bias f4 [24]
000000 2d 2a bb 3f 07 6b d0 3e 08 b9 95 bf 6d 0f 99 be
       1.4622246 0.40706655 -1.1697092 -0.2989458
000010 4f ac 22 3f 87 b2 d7 3e f9 6a 50 3f 98 0d 3d 3e
       0.6354417 0.42128393 0.8141323 0.18462217
000020 db c5 b7 3e d8 20 16 3e c9 f0 e0 bd 12 83 b1 3f
       0.3589314 0.14660966 -0.10983426 1.3868124
000030 9f 88 9b 3e ed 06 8d 3f 91 22 9f bf e8 2c 58 be
       0.3037767 1.1017739 -1.2432424 -0.2111088
000040 4b 3d 01 bf 56 62 ec bc 94 44 d9 3f 49 95 46 c0
       -0.5048415 -0.028855484 1.6974053 -3.1028616
000050 87 9b 78 c0 6c 72 99 3f 1e 89 a7 be bd 44 97 3f
       -3.8844926 1.1988044 -0.327218 1.1817852

weight f4 [12, 24]
000000 0e 71 c0 bd a5 30 8c be 68 53 bb bd 9e ed e3 bd
       -0.093965635 -0.27380863 -0.09146768 -0.11129306
000010 92 19 8b 3e 0f 82 6b 3e 01 7d 38 bd 83 45 ad bd
       0.27167946 0.22998832 -0.045041088 -0.08460524
000020 60 37 87 3d 28 70 c7 3d fb 23 06 bb 2c 0d 02 3e
       0.06602359 0.09738189 -0.0020468223 0.12700337
000030 92 d4 a8 3d 75 96 38 be 83 26 67 bd 2e f0 3e 3d
       0.082436696 -0.18026145 -0.056433212 0.046615772
000040 50 d2 50 3e bd 48 38 3d 71 ce 29 be 49 cb 36 bd
       0.20392728 0.044991244 -0.16582657 -0.04462746
000050 49 6c 0a be 81 b8 b5 bd d1 1f 31 3d 14 8d 0e bf
       -0.1351787 -0.08873082 0.043243233 -0.5568402
000060 ba 92 95 bd c9 eb 28 bd ef 2c c3 bd 24 12 4a be
       -0.073033765 -0.041240487 -0.09530055 -0.19733483
000070 03 c1 c8 bd 44 b7 f3 3d a3 4a 30 be 60 60 6c be
       -0.09802439 0.119001895 -0.17215972 -0.23083639
000080 bd ac f0 3c 91 0a 2a 3e 8f bc 02 3d 97 88 18 3d
       0.029379243 0.16605593 0.031918105 0.037239637
000090 9f ab f6 3d 61 01 87 bd d4 d1 c1 3c e9 8f 0c 3d
       0.12044453 -0.0659206 0.023659624 0.03431693
0000a0 81 c9 77 3b 50 8f a1 3c 36 05 97 be 8e 39 8c bd
       0.0037809315 0.019721657 -0.29496163 -0.06846915
0000b0 a9 ec e1 bd c5 9b 1f 3d b0 29 06 3d ca 29 96 be
       -0.110314675 0.038966913 0.0327546 -0.29328758
0000c0 da c8 27 3d 7d 5a 07 bd 36 dc 61 3d 73 78 20 3e
       0.04096303 -0.03304528 0.05514165 0.15670948
0000d0 a0 fa 28 bd 9f 8d d5 3d db 55 8f 3e 97 b7 bc 3d
       -0.04125464 0.10427403 0.2799519 0.092147045
0000e0 9a 04 2c ba e3 3b 88 3d a2 11 56 be 90 5b b0 be
       -0.0006561965 0.066520475 -0.20905164 -0.34444857
0000f0 a8 21 a0 3d 39 44 6b 3e 03 b5 9f bc 44 0c 56 be
       0.078189194 0.22975244 -0.019495493 -0.20903116
000100 ea 63 3d bd 2b 54 9c bd 59 12 9d 3e 8b 4f 4a 3c
       -0.046237864 -0.07633241 0.3067806 0.012348066
000110 88 41 15 3e 6c d4 86 bd 1f a2 cc bd bc df 18 3e
       0.1457578 -0.06583485 -0.0999186 0.14929098
000120 ea 3e 03 be 84 5c ea bd 69 cf 03 3e 4c c1 c7 3d
       -0.12816969 -0.11443427 0.1287209 0.09753665
000130 ac e1 f8 bd 59 5e 4f bd ed df 63 bc 80 0e 9c bd
       -0.121524185 -0.050627086 -0.013908369 -0.07619953
000140 3d 7a 3e be ef 4b 48 bd 16 e2 f8 3c 9e f1 f6 38
       -0.18601318 -0.04890054 0.030381244 0.00011775199
000150 5f 0a 4a bc 64 dd 6b be e0 de ae 3d 2a 62 7c 3d
       -0.012331574 -0.23033673 0.08538604 0.061617054
000160 25 c4 b7 3b f2 90 86 bd 86 c4 ae 3c 3b cb 8e 3d
       0.005608099 -0.06570615 0.021333944 0.06972357
000170 bc fd 10 3e c8 66 96 bb 15 ef 1d 3e cc 68 27 3d
       0.14159292 -0.004589889 0.15423234 0.040871426
000180 eb ab fa 3c 3c 00 c7 bd 2a 5c 8d bd e6 63 52 bd
       0.030599555 -0.097168416 -0.069023445 -0.0513648
000190 83 3c 0b 3e 05 55 69 3b 89 49 3c bc f7 46 95 bd
       0.13597302 0.0035603654 -0.0114921415 -0.07288926
0001a0 c8 2e c8 bd 04 2b 93 bc 9b 7b 0b 3c 32 b0 7e 3c
       -0.09774548 -0.017964847 0.008513357 0.015544938
0001b0 dd 71 02 3e 0b 84 0f bd 00 36 da 3b a3 25 8e 3c
       0.12738748 -0.035038035 0.0066592693 0.017351931
0001c0 a9 cc ed bb 25 d8 1f bc 07 df ff bd a3 a1 73 bd
       -0.0072570634 -0.009756123 -0.12493711 -0.05948032
0001d0 ad 83 6a bd 87 f5 13 bd 7e 06 63 3c bc 19 3b bc
       -0.057254482 -0.036122825 0.013856528 -0.01141971
0001e0 9e 80 dd bd ef df 62 3d 22 2d ca 3d 8f a4 8e bd
       -0.108155474 0.05538934 0.0987189 -0.06964981
0001f0 48 c9 98 be 8a 22 04 bd ee 21 81 bc 44 66 17 bd
       -0.29841065 -0.0322595 -0.01576325 -0.036962762
000200 8a 8f 7d 3d fa 3b 9c 3c a8 86 c1 bd 7b b3 1c bd
       0.061904468 0.019071568 -0.09449512 -0.038257103
000210 e8 de 57 be 35 3a d3 bc d7 40 01 be a9 51 b6 bc
       -0.21081126 -0.025784591 -0.1262239 -0.022255735
000220 d4 14 ca bc ba ae 97 bb 54 46 26 3d 9a 04 88 bd
       -0.024668135 -0.0046289833 0.040594414 -0.06641503
000230 31 b3 99 bd 01 de 51 3e bb 9e 93 bd fb 50 d7 3d
       -0.07504881 0.20494844 -0.0720801 0.10513493
000240 42 21 e1 3d 50 91 a1 3d 6c fb 28 be 49 39 93 3d
       0.109926715 0.07889044 -0.1650216 0.07188661
000250 66 3e 55 3e 83 f5 44 3d 2f 70 9d 3d 81 83 dc bc
       0.20824584 0.0480857 0.07687413 -0.026918175
000260 6d a5 a7 be 3d 87 24 be 09 d9 29 3e 81 25 9b bd
       -0.32743397 -0.16067214 0.16586699 -0.07575513
000270 1d 67 5a 3e fd 3c a0 3e 21 84 8b 3e 6b 7e 84 3e
       0.21328397 0.3129653 0.27249244 0.258777
000280 09 0a 1a be da a5 65 be 4a 39 6a bd 55 d3 40 be
       -0.1504289 -0.22426549 -0.05718354 -0.18830617
000290 ea 15 0f be d9 c3 f7 bd 0f 53 83 3e f7 cb 0a bd
       -0.13973203 -0.12097902 0.25649306 -0.033885922
0002a0 52 c9 a9 3d b3 b3 f0 bd 5c 13 ed 3d 14 7d d8 bd
       0.08290352 -0.11753025 0.11575958 -0.10570732
0002b0 57 62 17 bd 4c c9 08 3e c7 95 13 be 40 42 34 3c
       -0.03695902 0.13358039 -0.14412604 0.011002123
0002c0 3e ee 8e 3d 7b 25 b6 3d 5f f8 eb 3d 8c 90 66 bd
       0.06979035 0.088938676 0.115219824 -0.056290194
0002d0 4d 4e 48 3d 46 fc 65 bd 27 ec 59 3d cd 9e 0d bd
       0.0489028 -0.05614879 0.053203728 -0.034575272
0002e0 c7 77 6b 3d 30 d4 96 bb 19 52 96 be 8d 51 04 3e
       0.057487275 -0.0046029314 -0.2935951 0.12921734
0002f0 29 e0 45 3e 13 7f 69 be b2 8c 8d 3d 6d 99 83 bd
       0.19323792 -0.22802381 0.06911601 -0.06425748
000300 55 02 7e 3e 0b b7 fc 3d 70 ca b7 bc 98 df 39 3e
       0.24805577 0.123396 -0.022435397 0.181517
000310 d6 39 a9 bd 3a 8a 95 3d be 7a 9d 3e 4f 7b 6e 3e
       -0.082629845 0.07301755 0.30757707 0.23289226
000320 57 26 7c 3d 84 36 f3 3d f3 18 1d be af ce b3 3c
       0.06156 0.118756324 -0.15341549 0.02194914
000330 c3 11 c1 3c eb 58 3d 3e 87 15 19 be e5 39 b7 bd
       0.02356804 0.18490951 -0.14949618 -0.089465894
000340 2c 61 92 bc 87 d3 c7 3d 5a 6b 9d bc 45 3f b7 bd
       -0.0178686 0.097571425 -0.019216228 -0.089476146
000350 7a 22 db bd ce ef cb bd 39 78 fe bd bf cc 39 3e
       -0.10699935 -0.099578485 -0.124252744 0.1814451
000360 98 a1 b1 be 3b da 14 3e 9d 22 0f 3d f3 78 ca bd
       -0.346936 0.14536373 0.03494512 -0.098863505
000370 d4 94 53 be 31 0b c1 3d 05 0b ba bd c3 23 38 bd
       -0.20662242 0.09425963 -0.09084133 -0.04495598
000380 61 cd 41 3c a1 26 95 bc f8 7e 77 3c 05 0d 73 3c
       0.011828751 -0.018206896 0.015105955 0.014834647
000390 b8 94 74 bd 5e 94 52 be c5 01 51 bc d1 a7 d9 bb
       -0.05971214 -0.2056441 -0.01275677 -0.0066423197
0003a0 c3 9a 5a 3d 77 73 a1 bc a9 7d ff 3d b0 b6 02 bd
       0.05337025 -0.019708378 0.1247514 -0.031912506
0003b0 97 c9 a0 bd af ef 64 3e 72 67 d2 39 49 0a 30 3d
       -0.0785095 0.22357057 0.00040131394 0.04297856
0003c0 3c dc 8a 3c d2 a6 38 bd 98 99 a5 bc 91 6c ae bc
       0.016950719 -0.045080967 -0.02021484 -0.021292003
0003d0 7e d9 75 3d 61 51 87 bc 27 83 26 bc c3 80 c8 bc
       0.06002187 -0.016518297 -0.010163105 -0.02447546
0003e0 a9 c3 bd bc f3 f8 83 bc d2 4d 97 bd 46 58 2a bd
       -0.023164587 -0.01610992 -0.0738789 -0.04158809
0003f0 bd 6b 79 3d a5 ce 28 3d eb ae a3 bd bd b2 6f bd
       0.060893763 0.041212697 -0.07992347 -0.058520067

bias f4 [12]
000000 36 38 f5 3f 95 de 01 40 8b 1e a8 bf be 83 28 c0
       1.9157779 2.0292103 -1.3134321 -2.633041
000010 ae 9b 23 40 ec 9a 26 40 57 33 19 3f b1 5a d6 bf
       2.556377 2.6032057 0.59843963 -1.6746427
000020 e2 2d b4 3f 01 c3 e9 3f 35 e6 34 40 4c d9 ef bf
       1.4076502 1.8262635 2.8265507 -1.8738189

weight f4 [5, 12]
000000 90 5b 76 bf d2 53 ed bf b1 ed 38 3f ec 1f c7 3f
       -0.96233463 -1.8541205 0.7223769 1.5556617
000010 4a 4d 5d c0 20 03 db bf 73 fe 83 bf ec 15 b9 3f
       -3.4578424 -1.7110329 -1.0312027 1.4459815
000020 70 f9 00 bf e4 db e3 bf 06 65 70 c0 2b 62 02 40
       -0.5038061 -1.780148 -3.756166 2.0372417
000030 77 1e da bf 0f 44 8d bf 6f 1d 5d 3f b8 21 96 be
       -1.7040547 -1.1036395 0.8637304 -0.293226
000040 cf bb 26 bf 7c 07 a6 3f a9 e3 8e bd a7 c3 8f bf
       -0.65130323 1.2971034 -0.069770165 -1.1231583
000050 ad fe 80 3f 29 ff be 3e 1a 7b 4a bd 6e d0 c5 be
       1.0077721 0.37304047 -0.049433805 -0.38635582
000060 77 bc 4c bf 22 2f 63 bf 47 73 26 3f 8c 99 d1 bf
       -0.79975075 -0.88743794 0.6501965 -1.6374984
000070 a3 76 13 3f 46 ba 0a 3e fa e4 5d 3f 27 57 95 bf
       0.576029 0.1354762 0.86677516 -1.1667222
000080 b8 92 4b 3f 21 c7 b0 bf cc 18 83 3f 50 c0 5a bf
       0.7952075 -1.3810769 1.0241942 -0.85449696
000090 62 e4 56 3f 26 76 52 3f a7 86 c0 bf 6d 8d cb 3f
       0.83942235 0.8221153 -1.5041093 1.5902535
0000a0 95 ed 24 3f 7b 09 87 bf 01 b4 fc 3e 6f 43 83 3f
       0.6442502 -1.0549768 0.49356082 1.0254954
0000b0 a1 21 07 c0 cb 37 63 3f f3 20 e9 bf 55 6a b6 bf
       -2.1114275 0.8875701 -1.821318 -1.42512
0000c0 72 33 ad 3f 5c ad 9f 3f 15 da ef bf 3e c2 f0 bf
       1.3531325 1.247478 -1.8738428 -1.8809278
0000d0 37 63 24 3f 12 c3 14 3f 6a 8d 91 bf ae bd a4 be
       0.6421389 0.58110154 -1.1371281 -0.32175964
0000e0 0f 80 76 be 9a a8 61 3f b2 2e cc 3f 08 85 a5 3d
       -0.24072288 0.8814789 1.595175 0.08082014

bias f4 [5]
000000 ce f2 37 3f c3 45 64 3e f8 8b b9 3d 3d 7e e3 be
       0.71854866 0.22292237 0.090599 -0.4443225
000010 0d 77 1f bf
       -0.6229103
