Big Data in Healthcare/homework5/903469283-ksims35-hw5/output/seizure/MyRNN.pth (torch_old, 26140 bytes, 18 tensors)

weight_ih_l0 f4 [60, 1]
000000 d0 25 9b 3c 93 78 5d 3d b6 f0 9a 3b e0 65 75 3d
       0.018938929 0.054070067 0.004728402 0.05991161
000010 d7 a0 af bd b6 27 ee 3e b5 e1 78 bd e8 ed fd be
       -0.085756 0.46514672 -0.060762126 -0.4959557
000020 c6 29 05 3d ac bd 87 bd 33 52 8d 3c 1e b1 50 3e
       0.03251054 -0.06627974 0.01725111 0.20380065
000030 c5 69 b1 be 0c 2b a7 bd 65 49 9e 3d f5 f3 da be
       -0.34651008 -0.081625074 0.07728843 -0.4276425
000040 b8 ad e5 bd 00 bb bb 3d f1 df a5 bd e7 82 e9 be
       -0.11214775 0.09166527 -0.08099354 -0.45607683
000050 4d 9d 53 bd 80 f9 20 be 34 dd 81 3c ef 58 95 bd
       -0.051663686 -0.15720177 0.015852548 -0.07292353
000060 94 50 10 bd b1 48 98 3c 76 9d a5 3d 3a 67 e0 3c
       -0.035233095 0.01858935 0.08086674 0.027392972
000070 4a 8a fc bd a4 d8 04 3e 48 1d d7 3c fc 71 b2 3e
       -0.12331064 0.12973267 0.02625908 0.34852588
000080 9e ef 29 3d d3 9b 56 bd 27 85 a9 bd 6d f4 11 be
       0.041488282 -0.0523947 -0.0827735 -0.14253397
000090 25 e2 ef 3d b8 e5 1c bd fa fc e5 3c 06 69 cb bc
       0.117130555 -0.038305014 0.02807473 -0.024830353
0000a0 e4 06 84 3d 91 07 49 bd 55 3f 60 3d f6 79 5c 3c
       0.06446627 -0.04907948 0.054747898 0.013456812
0000b0 ff 20 a7 bd b7 f2 85 3d df a4 b5 bd b2 c3 45 3d
       -0.081605904 0.06540435 -0.08869337 0.048282333
0000c0 9a 18 1a bc 01 ea ad 3c 9e e8 6f bc 5a 36 1c be
       -0.0094052795 0.021229746 -0.014642863 -0.15255108
0000d0 30 41 d3 3c f3 2a f5 bc 7b 1a c4 3d 60 7b 3b 3d
       0.02578792 -0.029927706 0.09575363 0.045771956
0000e0 58 43 63 bd aa 69 50 bc 7d 17 f0 3c be dd 33 3c
       -0.055484146 -0.012720505 0.029308075 0.01097816

weight_hh_l0 f4 [60, 20]
000000 3a 30 35 bd b6 b8 69 3e 9f c4 47 be 53 a5 84 be
       -0.044235446 0.22824368 -0.19508599 -0.25907382
000010 94 6e b5 bb fa b3 2f bd fe ed 97 3f 84 c0 3c 3f
       -0.0055368636 -0.04289625 1.1869504 0.73731256
000020 d0 6f f1 be d5 d6 53 be c9 1b c4 3e 7d 12 0a 3f
       -0.4715562 -0.2068742 0.38302448 0.5393446
000030 ad 9a aa 3d e9 94 08 bf 26 bd 7a 3e 38 bb ec 3e
       0.08330283 -0.5335222 0.24486217 0.46236587
000040 8b 5a 8d 3f 71 df 1d 3e 98 10 a6 be d2 28 c5 be
       1.1043257 0.15417267 -0.32434535 -0.38507706
000050 62 89 80 be 4c 24 2b be e3 b1 85 be ba ae c4 3e
       -0.25104815 -0.16713065 -0.2611228 0.38414556
000060 59 1c 55 3e 18 a2 00 bf 04 c0 9f 3e 34 6d 7b 3e
       0.20811595 -0.50247335 0.31201184 0.24553376
000070 54 32 2c be 45 4a 65 3f fb 83 67 3f f4 17 2d 3e
       -0.16816074 0.8956645 0.9043576 0.16903669
000080 16 07 82 be 70 90 28 be 3e 1c 8a 3e 4b 44 11 3d
       -0.2539603 -0.16461349 0.26974672 0.03546552
000090 3f 0b 0b 3f 7e 2f 94 3e 2d 1d 77 bf 70 22 6f 3c
       0.54314035 0.28942484 -0.96528894 0.014595613
0000a0 37 9e d8 3e 90 75 2c bd 49 1c bd 3e 7d 6c 4b be
       0.42308208 -0.042104304 0.36935642 -0.19865604
0000b0 1b 5e ec be 74 72 37 be 57 8c 80 3f a7 27 1c 3f
       -0.46165547 -0.17914754 1.0042828 0.60998005
0000c0 74 17 1d 3e ed 01 bf 3e 46 4b eb 3d c4 b3 01 3f
       0.15340978 0.37306157 0.11488967 0.50664926
0000d0 74 25 c2 3e 5b 87 58 bf 53 3c b7 3e 11 0f 41 3f
       0.379192 -0.84581536 0.3578821 0.75413615
0000e0 86 87 2b 3f ec d8 84 bd a2 cc 95 be 70 08 4c be
       0.6700367 -0.06486687 -0.29257685 -0.19925094
0000f0 27 23 06 3e b9 61 89 3e ae 6c 8e bd 9e 53 a0 be
       0.13099347 0.2683237 -0.06954323 -0.31313795
000100 13 66 54 3e f7 8d f7 bc 1a 17 d0 bd c3 3d 3d 3f
       0.20742063 -0.030219061 -0.10160656 0.73922366
000110 2e a7 23 bd 33 26 9c be 90 6e 53 be 78 fc 0a 3f
       -0.039954357 -0.30497894 -0.20647645 0.54291487
000120 97 85 ae 3e 68 75 67 be 1d 0b 2e 3f 8f c7 29 3f
       0.34086296 -0.2260338 0.6798571 0.6632013
000130 27 53 b8 3e cb c9 de 3e c7 f0 a5 3d 94 9e 30 bf
       0.3600094 0.4351333 0.08102565 -0.6899197
000140 f5 16 0d be fd 0d a4 be be c3 e6 bd 66 56 a6 be
       -0.13778289 -0.32041922 -0.112678036 -0.32487792
000150 9b dc 51 3d bb 01 a6 3e ae cd 5d be 1c cf c2 bd
       0.051235776 0.32423195 -0.21660492 -0.09512159
000160 f5 a9 e4 3e 77 65 ab 3d 02 4e a6 be 1a c6 37 3e
       0.44660917 0.08368962 -0.3248139 0.17946663
000170 3c 65 75 be 82 88 78 3e 85 53 06 bf 68 79 bc be
       -0.23964399 0.24270824 -0.5247119 -0.36811376
000180 7e 63 db be eb 83 ac bd 4e 87 6d 3e 67 ad e1 bc
       -0.42849344 -0.08423599 0.23196146 -0.027548505
000190 3c 0a 11 3d c7 ab d9 3d 34 1c 94 3d 93 82 94 3e
       0.03541015 0.10628467 0.07231942 0.2900587
0001a0 bc 64 99 be 3c b7 5e 3e dc 02 6c bd 5c 84 2b ba
       -0.29959667 0.21749586 -0.057619914 -0.00065428554
0001b0 9f 38 e0 3c 47 92 09 3f c9 4b 7a be e2 3d 0a bf
       0.027370749 0.53738827 -0.24442972 -0.54000676
0001c0 ff 12 80 3e 92 2e dd 3c 26 67 cc 3e 3f e3 a7 3e
       0.25014493 0.026999746 0.39922446 0.32790563
0001d0 4b 08 81 3e af dd ff be 74 5c d1 3c ac db 4c 3f
       0.2520164 -0.4997382 0.02555678 0.8002269
0001e0 79 83 2f be 43 c8 8a 3e df 91 83 bd a5 e1 f0 be
       -0.17139997 0.27105913 -0.06424307 -0.47047153
0001f0 d9 90 87 be 8c 7a 8b 3e 6b 3a 81 3e 73 bc 43 3f
       -0.26477697 0.27241933 0.25239882 0.76459426
000200 cf 70 b2 be a2 d1 89 be 4b 90 0e bf f6 ed fb 3e
       -0.3485169 -0.2691775 -0.55688924 0.49204987
000210 60 0b b5 3e 67 8e 24 be b0 cf 56 3e 3b 8d cc bc
       0.3536024 -0.16069947 0.20977664 -0.024969688
000220 75 70 c8 3e 66 31 5d 3d 3e e9 78 3f 6d 2e 4d be
       0.39148298 0.05400219 0.972309 -0.20037241
000230 bf 87 cd be da ec ab 3e b4 aa 6c bd 53 d5 0f 3e
       -0.4014263 0.3357914 -0.057779983 0.1404622
000240 18 4b 69 3e c7 fd d4 3d 4a c2 97 3e ea 70 58 be
       0.22782552 0.10399967 0.29640418 -0.21136823
000250 29 2d bf 3c c7 55 81 3e 38 49 d4 3e 05 f5 5a 3e
       0.023336964 0.25260755 0.4146211 0.2138253
000260 c3 38 cc be 97 36 d8 3c e3 76 f8 3e e5 8c 43 3e
       -0.39887056 0.026393218 0.48528203 0.19096716
000270 89 0a c1 3e fd d1 a4 3e 10 b0 c8 be 74 7c ab be
       0.3770335 0.32191458 -0.39196825 -0.33493388
000280 af 27 ca be 75 c9 34 3f 53 fd b5 be 1a 3a ee be
       -0.394834 0.706199 -0.35544834 -0.46528703
000290 55 3c d3 3e 3a 7e df bd fd 6a ea 3d 06 69 c2 3e
       0.41256967 -0.10912748 0.11446188 0.37970752
0002a0 4b 7b 3c 3e 26 64 5a bf 40 05 ca bd 11 7f 86 3f
       0.18406408 -0.85309064 -0.098642826 1.0507528
0002b0 6b a4 95 3d 6d 75 64 be 00 ca 37 be 96 9c 79 3d
       0.07306751 -0.2231042 -0.1794815 0.060940348
0002c0 01 26 b7 3c bf aa 37 3f 84 01 55 3e 62 37 85 bf
       0.022356989 0.7174491 0.2080136 -1.0407526
0002d0 71 7c c8 3d 3e 79 f5 3e 15 a4 94 3e 26 2c 2a be
       0.0978936 0.47944063 0.29031435 -0.16618404
0002e0 c9 8a 01 bf 2e 12 74 3e a9 65 a3 bd da d4 68 3f
       -0.50602394 0.2383506 -0.079783745 0.90949786
0002f0 db 43 83 be 1b 04 ca 3e 8e 76 d4 be c3 47 79 3e
       -0.25637707 0.39456257 -0.414967 0.24343781
000300 09 99 70 3f 65 d0 30 bf 0e 07 4f 3f 68 ea ca 3e
       0.93983513 -0.69067985 0.8087014 0.39631963
000310 d0 ef c8 3e a1 6e ab 3e f1 68 1e 3f a7 61 99 3e
       0.39245462 0.3348284 0.6187888 0.29957315
000320 88 62 e7 3d 02 83 0f 3f 8c 11 ff be eb 7e 44 be
       0.1129809 0.5605928 -0.49818075 -0.1918904
000330 33 5d d3 3d a6 d4 61 be 46 ad 2b 3f 74 d2 80 3f
       0.10320511 -0.22053775 0.6706127 1.0064225
000340 e3 66 27 3f 25 05 5f be 51 ad 14 bf 29 ea d2 3e
       0.6539137 -0.21779306 -0.5807696 0.41194275
000350 31 c2 4b 3f c3 18 bd be 80 90 7c 3e bc 6b 30 3e
       0.7959319 -0.36932954 0.24664497 0.17228597
000360 b8 7e 48 3e 4f 4d 32 3f cc 56 b7 3e ff 98 0e bf
       0.1957959 0.69649214 0.35808408 -0.55702204
000370 a4 d4 43 3e 2e d0 d9 3e 77 2c ba 3e f5 69 80 be
       0.19124085 0.4254164 0.3636205 -0.2508084
000380 a4 b9 13 bf 5a 89 9e 3e 8b f3 db bd b1 9d 35 3f
       -0.5770514 0.30964166 -0.107398115 0.70943743
000390 69 d8 08 3e 65 83 a5 3e e3 be 01 bf f7 e1 25 3e
       0.13363804 0.3232681 -0.50681895 0.1619948
0003a0 85 35 a8 3f b0 c5 ff be 8b d8 2e 3f 94 2c 01 3f
       1.3141333 -0.4995551 0.6829917 0.50458646
0003b0 6c 14 ad 3d 05 dc b0 3d 07 61 d8 3e ba ec fb 3e
       0.08451161 0.086357154 0.42261526 0.49204046
0003c0 de 54 b0 3d 66 40 59 3d 0a 47 8a be 49 ce 03 3f
       0.08609937 0.05303993 -0.27007324 0.5148664
0003d0 17 3a fc be 12 f3 50 3e cf dd 68 3e 63 9e a6 3e
       -0.4926307 0.20405224 0.22740863 0.32542714
0003e0 18 25 5b bd e7 71 50 3f 3a 47 23 bf 32 c4 ac 3e
       -0.053502172 0.814238 -0.6378056 0.33743435
0003f0 b9 82 f5 3d 72 71 a8 be bc 01 b7 3e 4d 1b 6e bd
       0.11987824 -0.32899052 0.3574351 -0.058131505

bias_ih_l0 f4 [60]
000000 70 49 57 3f 24 e3 fd 3d 33 26 b1 3e 04 04 0e 3f
       0.8409643 0.12396839 0.34599456 0.5547488
000010 dd c1 a9 3e c3 01 d2 bd 91 9a 39 3f 56 5f 04 3e
       0.33155718 -0.10254242 0.72501475 0.12926993
000020 55 b9 38 3e b6 94 33 3f 19 e1 46 3f 50 11 dc 3e
       0.18039449 0.7014879 0.7768722 0.42981958
000030 9a 66 89 3e de 27 98 3e 80 eb fc 3e 8f a7 b5 bd
       0.2683609 0.29717916 0.49398422 -0.0886985
000040 94 81 6c 3e 3a 29 50 be b0 e2 f3 3e 17 d2 bd be
       0.23096305 -0.20328227 0.47633886 -0.37074348
000050 0e 76 10 bf 02 91 cb bd 46 40 01 bf 3d 72 ee 3e
       -0.5643014 -0.099397674 -0.504887 0.46571532
000060 19 90 08 3e 2c 7f e1 3d 8a 99 fd 3e 46 e4 8c 3d
       0.13336219 0.11010584 0.49531204 0.06879477
000070 7e 60 23 be 4e 37 98 3e ad 4f 94 3e 94 89 4a bd
       -0.15954778 0.29729694 0.28967038 -0.04944761
000080 93 73 d7 3e 59 c9 14 3f 2f a1 96 3e 1d 43 24 3e
       0.42080364 0.5811973 0.29419848 0.16041227
000090 07 b6 4d bd 79 37 9c 3e 41 a8 1a 3e 4a 22 a5 3d
       -0.050222423 0.30511072 0.15103246 0.08063181
0000a0 28 69 58 3d 00 40 e5 3d 81 0c 20 be c4 11 b8 bd
       0.05283466 0.11193848 -0.1562977 -0.089877635
0000b0 d8 9e 10 3d 70 0c 30 3e 10 2d f3 bd da d6 b2 3e
       0.035307735 0.17192245 -0.11873829 0.34929544
0000c0 50 4c 4c bd 39 20 0b 3e 80 25 34 be f0 3a 90 be
       -0.049877465 0.1358651 -0.1759243 -0.28169966
0000d0 e9 bc 88 3d bb 22 4e bd 99 6e 71 bd 88 4a 8a 3d
       0.06676657 -0.05032609 -0.058943365 0.06752497
0000e0 35 64 95 bd 8f f5 76 3e 01 0b 84 3e 13 93 b8 be
       -0.072945036 0.2411711 0.25789645 -0.3604971

bias_hh_l0 f4 [60]
000000 c8 09 1e 3f 0f c8 0b 3e 88 c0 d7 3e 5c c5 67 3f
       0.61733675 0.13650535 0.42139077 0.9053552
000010 1a c6 64 3d 82 a4 b0 3d cf 0d ad 3e 0a 4c 88 be
       0.055852987 0.086251274 0.33799598 -0.26620513
000020 a4 b2 8d 3e d4 71 0b 3f db d3 44 3f cd 0a eb 3e
       0.27675354 0.5447056 0.76885766 0.45906678
000030 d4 71 95 bd 0c c9 a7 3e 43 77 f8 3e 11 28 46 3e
       -0.072971016 0.32770574 0.4852849 0.19351222
000040 1a 02 ed 3e 4b c9 62 bd f9 7f 0c 3e aa 41 48 be
       0.46290666 -0.05536775 0.13720693 -0.19556299
000050 fa 2f 31 bf 85 d8 c0 3d 24 33 3b bf 5c e7 d6 3e
       -0.6921383 0.09416298 -0.7312491 0.41973388
000060 16 e6 d8 bd 95 ec 83 bd c1 93 5f 3e c0 fb d6 ba
       -0.105907604 -0.06441609 0.21833707 -0.0016401932
000070 87 07 11 be e5 62 9b 3e 22 82 82 3e a8 b8 32 be
       -0.14163028 0.30348888 0.25489908 -0.17453253
000080 cf 0e ff 3d 4d 27 0e 3f 3e c3 00 3f 80 52 60 bd
       0.124539964 0.5552872 0.50297916 -0.054766178
000090 69 28 e0 bc 04 a1 ea 3e 15 08 9e 3a 35 36 6d 3e
       -0.027363019 0.4582597 0.0012056852 0.2316521
0000a0 70 f0 2c 3e b9 7b 7f 3e 19 7f 7c be 50 16 82 3a
       0.16888595 0.2494954 -0.24657859 0.0009924863
0000b0 75 c9 43 3e 0a 39 34 bd 44 37 02 3e f5 53 d6 3e
       0.19119819 -0.04399971 0.12716395 0.4186093
0000c0 d1 52 98 3e 15 63 ea bc 95 f2 5b be 26 4b 86 bd
       0.29750684 -0.0286117 -0.21479256 -0.06557302
0000d0 ea ca 27 3e 19 06 0e be 16 de 65 3e e1 24 9f 3e
       0.16386 -0.13869514 0.22448 0.31082824
0000e0 39 8b 18 3e 49 ad 9f 3e 7e fd 99 3e 79 8f ff 3d
       0.14896859 0.31186894 0.30076212 0.12478537

weight_ih_l1 f4 [60, 20]
000000 22 7b d1 bd 69 fd c7 bd 9c 66 56 be 4f 3d db be
       -0.10228564 -0.09765131 -0.2093758 -0.42820212
000010 e2 ab d2 bd 39 c3 e5 bb 56 5a 8b 3d a8 78 12 3f
       -0.1028669 -0.0070117977 0.068043396 0.57215357
000020 4c 51 cf be 82 94 61 be 78 e5 08 be d5 1d b4 3d
       -0.40491712 -0.22029307 -0.13368785 0.087947525
000030 dd 76 15 3d d4 71 e4 3e 0b 87 19 bf 88 cf fc 3d
       0.03649031 0.44618094 -0.59971684 0.12344271
000040 b1 f3 b7 ba e9 12 4f 3c 04 01 2a be 4c 40 fb bc
       -0.0014034418 0.012638786 -0.1660195 -0.030670308
000050 2d ae d7 3d 9e 95 a5 bd 8f c8 5a 3d ac ca e1 bd
       0.10531268 -0.08085178 0.053413924 -0.11024985
000060 57 eb 8a bb b3 04 df be a1 1d 24 3f 8c ed 9d be
       -0.0042394805 -0.43558273 0.6410771 -0.30845296
000070 c6 5d 89 be 22 57 96 3d 29 a2 f4 3d 2d dc 95 3e
       -0.26829356 0.07340838 0.11944992 0.29269543
000080 0b cf 6a be 0e 5b 0f bf 58 99 3b 3e e0 32 c0 3e
       -0.22930543 -0.55998313 0.18320215 0.37538815
000090 5d e5 d0 3e d5 64 a2 3d ae 48 a9 3d e7 51 8b 3d
       0.4079999 0.079293884 0.08265816 0.06802731
0000a0 81 78 88 3d 1f 23 a8 3d 38 a3 cb be bc bd 01 3b
       0.06663609 0.08209824 -0.39772964 0.0019796928
0000b0 25 d4 12 bd b3 38 a1 3d 10 cb 19 3f 09 4f 3e 3e
       -0.035846848 0.07872143 0.60075474 0.18584837
0000c0 75 15 a2 3d 7a 10 83 3e 9d bb 27 3e 88 69 bf 3e
       0.07914249 0.25598508 0.16380163 0.373852
0000d0 62 ba 12 3e 8e 9b 85 3c a6 45 e2 3d bf 42 11 3d
       0.14328912 0.016309526 0.11048441 0.035464045
0000e0 5a 32 21 3f d6 56 d7 3e 06 2b 04 bc 17 de 64 be
       0.62967455 0.42058438 -0.008066898 -0.22350346
0000f0 67 60 4d 3f 76 6e d1 3e ea 4f 23 3f 72 39 e2 3e
       0.80225223 0.40904588 0.63793814 0.44184452
000100 74 ff 04 bc 3b 05 9a 3e 6e cf 9d 3e b6 28 e8 3e
       -0.008117545 0.30082116 0.3082232 0.4534356
000110 a1 da b6 be 0a a5 f5 3e 92 2e 8e be 71 8f 02 be
       -0.35713676 0.47977477 -0.27769905 -0.12750031
000120 ae 42 d1 3e 68 e5 16 3e db 38 65 be 10 ed 22 be
       0.40871185 0.14735949 -0.2238497 -0.15910745
000130 4e ab 03 3f 12 f5 ac be 29 80 b2 3e d3 4d 06 bd
       0.51433265 -0.33780724 0.34863403 -0.032789063
000140 ae b9 37 3e dc 19 46 3e 0b 43 5e 3e 8a 2e 05 3f
       0.17941925 0.19345802 0.21705262 0.5202414
000150 bd 87 72 be 6a a3 ed bd 4a 7c 1f 3d 7c 44 4b 3f
       -0.23684593 -0.116034344 0.03893689 0.79401374
000160 9f 32 90 bf 2e dd 30 3e 0c 1e c6 be 1e e0 53 3d
       -1.1265448 0.17271873 -0.386948 0.051727407
000170 9a e2 d0 3e 47 2f c2 bd a7 80 33 3e 5f bf b4 3e
       0.40797883 -0.09481674 0.17529546 0.35302255
000180 29 c7 fc 3d 7c 69 e9 bd bc 56 d1 3d 5d 93 9d bc
       0.12342674 -0.11397073 0.102216214 -0.019235307
000190 e5 1f 0d bf 14 7a bf bd 5d 9b 19 be b1 28 51 be
       -0.5512679 -0.093494564 -0.15000673 -0.20425679
0001a0 35 1d 20 3d 2f f1 8c be bf 36 3f 3e ab 16 34 bf
       0.039090354 -0.27527758 0.18673228 -0.7034709
0001b0 7f e5 a6 bd 3a 00 ba bd 3a 8a ad be 78 59 c7 3e
       -0.08149242 -0.090820745 -0.3389452 0.38935447
0001c0 20 a4 d7 bd 3c 93 0e bd 02 11 8a 3d c7 8b 0a bd
       -0.10529351 -0.034808382 0.06741525 -0.03382471
0001d0 5d 29 75 3e 00 aa 5d be b2 51 9c 3a d9 31 be 3e
       0.2394156 -0.21646881 0.0011926203 0.37147406
0001e0 cf 64 95 3e 09 0d ac be 81 6d b6 3e a4 5f 2f be
       0.29178473 -0.33603695 0.3563042 -0.17126328
0001f0 71 84 41 3f 4f 31 9a 3e aa 3b fc 3d cc e4 cc 3e
       0.75592715 0.30115744 0.123160675 0.40018308
000200 07 0d ed 3e 5c 9f 84 3d 86 12 b3 be 64 86 4d 3e
       0.46299002 0.06475708 -0.3497507 0.20070797
000210 07 3c d3 3d 06 6e 84 bd 0f 77 35 3e 81 26 2b bd
       0.10314184 -0.06466298 0.17721198 -0.041784767
000220 b1 2a 39 3e db 34 75 3e 4e e6 80 3e 22 23 d5 be
       0.18082692 0.23945944 0.2517571 -0.41628367
000230 7e c2 08 bf ba e5 8a 3e 8f f0 4a bf 54 b0 ba be
       -0.5342177 0.27128392 -0.79273313 -0.36462653
000240 40 7e 94 3e 2d 80 13 be ca 72 52 3e df b2 82 3d
       0.2900257 -0.14404364 0.20551601 0.06381773
000250 df 49 5a 3f b7 ce c2 3e 6c d9 68 bc 5b 37 8a be
       0.8526897 0.38048336 -0.014211994 -0.26995358
000260 90 7b 94 bd b2 99 93 bd a4 b8 3c be d1 f8 87 bd
       -0.0725013 -0.072070494 -0.1842981 -0.06639255
000270 9e b9 5c 3e 5e e8 a2 bc a5 a5 04 3d c2 dd 03 bf
       0.21555182 -0.019886192 0.032384533 -0.5151025
000280 23 59 a6 3e 1e ec 9e 3c 13 bc c8 3e f0 48 bb bd
       0.3248988 0.019399699 0.3920599 -0.09144771
000290 55 50 b5 be 7f ee 6d 3d cb 32 a8 3d 3c 59 2e 3e
       -0.3541285 0.058088776 0.08212813 0.17026228
0002a0 18 6e 8b 3e 4e 4c a0 3e 26 46 35 be 10 48 39 3d
       0.27232432 0.31308216 -0.17702541 0.04523474
0002b0 cd 6c 9d 3e 85 c1 87 bf bc 47 c8 3e e9 59 ae 3d
       0.3074707 -1.0605932 0.3911723 0.08513243
0002c0 6a d3 5c 3e cb 07 be 3d 64 d7 58 bc e3 9c ce 3e
       0.21565023 0.0927883 -0.013234947 0.4035407
0002d0 c3 eb 2d 3f 5c e5 8a 3e ad 61 1e 3f 3a a2 71 3e
       0.6793787 0.27128112 0.6186779 0.23597041
0002e0 3e 53 a9 be 33 1c 6b 3d 68 14 30 bb 24 2b 0b 3f
       -0.3307132 0.05739994 -0.0026867632 0.543627
0002f0 8f 37 04 bf 36 f9 29 be 51 fd 1a bf 49 8e c8 3c
       -0.51647276 -0.16598973 -0.6054278 0.02448191
000300 2b c9 11 3f a8 1d 11 be b6 26 07 3e 2c ae c5 3e
       0.5694758 -0.14171469 0.13198361 0.38609445
000310 67 b6 ae bd 70 30 b0 3c b3 3e 45 3f 38 3c 58 3e
       -0.08530884 0.021507472 0.77048796 0.21116722
000320 cd 5d ac be 32 ca 1b 3f 83 ae 3b bf f9 e3 a3 bd
       -0.33665314 0.608554 -0.7331316 -0.08002467
000330 1b 8b b4 3d 04 43 40 be 05 f9 2c 3e 3a a7 b2 be
       0.08815595 -0.18775564 0.16891868 -0.3489321
000340 2a 9b ad 3d 82 c1 57 bd fe bd 6c be c5 90 a8 3e
       0.08476861 -0.052674778 -0.23119351 0.3292295
000350 00 8b 7b 3e 66 4b a0 3d 2a 8a 3e bc 31 89 46 3d
       0.24564743 0.07826881 -0.011629621 0.04847068
000360 29 3f 89 3e e3 9e 1c 3f df 6c e9 bd b1 a6 cd be
       0.26806 0.6117994 -0.11397719 -0.40166238
000370 60 44 35 3e a1 5b 49 be 53 ce d1 3e 1b 49 9d 3e
       0.17701864 -0.1966386 0.40977725 0.30719838
000380 c7 47 dd 3e be 27 a7 bd f1 93 f7 bd 14 0f 4b 3f
       0.43218824 -0.08161877 -0.120887645 0.7931988
000390 1c 93 68 be d5 18 7a 3d ec de 9d 3d 32 77 b8 be
       -0.22712368 0.061058838 0.077085346 -0.3602844
0003a0 09 05 4c 3e 8e 5f cd be 3d f1 75 3e b1 3d 1d 3c
       0.19923796 -0.40111965 0.24017806 0.009597228
0003b0 e4 7f 20 be 2d bd aa 3d 99 1b 26 3d 13 f9 6b be
       -0.15673786 0.08336864 0.040553663 -0.23044233
0003c0 20 aa 38 bd 13 f0 78 be cc e2 a6 3d 56 ee b3 3e
       -0.04508412 -0.24310331 0.08148727 0.35142773
0003d0 3c 2b 34 be 7d c4 7e be 49 05 74 3e ea 23 be be
       -0.17594618 -0.24879642 0.23830141 -0.37136775
0003e0 aa 53 1f be 16 8f 99 3e e2 5f 1f 3f 14 10 e2 bd
       -0.15559259 0.29991978 0.6225568 -0.11038223
0003f0 dc 14 94 be 61 a8 67 be 3c 9a 34 3b 76 2b 71 3e
       -0.28922164 -0.22622825 0.002755775 0.23551735

weight_hh_l1 f4 [60, 20]
000000 62 4c e6 3e f0 13 19 bf 77 11 a2 3d c3 9e 1c be
       0.4498015 -0.5979605 0.079134874 -0.15294938
000010 7b af d7 3e 4a 13 f0 3d 21 22 60 3e 97 ab 03 bf
       0.42126068 0.11722429 0.21888019 -0.514337
000020 44 97 1b be d8 dd 97 3e eb 77 0e bf 13 8e d0 be
       -0.15194422 0.2966144 -0.5565173 -0.40733394
000030 04 d7 40 be fa 1c 0b 3e b7 c8 cd be a9 ef 18 3d
       -0.18832022 0.13585272 -0.40192196 0.037337933
000040 f6 82 10 3d 26 79 98 bd c4 8f 2d bd 25 d8 1e bd
       0.035281144 -0.07444982 -0.042373434 -0.03878035
000050 fb c3 18 bf 7b e4 5c 3e 51 8b 8f be d2 f8 9f 3e
       -0.5967404 0.21571533 -0.28035977 0.31244522
000060 76 28 7b bc 1d ad 9a 3e d2 75 76 be 2f 72 a1 bc
       -0.015329471 0.302102 -0.24068382 -0.019707767
000070 cf 9e b2 3e c3 cc b8 3d e9 59 1b bd 82 6d df 3c
       0.34886786 0.0902343 -0.037927542 0.027273897
000080 02 65 17 be ba 3b 9c 3e 4d e3 06 bf 19 20 fe 3e
       -0.14784625 0.30514318 -0.52690583 0.49633864
000090 6f 9e 09 bf 92 96 2f be 42 00 32 bf 1e 39 c5 be
       -0.53757375 -0.17147282 -0.69531643 -0.3852014
0000a0 aa d2 3c be 59 7d d2 bd 9f 91 4a 3e 4f ce 57 be
       -0.18439737 -0.102778144 0.19782113 -0.21074794
0000b0 c0 82 7e be 0b 67 17 3c 9f d1 b2 be d2 56 a9 be
       -0.24854565 0.009240876 -0.34925553 -0.3307405
0000c0 54 d7 e6 3b 79 9b f6 3e 4e 94 3b 3f b6 06 c6 3e
       0.007044712 0.4816549 0.7327317 0.38676995
0000d0 6e 33 e2 3e 6d 4b 96 3e 74 ef 2d bf 08 90 c5 3e
       0.44179863 0.2935442 -0.679435 0.3858645
0000e0 93 5a 68 3e 20 58 1c 3e 1a 5c 1b bd 86 fd 6d 3e
       0.22690801 0.15267992 -0.03792963 0.23241243
0000f0 e8 ed b0 be 59 4f 2f bf cb 7f a6 3d 45 fa cb be
       -0.34556508 -0.6848045 0.08129843 -0.39839378
000100 96 e1 6c 3e 4b d9 7a be cd 4b 36 3e 02 cb 9e 3e
       0.23132929 -0.24496953 0.17802353 0.31014258
000110 56 ba ca bd ac 55 db bd df bc 22 3e df d6 4b bd
       -0.09898822 -0.107097 0.15892361 -0.049765464
000120 3c 9e 49 3f e3 45 09 bb c5 af eb 3d 4e 3a 89 3e
       0.7875707 -0.0020946197 0.11508135 0.26802295
000130 27 65 ac be aa 04 ad be f3 79 23 3e 3c 1a 4c 3e
       -0.33670923 -0.3379262 0.15964489 0.19931883
000140 b6 43 56 3e 99 00 17 be 33 0b 00 3f 81 07 80 3e
       0.20924267 -0.14746322 0.5001709 0.25005725
000150 c2 79 4b 3f a0 19 36 bd 6a 5d 87 bc cf a1 d8 3d
       0.7948266 -0.04445803 -0.016524035 0.105777375
000160 dd e8 9b 3e f9 42 30 be 75 0a 00 3e 0c d5 0b be
       0.30451098 -0.17213048 0.12503989 -0.1365549
000170 8e 8a 03 3e 8b 20 98 be 32 f3 6e be c8 e9 6b 3e
       0.12845823 -0.29712328 -0.23334959 0.23038399
000180 27 34 db 3d e3 4a 41 be ac 19 78 be 6a ff 44 b9
       0.10703307 -0.18876223 -0.24228543 -0.00018787166
000190 24 b6 c6 bd ca fb cd bc f0 d0 f1 3e 7d 14 80 be
       -0.09702709 -0.025144476 0.4722972 -0.2501563
0001a0 17 e5 50 bd bf c2 89 3b 53 ea b8 3e c3 25 f6 be
       -0.050999727 0.0042041237 0.36116275 -0.48075685
0001b0 4c 05 31 3e ec f1 38 bb 60 b6 ef bc af ec db be
       0.17287177 -0.0028220369 -0.029261768 -0.42954013
0001c0 51 a4 8f be 24 0e eb 3d 9d 7a 40 3e 3c e9 90 3e
       -0.2805505 0.114773065 0.18796773 0.28302944
0001d0 02 e1 05 be 30 8c c5 be b0 dc c3 3c 24 8b 82 3e
       -0.13074115 -0.38583517 0.023908943 0.2549678
0001e0 14 f7 1c 3c c0 ba 07 bf ab f1 9f 3e 31 83 dc be
       0.009580392 -0.5301933 0.31239066 -0.4306884
0001f0 81 90 0c be 2d 10 1e 3d 95 fd 86 3c 59 cb b9 3d
       -0.13726999 0.038589645 0.01647834 0.090719886
000200 73 cb 5c be 79 19 28 3f 02 95 27 3e 17 62 c1 3c
       -0.21561985 0.6566387 0.16365436 0.023606343
000210 df f0 65 be 96 69 2b 3c a5 23 23 bd 47 71 0d be
       -0.22455166 0.010462185 -0.039828915 -0.13812743
000220 0b fc ee 3d b4 b0 ae bb fb a8 1c be 80 59 50 be
       0.11669167 -0.0053311232 -0.15298836 -0.20346642
000230 dd 1f 96 bd 78 06 7d 3e ee 1c e1 3c 97 6e 21 3e
       -0.07330296 0.24709499 0.027479615 0.15764843
000240 59 e0 c2 bd 5e 25 05 3e 3d 1f 27 be e1 88 42 be
       -0.09515447 0.13002536 -0.1632051 -0.18997528
000250 dc 92 e8 3d 06 c1 7c be 94 00 a3 3d a4 30 e1 bc
       0.11356136 -0.24683008 0.07959095 -0.027489014
000260 b1 3a 03 3e 56 6c f0 3d be dc 59 be f1 e5 ab bd
       0.12815358 0.117394134 -0.21275613 -0.08393467
000270 af 4f 86 be 4c b2 2a 3e 32 9a e6 be 81 08 d0 be
       -0.2623267 0.16669577 -0.45039517 -0.40631488
000280 e8 a6 52 bf c7 5e f4 3c f6 26 80 bc 3f 9e da 3d
       -0.8228593 0.02983035 -0.015643578 0.10674714
000290 f5 78 0e bf 93 2c 03 bd b2 90 66 3e 76 11 a4 3c
       -0.55653316 -0.03202493 0.22516134 0.020027857
0002a0 6d 20 b7 3e 66 9c 2f 3e 0f 76 82 3e 14 67 33 be
       0.35766926 0.17149505 0.25480697 -0.1751979
0002b0 13 bc ab bd 08 31 ea bd af 38 02 be 78 cc 8a 3d
       -0.08385482 -0.11435133 -0.12716936 0.067772806
0002c0 5c 54 70 bd 12 83 84 be f5 9d 9f 3d 2e 1c ef be
       -0.0586742 -0.2588125 0.077938 -0.46701187
0002d0 c6 48 57 3d e7 51 74 be ea e3 16 3e 90 8a ef be
       0.052559637 -0.23859368 0.1473538 -0.46785402
0002e0 89 7f 63 3c b6 ee cd be 46 3d c0 3d 35 81 d0 3d
       0.013885387 -0.40221184 0.09386687 0.10180894
0002f0 f3 0b 2b 3d 6d 54 4e bd 08 58 23 3e d8 07 0f be
       0.041759443 -0.050373483 0.1595155 -0.13967836
000300 4e 64 5b bc 7b 46 4f 3e b6 77 c8 be 07 bc a1 3e
       -0.013390614 0.2024173 -0.39153832 0.31588766
000310 ec 0b 8a bb 58 4d 63 be 48 b0 56 3e 63 97 80 bd
       -0.004212847 -0.22197473 0.20965683 -0.06278875
000320 6a 20 6e 3d e6 39 89 bd d4 4b 0e 3e 1d cd 89 3e
       0.05813638 -0.067004964 0.13896114 0.26914302
000330 a1 0c f2 3c 17 02 fa 3d 98 ae 77 be c8 8c 6a bf
       0.029547038 0.1220743 -0.24187696 -0.91621065
000340 b0 e5 55 3e b2 81 d8 3d 1c 55 66 bd 48 9c a6 be
       0.208884 0.105716124 -0.05623351 -0.32541108
000350 30 6c b1 be 11 3f 0a 3f 72 1c bf 3c 71 86 3b 3e
       -0.34652853 0.5400248 0.023328993 0.18313004
000360 71 cf 3d 3d 84 06 5a 3e 64 62 00 bf c5 08 19 be
       0.04634041 0.21291548 -0.5015013 -0.14944752
000370 ee a0 62 3d 41 c5 71 be a5 2c 88 3f 34 b0 c3 be
       0.055329256 -0.23610403 1.0638624 -0.3822037
000380 93 22 59 3e 43 3f 87 be 0c c1 47 3e 4e a3 b9 3e
       0.21204595 -0.26415452 0.19507235 0.36257404
000390 dc fa 65 3e bf fd 6f be 32 29 a9 3e 80 e3 ba bd
       0.22458977 -0.2343664 0.33039242 -0.091254234
0003a0 d2 42 b8 3e 68 17 4d 3e d4 61 b1 bd 20 59 44 be
       0.3598848 0.2002846 -0.08661237 -0.19174623
0003b0 75 94 e1 3e 03 c4 26 bd a3 8f 87 3d 2f 50 56 3e
       0.44058576 -0.040714275 0.066191934 0.20929025
0003c0 e3 44 c8 be 71 41 a1 3e 42 ff 11 3f 34 30 86 bc
       -0.39115056 0.3149524 0.5703012 -0.016380407
0003d0 aa 8e 19 3e a3 ad 11 bf 6b 3c b9 3e f0 59 d5 bd
       0.14995828 -0.56905574 0.36178908 -0.10417545
0003e0 4f 01 b4 3d 1b 20 84 bd 79 8e bf 3e 2b c4 50 3c
       0.08789312 -0.06451436 0.37413386 0.012742083
0003f0 c2 ac 04 bf 64 5c 67 3d a1 d2 e5 bc 48 89 99 3e
       -0.5182611 0.056484595 -0.028054537 0.2998755

bias_ih_l1 f4 [60]
000000 3c b3 bd 3e 16 7b 5e 3e 7d 1c 2a 3b dc 9d aa be
       0.37050807 0.21726641 0.0025956922 -0.33323562
000010 d6 5c b1 3e 96 7f b5 3e a4 8e 69 be 78 a9 56 3e
       0.3464114 0.35448903 -0.2280832 0.20963085
000020 c5 22 8a 38 dd 07 33 bd ac 1d ce 3d 13 48 43 be
       6.586829e-05 -0.04370867 0.10064253 -0.19070463
000030 82 e2 18 3e 95 bb 99 bc b2 00 93 3e ff 7e f2 bd
       0.14930156 -0.018766204 0.28711468 -0.11840629
000040 4a 07 0f 3e a8 ff 32 3e f5 0f e2 bc b4 ff 5f 3d
       0.13967624 0.17480338 -0.0275955 0.054687217
000050 fc 39 f7 3e 46 6a 8c bd 53 63 e6 3e 4b fa 50 3e
       0.48286426 -0.068562075 0.44997653 0.20407979
000060 81 a9 23 3e c2 5a d9 3d 2c 18 92 3c bc 73 51 3f
       0.1598263 0.10613014 0.017833792 0.8181722
000070 63 1c 01 3e 2d 21 de 3e f5 35 91 3e ab 8c c4 3e
       0.12608485 0.43384686 0.28361478 0.3838857
000080 96 d7 94 3f c0 6b 10 3f 09 e4 8f 3e fc af 77 3e
       1.1628292 0.56414413 0.28103665 0.24188226
000090 b0 86 f9 3e 60 5f 06 3d 1a 65 40 3e 6e dd 6e 3f
       0.4873557 0.0328058 0.18788567 0.93306625
0000a0 7a d1 c3 bc 10 d8 86 bd 55 9d e8 bd 1b aa ac 3e
       -0.023903597 -0.065841794 -0.11358134 0.3372353
0000b0 45 48 46 be 2a 16 66 3d 46 7b bf be 20 ff d9 bd
       -0.19363506 0.05617348 -0.37398738 -0.10644364
0000c0 c1 74 77 3e 6e a6 d7 3c 13 0b 86 be 9f 6c 8c be
       0.24165632 0.026324477 -0.26180324 -0.2742662
0000d0 be f5 23 3e b0 7b 50 3c 51 41 7e be 30 e6 c9 bd
       0.16011712 0.012724802 -0.24829604 -0.09858358
0000e0 4a ed b2 3d 0b ae be be ff 1c 69 be a1 d7 27 be
       0.087366655 -0.3724216 -0.22764967 -0.1639085

bias_hh_l1 f4 [60]
000000 e9 7a f3 3d b9 25 93 3e 8e 89 65 3e 47 7c 17 bf
       0.118886776 0.28739718 0.22415754 -0.5917401
000010 5c 43 f6 3d 6b 85 8a 3d 52 b7 bd bd e6 ec f1 3c
       0.120245665 0.06763729 -0.09263481 0.029531907
000020 ef 65 a5 3e 8c c6 a9 3a ce ea b6 3d 97 c6 3b be
       0.32304332 0.0012952848 0.08931504 -0.18337475
000030 2a 17 d0 3c 79 c3 93 bd 8f 0d 37 3d be 08 b0 3d
       0.02540167 -0.07215018 0.044690665 0.085954174
000040 30 f0 42 be 4d 72 f9 3d 39 e4 9e bd f7 b0 82 3d
       -0.19036937 0.12180004 -0.07758374 0.063814096
000050 ef b6 3b 3f 24 da fa bc d3 cd e2 3e 85 b7 c5 3c
       0.7332601 -0.030621596 0.44297656 0.02413536
000060 7e 0a ad 3d d5 57 93 3d 05 13 42 3e 6b 66 6c 3f
       0.08449267 0.07194487 0.18952568 0.9234378
000070 e7 0d 3b 3e 92 06 4d 3e c9 af 9e 3e 7b 84 54 3e
       0.18267022 0.20022038 0.30993488 0.20753662
000080 d0 7e 76 3f 92 69 2c 3f a1 69 b0 3d 51 ac 98 3e
       0.9628725 0.6734859 0.08613897 0.29818967
000090 44 92 fc 3e 1a ed 44 3e d7 24 0b 3e 4a d9 87 3f
       0.49330342 0.19231072 0.13588272 1.0613186
0000a0 f3 81 ac 3d fc 7f f7 3d 1d 97 97 bb 03 86 8a 3d
       0.08423223 0.12084958 -0.0046261684 0.06763842
0000b0 74 49 1a 3e a1 2d 26 3e 2a 3c b8 bd e3 7f 01 be
       0.15067083 0.16228344 -0.089958504 -0.12646441
0000c0 ae b7 ee bd c8 bd 5d 3c d0 fb 68 3d d2 f6 50 be
       -0.11656128 0.013534017 0.056880772 -0.20406654
0000d0 91 a2 06 be d7 7d 3a be 1c 03 98 be 8f b2 c0 3d
       -0.13147952 -0.18212067 -0.29689872 0.09409057
0000e0 ab f6 a2 bd c6 c0 22 be ed 17 d0 bb 8a 39 cc 3c
       -0.079572044 -0.1589385 -0.0063505084 0.02492978

weight_ih_l0 f4 [30, 20]
000000 b7 07 fa 3e c0 d2 f1 3e 6d b3 19 3e cc ee 07 3f
       0.4883401 0.47231102 0.15009852 0.5309875
000010 b0 b9 35 3f d0 b6 98 3c 38 18 bd be 23 f3 a5 be
       0.7098646 0.01864186 -0.3693254 -0.3241206
000020 8b 18 55 3e 83 96 c5 3e 0f 5d d3 3e 31 0a 3c 3e
       0.20810144 0.38591394 0.41281936 0.18363263
000030 3d 34 c7 be 0f e9 93 be f4 34 9a 3b a8 7e 8c be
       -0.38907042 -0.28888747 0.0047060195 -0.2744038
000040 bd 99 f2 be 34 e5 65 be 8e 7e 87 3e 81 62 2d be
       -0.47382918 -0.22450715 0.2646374 -0.16932108
000050 cd ec 8f 3e 9e 80 7c 3d 12 71 0d 3e a0 47 fa bd
       0.28110352 0.061646096 0.13812664 -0.12220693
000060 1a 4c 19 3d 24 ae f2 be 95 46 e7 3d 34 1d 04 be
       0.03742609 -0.47398484 0.11292759 -0.12901765
000070 65 53 f9 bd 69 b0 04 3f a7 7a 37 be b3 9f c5 be
       -0.12174109 0.5183168 -0.17917882 -0.38598403
000080 0e be 06 bf a9 38 39 be 5c 4b 3f 3e af a9 57 bd
       -0.5263375 -0.1808802 0.18681091 -0.052652057
000090 39 7e b3 be 8a 7a 14 be 61 6b b8 3d 8e b6 81 3e
       -0.35057238 -0.1449987 0.09004856 0.2533459
0000a0 4b 8e 40 bd bd 64 ad be 49 d2 fb 3e 38 52 16 be
       -0.0470107 -0.3386592 0.49183872 -0.14679801
0000b0 36 f4 6f be 96 4a 7b be b0 ad 35 3e d2 60 85 3d
       -0.23433003 -0.24540171 0.17742038 0.06512608
0000c0 2f b6 19 3f 33 90 e8 3d f1 63 61 bd 0c 2d 0f 3f
       0.60043615 0.11355629 -0.055026952 0.5592811
0000d0 9d 28 76 be 9a 1a 27 3d 1b 53 56 bd 95 29 74 be
       -0.2403893 0.040796854 -0.05232535 -0.23843987
0000e0 b5 97 c3 3e 19 aa 34 3f c6 ec 17 3c 92 1c c2 3e
       0.3820168 0.7057205 0.00927276 0.37912422
0000f0 d7 fa 2d 3e 64 27 20 3e 50 a6 4c 3f 59 56 84 bd
       0.16990219 0.15640026 0.7994127 -0.06461782
000100 90 36 77 be d8 fe 31 be 37 ad ab 3d e2 58 1d be
       -0.24141908 -0.17382371 0.083826475 -0.15365937
000110 2a 2c 11 bd f3 95 f3 3c 3c fc 76 3f af 67 1e bd
       -0.03544251 0.029734587 0.9647863 -0.0386731
000120 0f 19 ef be 3b 8e 48 bc c0 7a 0b bf c8 d1 a1 3e
       -0.46698806 -0.012240942 -0.54484177 0.31605363
000130 10 e7 39 be c8 ba 40 3e 2e b1 1d 3d 30 d2 6c 3e
       -0.1815455 0.18821251 0.03849905 0.23127055
000140 45 d9 de be fc e5 8a bc 54 c1 1e 3f f0 40 3a be
       -0.43525138 -0.016955368 0.62013745 -0.18188834
000150 2c bb b8 be 5c 32 36 be d8 cd 32 3e eb c8 84 bd
       -0.360803 -0.17792648 0.17461336 -0.064836346
000160 e6 f5 6a 3f 1a e7 0f be f2 2c db 3e 58 45 dd 3c
       0.9178146 -0.14053002 0.42807728 0.027010605
000170 cb 40 07 be 5d 87 a5 3e 2e 5c 6b be 52 c1 c0 3e
       -0.1320831 0.32329836 -0.22984383 0.37647492
000180 46 e2 e3 3e 9d 57 3a 3f 7b c7 8d be ec d3 d5 bd
       0.4450857 0.7278994 -0.27691254 -0.104408115
000190 da e9 da 3e af e1 b3 3e d2 f1 f9 bd 7b 2f 77 3e
       0.4275654 0.3513312 -0.12204327 0.24139206
0001a0 94 7d 1a 3f 88 0b 0d bf d8 5c 70 bf 1d 87 0c bf
       0.60347867 -0.5509572 -0.9389167 -0.54893667
0001b0 1d e5 09 3f c1 e7 0a 3f 00 74 52 bc 3e 2d 48 3e
       0.53865224 0.5425988 -0.012845039 0.19548509
0001c0 14 7a 19 bf 73 b1 0e 3f f1 74 44 be fe 4e 89 bc
       -0.599519 0.55739516 -0.19185235 -0.0167613
0001d0 19 bb 2c be e3 b4 1b bc 0d ea 39 bf 88 9a b3 be
       -0.16868247 -0.009503576 -0.7262276 -0.35078835
0001e0 2a 6a 97 be ed c1 e1 3e 08 9b b4 bc 40 ce 9e be
       -0.29573184 0.44093266 -0.02204658 -0.3101673
0001f0 f5 8d aa 3c ad 8f 07 be 8b 85 c6 bd 9d f8 7b 3e
       0.020819644 -0.13238402 -0.0969344 0.24606557
000200 30 fa 3e bd 16 f0 1d be 43 c9 2e 3e 8d 5b 95 3e
       -0.046625316 -0.15423617 0.17068963 0.2917141
000210 b5 9b 69 3d 56 a8 28 bd f9 f9 d2 be c1 50 29 bf
       0.05703326 -0.041176163 -0.4120634 -0.66138846
000220 ae cd ae bd 5d 13 82 3e f7 2c e0 3e 68 30 12 3e
       -0.08535324 0.25405398 0.43784305 0.14276278
000230 66 f7 2c 3e 26 f9 2c 3e 30 05 a0 bc 3c 3b 91 be
       0.1689125 0.16891918 -0.019533724 -0.28365505
000240 6a 63 38 3e c2 02 50 be 72 3c 87 3e 0c 3c 08 be
       0.18006673 -0.20313552 0.26413304 -0.13304156
000250 df 85 92 be dd 69 0c 3f 2d d4 92 bd 08 bc 1c 3f
       -0.2861776 0.54849035 -0.071693756 0.6122441
000260 d9 cc 9d be 64 4e 81 3e e7 44 28 bd d9 23 39 3e
       -0.3082035 0.2525512 -0.041081335 0.18080081
000270 b8 16 ac 3e aa d3 a7 3d c9 f9 1f 3f 8b ec 90 be
       0.33611083 0.081946686 0.62490517 -0.28305468
000280 62 bc 73 3b b2 c0 a6 3d ce d4 23 3f d3 26 bf 3c
       0.0037191142 0.081422225 0.6399659 0.023333943
000290 96 b3 fd be 5a 92 55 bd a2 8b 9e bd 53 bb 18 be
       -0.49551076 -0.052141525 -0.077414766 -0.14915209
0002a0 b3 33 b6 be 3d 82 f5 be 28 b4 bb 3e 93 4e c7 3e
       -0.35586318 -0.47950926 0.36660886 0.38927135
0002b0 4f 32 d4 be 97 e3 93 bd 6b 7e e7 bd 1b 3c b6 3e
       -0.41444632 -0.07221144 -0.11303409 0.35592732
0002c0 db c7 45 3e e9 1f a1 3e bb 7f d0 bd d0 e3 17 be
       0.1931452 0.31469658 -0.10180613 -0.14832997
0002d0 66 89 1c bf d9 0e 6b 3e 89 b5 19 be 68 9d 75 3d
       -0.61147153 0.22954883 -0.15010656 0.059964567
0002e0 2d 10 eb bd 02 b7 37 bd e9 6b d0 3e b6 9e 39 3f
       -0.11477695 -0.044852264 0.4070733 0.725078
0002f0 58 ba d6 3e 4c 71 14 bf dc 35 80 3e 11 c7 36 bd
       0.41939044 -0.5798538 0.2504109 -0.04462344
000300 b1 d6 0b 3f 0c 49 b5 3d 01 1e 49 3e c0 d4 64 3e
       0.5462447 0.08851823 0.19640352 0.22346783
000310 8a 44 78 3e 1a 54 88 3e fe bd a5 be 99 ce 03 3e
       0.24244896 0.26626664 -0.32371515 0.1287178
000320 ee 76 40 3d 84 8f 6d 3e a6 47 72 3e eb e7 2f 3f
       0.04698842 0.23199278 0.23660144 0.68713254
000330 f5 cc a2 3e 63 c5 ed bd 07 3d e4 be 50 86 91 3b
       0.31796995 -0.11609914 -0.4457781 0.00444106
000340 d4 54 41 bd d2 67 21 be f3 e6 7c 3f 9c c7 7c be
       -0.04720004 -0.1576226 0.987899 -0.2468552
000350 5b 10 a7 be 07 0c dd 3e 92 10 8b 3e f6 cd 7a 3e
       -0.32629666 0.4317324 0.2716108 0.2449263
000360 a7 3a cb 3d ac 19 ff be bf 4d 3c be 2a fa 5c 3f
       0.099232964 -0.49824274 -0.18389033 0.8631922
000370 5b 47 c5 bc b3 54 49 3e f8 54 03 3f 17 20 d7 3e
       -0.024081877 0.19661216 0.5130153 0.4201667
000380 a3 05 e1 3e 3d c3 17 bd 7a 51 0e bf bf b3 31 be
       0.43949613 -0.037051428 -0.55593073 -0.17353724
000390 a6 19 ba be 29 ba e1 bc 4c 5c 15 bd c9 32 0b bc
       -0.36347693 -0.027554588 -0.036464974 -0.008495995
0003a0 69 d7 d7 be 4a be cd 3d f3 4c 4f be bb fe b1 3e
       -0.42156532 0.100460604 -0.20244198 0.34764656
0003b0 5e a2 82 3f 9c 9b 1b 3f b9 ba 4b be 4f 5b a9 3e
       1.02058 0.60784316 -0.19895448 0.33077475
0003c0 00 5b c0 3d 5e 69 a1 be 74 20 36 be c8 22 50 be
       0.09392357 -0.315257 -0.17785817 -0.20325768
0003d0 e3 ba 12 bf 8a f0 85 bc bc 78 17 bd d7 58 64 be
       -0.57316417 -0.01635005 -0.036980376 -0.22299515
0003e0 d2 23 98 be 46 f9 9f 3d f4 42 ea bd 79 76 c9 3d
       -0.2971483 0.07811217 -0.114385515 0.0983705
0003f0 9a 81 9f be 55 0d 92 3d f7 72 45 3f d8 63 5b 3d
       -0.31153566 0.07131449 0.7712855 0.053562015

weight_hh_l0 f4 [30, 10]
000000 53 0e 18 bf 05 ed 7a bd ad aa 06 3d ad c8 c2 bd
       -0.5939686 -0.061261196 0.032877613 -0.09510932
000010 9e 47 00 3e 21 aa 5f 3e 9d c3 96 3e d2 2e 4b bc
       0.1252732 0.21842243 0.29446116 -0.0124013
000020 6c cb 49 3e a1 6a 62 be 66 dd e7 3e 86 0f f3 bd
       0.19706506 -0.22110988 0.452861 -0.11868195
000030 39 fe 78 3e 93 b0 92 be 36 e8 04 bf d2 c9 a0 be
       0.24315728 -0.2865034 -0.51916826 -0.31403977
000040 58 cb 13 3f 6f 0a 26 bf 84 a0 b0 bd 2c 6c f1 3e
       0.5773215 -0.6485967 -0.08624366 0.4715284
000050 58 07 b7 bd 6b ee a5 be e6 8a f9 bd bc 5a ae 3c
       -0.089369476 -0.3240846 -0.12184696 0.0212835
000060 ef dc c4 3e 95 d5 1f 3e b7 63 26 3e 38 89 7b be
       0.3844981 0.15608819 0.16248976 -0.24564064
000070 b1 c2 4d 3e b5 f8 04 3e 11 4d cb 3e cd 73 97 bc
       0.200938 0.12985499 0.39707235 -0.018487835
000080 2d 02 e9 be 4b f0 aa be e3 8a 83 3e a0 46 fc 3e
       -0.45509472 -0.33386454 0.256919 0.49272633
000090 7c aa 5a be 66 02 ba 3c e8 a9 ea 3d ac 6a f5 bd
       -0.21354097 0.022706222 0.11458188 -0.11983237
0000a0 9c 81 5a 3d a7 b0 6a 3e db 4f 6e be a7 82 b7 3d
       0.05334626 0.2291895 -0.2327265 0.08960467
0000b0 27 0f 11 3e 1c a4 e2 3e 78 09 77 bd 40 a2 e9 3e
       0.14165936 0.4426583 -0.060311764 0.456316
0000c0 85 26 5c bc 8a 81 7e bc 49 d5 cb 3e e7 ce e8 be
       -0.013436918 -0.015533814 0.3981116 -0.45470354
0000d0 67 33 67 3f cd 88 4a 3e cf 90 4a 3e 8d e2 93 3d
       0.9031281 0.19778748 0.19781803 0.072209455
0000e0 d5 b1 3c 3f 67 cd 4e be 93 88 2a 3f e3 59 d6 bd
       0.7370885 -0.20195542 0.66614646 -0.10466363
0000f0 f0 b0 00 3e c5 e7 91 3d ee 7f de 3d a8 4c fb be
       0.12567496 0.07124285 0.108642444 -0.49081922
000100 4f 57 a5 be 7a e5 a0 3e b1 ca d7 be 0c f2 4e be
       -0.32293174 0.31425077 -0.4214683 -0.20209521
000110 60 5a c9 3e 8a 49 a1 bd f5 7e b9 bd f7 b2 43 be
       0.39326763 -0.078753546 -0.09057418 -0.19111238
000120 64 cc 6a 3e 61 7c 8e be 7e 04 d7 3c 06 87 84 be
       0.22929531 -0.2782927 0.02624726 -0.25884265
000130 77 e7 15 3d a7 04 76 bf ac 58 90 3d 08 f2 d7 be
       0.036597695 -0.9610085 0.07048163 -0.42176843
000140 27 bf 5f 3f 01 87 a0 3d 2b 48 41 bd 89 8a 8c be
       0.8740105 0.0783825 -0.047187965 -0.27449444
000150 80 b1 db bd b4 1e f8 3d 08 1e ce bd d4 3d 01 bf
       -0.10727215 0.12115231 -0.10064322 -0.5048497
000160 f6 39 4f 3f 42 89 9c 3d ad 93 a5 bc 37 7f 4e be
       0.80947816 0.07643367 -0.020212019 -0.20165716
000170 fa 11 ec be 07 8b ee bd 01 8d 44 3f 8e 59 ed 3d
       -0.46107465 -0.11647611 0.76777655 0.11589347
000180 84 09 43 bf 6e 7e 50 3f 99 61 62 be 79 a7 1a be
       -0.76186395 0.81442916 -0.22107543 -0.15102948
000190 22 17 72 be 81 2f 52 be a4 77 b6 3c 57 5c d6 be
       -0.23641637 -0.20525934 0.022273846 -0.41867325
0001a0 c4 f1 8c 3e a8 42 27 3f 9a 36 51 3e d8 4e 54 be
       0.27528203 0.65336084 0.20430985 -0.20733202
0001b0 c4 13 55 3e 2d 69 6d 3e 48 02 2a 3f c3 bf df 3e
       0.20808321 0.23184653 0.6640973 0.4370099
0001c0 7d d4 98 3e 70 1a 51 bd b7 75 45 3e e8 4b af be
       0.29849616 -0.051050603 0.19283186 -0.342376
0001d0 c6 8c 25 3f 9c 99 50 3f 1a d6 92 3d dd d2 15 be
       0.6466793 0.8148439 0.07169743 -0.14631219
0001e0 b7 eb 29 be 39 0b 24 bf 99 ee d7 3e d6 c5 46 be
       -0.16593824 -0.64079624 0.42174223 -0.19411406
0001f0 a5 27 56 3d 0d 2f a2 3e 46 70 45 3f e1 36 ca 3d
       0.0522839 0.31676522 0.7712444 0.098737486
000200 65 de 2b 3f 49 c4 92 3e 59 f2 9b be 84 99 0a 3f
       0.6713622 0.2866538 -0.30458334 0.54140496
000210 c8 11 ec 3e 58 c0 e6 3c 83 68 28 be 29 c9 d0 3e
       0.46107316 0.028167889 -0.16446118 0.40778473
000220 cf 63 e0 3d b4 1f 19 3f 7c f0 95 3e 8c e7 29 3f
       0.10956537 0.59814 0.29285038 0.6636894
000230 6b 4d 18 bf aa eb 54 3d c7 a9 40 3f e5 51 4e be
       -0.5949313 0.05198256 0.7525906 -0.20148428
000240 cb 49 39 3d d6 a8 53 3e 26 95 fe bd 7f f5 c0 be
       0.04523639 0.20669875 -0.124307916 -0.376873
000250 be 37 06 bf 33 65 51 be 91 2b 0f 3f d6 50 ff 3e
       -0.52428806 -0.2044876 0.5592585 0.4986636
000260 11 27 d1 3e b2 a9 e2 bc ad 10 69 bf 52 94 13 bf
       0.40850118 -0.027668808 -0.9104107 -0.57648194
000270 c5 bc 81 3f f6 5f f7 3d b2 32 d8 3d 50 74 80 3f
       1.0135733 0.1207885 0.10556544 1.0035496
000280 72 47 9a 3e 48 0a e0 3e b0 ff b1 3e 64 8a 80 3e
       0.30132633 0.43757844 0.34765387 0.25105584
000290 c8 c1 cf 3d 8a bc 95 be 72 9b 60 3f f5 5e 65 3f
       0.10144383 -0.29245406 0.8773719 0.8959802
0002a0 de d2 ad be d0 6b 9e 3d 52 be 2c 3f f6 c3 b8 3e
       -0.3394994 0.07735407 0.67477906 0.36087006
0002b0 f9 50 89 bd 3f d1 1e bf fa d5 2c be 8b e5 8e be
       -0.067048974 -0.62038034 -0.168785 -0.27909502
0002c0 ee b4 94 3e 6c 92 c2 be ef 85 cf 3d 6b 7d e2 be
       0.29044288 -0.38002336 0.10132968 -0.4423631
0002d0 56 99 93 3e 8a a0 3f be ad 3d 39 be 13 98 39 3f
       0.28827924 -0.18713585 -0.18089934 0.7249767
0002e0 6c 6a 81 3d 6f 6f 94 bf 4b 7b 28 3e a0 f1 f0 3e
       0.063191265 -1.1596507 0.16453283 0.47059345
0002f0 73 56 97 3f 82 15 e6 3e 56 cc 61 3e e1 01 0d bf
       1.1823257 0.44938284 0.22050604 -0.5508099
000300 8f 93 ea be 1b e2 22 3e 74 fe fe be 33 27 09 bf
       -0.45815703 0.15906565 -0.49803507 -0.5357544
000310 98 f9 f0 bd 3e 81 e2 3e ed 79 85 3f 45 21 7e 3e
       -0.11766356 0.4423923 1.0427834 0.24817379
000320 20 1a 69 bd e0 c7 0d 3e b9 5a 5f 3e 4d 04 20 be
       -0.05690968 0.13845778 0.21811952 -0.1562664
000330 98 41 45 bd 32 7e 97 be 2e a4 11 3e 79 c8 f6 39
       -0.04815826 -0.29588467 0.14222786 0.0004707014
000340 8f f1 db 3e d8 46 e6 3d 10 ac 81 be 7e 20 3a be
       0.42957732 0.11243981 -0.25326586 -0.18176457
000350 fc ad b7 be 68 07 83 be 7e 4c 8f 3e 76 fc 82 3e
       -0.35874927 -0.25591588 0.27988046 0.25583237
000360 2e 13 0e 3e 65 14 f9 bd 5d c7 a6 3e 99 98 20 3e
       0.13874504 -0.12162093 0.32573977 0.15683211
000370 35 92 a0 3d fa 86 0e 3e 9b a0 a4 3e 59 61 94 be
       0.07840387 0.13918677 0.32153782 -0.2898052
000380 3d a6 fc bd 69 f5 e0 be c0 1a 71 bd 5b 25 1a be
       -0.12336395 -0.43937233 -0.0588634 -0.15053312
000390 cb 1a 1e 3e 1b 9f bb be 29 63 f5 3d 8b 72 eb 3e
       0.15439908 -0.36644825 0.11981804 0.45985827
0003a0 74 5f 4a be 7f dd 90 3e 64 a4 a7 bd f9 92 38 3e
       -0.19762975 0.28293988 -0.08185652 0.18024816
0003b0 65 96 0d 3e 02 56 bd 3d b1 43 db be 9d 26 95 3e
       0.13826902 0.0924492 -0.42825082 0.29131022
0003c0 10 d5 a8 bd f4 ae 9b be 18 c2 f5 be 6b 52 81 3f
       -0.082437634 -0.30406916 -0.47999644 1.0103277
0003d0 e3 4b 4e 3e 40 46 09 3f 3e b6 76 bd b7 58 ac 3e
       0.20146136 0.5362282 -0.060232393 0.33661434
0003e0 6d e6 0a bf 81 c3 0c 3e 63 bd 6a 3e e9 f5 c1 3e
       -0.5425785 0.13746454 0.22923808 0.37882927
0003f0 82 b2 25 3e e9 e4 b4 3e 7f d1 13 bf b1 de 3d 3e
       0.16181377 0.35330895 -0.5774154 0.18541981

bias_ih_l0 f4 [30]
000000 d0 9d d7 3d ce 4c 6e 3e 94 61 49 3e 87 cc 39 be
       0.10528147 0.23271486 0.1966613 -0.18144427
000010 14 ea 9d 3c e3 42 8e 3c 4a e1 e5 bc 4d 9f e7 3d
       0.019276656 0.017365878 -0.028061528 0.11309681
000020 cc 27 89 3e 3c da a0 3e bf 8f 62 3e 8a 3b b3 bd
       0.26788175 0.314165 0.22125147 -0.087515905
000030 0e cf cf 3e 39 f8 21 3f d6 bc 56 be f7 e8 f2 3e
       0.40587658 0.6326938 -0.20970473 0.47443363
000040 44 6e 03 3f 0d e2 11 3e 70 4e 48 3e c4 b6 d1 bd
       0.51340127 0.14246388 0.19561172 -0.10239938
000050 de 5a 52 3e fa 68 f5 bd ff 4e 9c 3c 50 51 c2 bd
       0.20542476 -0.11982913 0.019080637 -0.094881654
000060 88 8d 3f be a9 57 be bd 68 0c 62 be 5b e0 1d 3e
       -0.18706334 -0.092940636 -0.22075045 0.15417616
000070 b5 e0 78 3d 23 a2 fc 3c
       0.060761172 0.030839032

bias_hh_l0 f4 [30]
000000 8d 3a b7 3a c4 1a 89 3e 08 a0 7c 3e 01 90 4e 3e
       0.0013979241 0.26778233 0.24670422 0.2017212
000010 27 2c 20 3e 98 5c b6 bd e1 e9 9a be 7d 71 42 bd
       0.15641843 -0.089043796 -0.3025656 -0.047471512
000020 28 22 76 bb b0 eb 95 3e 0a fe b6 3e 9b 93 90 3d
       -0.003755698 0.29281378 0.3574069 0.070594035
000030 5f e2 60 3e a7 34 4e 3f bf 62 4f 3d be 34 b2 3e
       0.21961354 0.8054909 0.05063128 0.34805864
000040 02 cb 88 3e de 98 58 3d 54 87 9b 3e 75 e0 99 3e
       0.26717383 0.05288016 0.30376685 0.3005406
000050 ac 25 4a 3e 05 4d 3a 3e 1b 92 88 be 48 40 51 3e
       0.19740933 0.18193443 -0.2667397 0.20434678
000060 55 0a 02 3e 98 92 b4 bd 89 d4 1e be 40 37 69 be
       0.12699254 -0.08817023 -0.15510763 -0.22774982
000070 ca ce b8 3d f0 7b 21 3e
       0.09023817 0.15769935
