Big Data in Healthcare/homework5/output/mortality/MyVariableRNN.pth (torch_old, 456880 bytes, 26 tensors)

weight f4 [100, 911]
000000 e6 82 a2 3d 3e 03 cf 3d 09 1d 9f bd 75 ce bc bd
       0.07935123 0.1010804 -0.0776921 -0.09219066
000010 2d 9f a2 3c b2 fc 49 3d 3a aa c9 bd 5a 15 bb bc
       0.019851292 0.049313255 -0.09846921 -0.02283733
000020 90 6b f3 bd ed a2 27 3d ce b0 a9 bd 4a fa 3d bd
       -0.1188575 0.040926863 -0.08285676 -0.046381272
000030 99 34 a8 3d 14 72 00 be 94 c5 14 3d 29 2e 8d bd
       0.08213157 -0.12543517 0.036321238 -0.0689357
000040 93 3c 64 bd 34 0a a0 3d 60 a5 2d be 22 dd 11 bd
       -0.05572183 0.07814446 -0.16957617 -0.03561128
000050 50 c7 25 be dd 9c 3e bd 59 78 04 3a 09 f7 8e 3c
       -0.16189313 -0.046536315 0.00050533336 0.01745178
000060 d0 dd f4 3b ad 58 80 bd bb b6 a7 3d 2e 9a 0f 3e
       0.007472731 -0.062669136 0.0818915 0.14023659
000070 c6 34 df bd 06 e4 3e bd 5c 8f a8 bd a8 cc 94 3d
       -0.108987376 -0.04660418 -0.08230469 0.072655976
000080 99 2e 1a bd 6e f2 a4 bd f3 98 20 be 04 83 7a be
       -0.037642095 -0.08054052 -0.15683345 -0.24464041
000090 8f 91 32 3d 2b 07 30 3d 75 e7 3a 3e 7b f5 06 be
       0.043595847 0.042975586 0.18252356 -0.13179581
0000a0 e1 95 8f 3d 52 b9 41 bd 75 6a 32 3e de d2 7e bb
       0.07011009 -0.047295876 0.17423423 -0.003888301
0000b0 55 a9 82 3d 76 e4 92 bb 0a fd d7 bc 98 74 32 bd
       0.06379954 -0.004482801 -0.026365776 -0.043568224
0000c0 fc 25 f1 3d 58 8a 5a 3c 24 9d 64 bd fd 38 84 3d
       0.11774823 0.013338648 -0.055813923 0.06456182
0000d0 f6 35 9a 3d 9c 2b ab bd d5 ad b0 3d a5 0e d8 3d
       0.075298235 -0.08357927 0.08626906 0.10549668
0000e0 46 a9 19 3e f5 12 91 3c c4 75 38 bc af 88 6c bd
       0.15005979 0.017709235 -0.011258546 -0.05774754
0000f0 64 25 09 be 25 c5 2f be b2 36 e2 bd 23 cc 63 bd
       -0.1339317 -0.17165048 -0.110455886 -0.0556146
000100 a3 9c b4 bd c6 dc c0 3a a6 fa 0b be 72 6d ae bd
       -0.088189386 0.0014714233 -0.13669834 -0.08516969
000110 b1 66 cb 3d 01 39 bc bc e7 8e 8f bd c8 fe 28 3e
       0.09931696 -0.0229764 -0.07009678 0.16503441
000120 ef 48 d8 3c 52 40 c2 bd 36 76 4a ba bd a1 57 bd
       0.026401965 -0.094849244 -0.0007723303 -0.05264448
000130 28 7f 44 3c ee 92 92 3d 0e 73 50 3d 72 f9 cf bd
       0.011993207 0.07156931 0.050890975 -0.10155
000140 3e b9 dc bd 18 49 e1 3d d7 f4 55 3d 52 63 9a bd
       -0.1077752 0.1100027 0.05223545 -0.07538475
000150 d7 7a 19 bc d6 4f c7 bd 63 3c 61 bd ae ec 96 3d
       -0.009367666 -0.09732024 -0.05498923 0.07369362
000160 32 2b a1 bc 25 e6 db bd f9 1f 88 3d 5f 25 19 3d
       -0.019673917 -0.10737256 0.06646723 0.037389155
000170 dd 53 ad bd b2 d8 cf bd 5f 8b db bc 94 0c 86 bd
       -0.08463261 -0.10148753 -0.026799856 -0.06545368
000180 ea 0b f2 3d d7 bf 90 bc 35 5a 03 3e 66 21 d7 bd
       0.11818679 -0.017669601 0.1282738 -0.10504417
000190 5c e7 4b 3d 51 43 8b 3d 2c 6e 1f 3e 33 ea 0f 3d
       0.04978119 0.06799949 0.15569371 0.03513546
0001a0 2d 01 2e bd 47 6a 23 3d 6c 00 20 3d 40 16 cb 3d
       -0.04248159 0.039896276 0.039062902 0.09916353
0001b0 25 9e 05 be 02 fa 13 be 51 a0 86 bd ae a7 c8 3c
       -0.13048609 -0.14450839 -0.06573547 0.024494018
0001c0 28 96 4c 3e 70 9a 3e bd c9 30 6a 3d 81 6e 02 be
       0.19979155 -0.046534 0.05717543 -0.12737466
0001d0 ea f2 64 bd 90 a2 cb bc 14 b8 b6 bd a6 bb b2 3a
       -0.055895723 -0.02485779 -0.08921829 0.0013636246
0001e0 52 e8 49 3b e2 9a 64 be 94 99 2b be 77 a4 7d 3d
       0.003080864 -0.22324708 -0.16757804 0.061924424
0001f0 fd 07 a1 bc e0 25 87 3c 56 fa 80 bd 6a 9b d8 bd
       -0.01965713 0.016497552 -0.06297748 -0.10576518
000200 ae c6 81 3e cf 9f b5 3e 1f 53 c4 3d a5 8f 76 bb
       0.25346893 0.35473487 0.095861666 -0.003762224
000210 f3 ca cb 3d 17 6e 42 3e 83 be a1 bd 14 df 89 3e
       0.09950819 0.18987308 -0.07897665 0.26928008
000220 a0 c8 3f 3d 45 91 c8 3d 5a 82 28 bc a2 22 df bd
       0.04682219 0.09793333 -0.0102849845 -0.108952776
000230 f8 2f 8a 3d 08 a6 64 3e d9 f1 a6 3d 18 b8 b2 bd
       0.067474306 0.22328961 0.081515975 -0.08726519
000240 b9 2d 24 3e 65 88 94 bc d7 ea 50 3e 6c e0 a1 bc
       0.16033067 -0.018131444 0.20402084 -0.019760333
000250 06 c3 0a bd f4 95 05 bd 9b d6 4f 3b 3e 46 02 be
       -0.033877395 -0.03261371 0.0031713608 -0.12722108
000260 ae 89 bb bc d5 b0 d4 bd 75 3a 4f bd 3d fc ec ba
       -0.0228928 -0.103852905 -0.05059286 -0.0018080544
000270 23 9b 4f bd b5 a6 ff 3b b1 55 d4 3d 2b bd 78 ba
       -0.05068506 0.0078018554 0.10367907 -0.00094886374
000280 aa 2c d2 bd 24 da 0f be 35 cf eb bd 8f 73 3a bc
       -0.10262425 -0.14048058 -0.11514131 -0.01138009
000290 d8 c5 c9 3a 59 11 a0 bd eb c9 a0 3d 37 93 18 bd
       0.0015394045 -0.07815809 0.07851013 -0.03724977
0002a0 33 42 8c bd d4 51 a1 bd aa 14 29 be d7 a6 f8 bc
       -0.06848564 -0.078769356 -0.16511789 -0.030352993
0002b0 ae 5f 0d 3c 79 99 4d 3d 9b 53 ad 3c 38 5b d1 bd
       0.008628769 0.05019519 0.02115803 -0.10222477
0002c0 a1 df e3 bd df 05 e7 bd b4 70 b8 bd 46 04 70 3d
       -0.11126638 -0.11280417 -0.090058714 0.058597825
0002d0 07 c0 05 3e d1 ee 51 be 58 f2 86 bd 79 9f 56 bd
       0.13061534 -0.20501257 -0.06589192 -0.05239818
0002e0 82 64 d1 bd 01 4c 47 bd 21 5a 29 be d1 dc 94 bd
       -0.102242485 -0.048656467 -0.16538288 -0.0726868
0002f0 47 d0 e7 bc ec c9 17 be fb bf 3e 3e 72 14 5c bd
       -0.028297557 -0.14823121 0.18627922 -0.053730436
000300 74 62 58 be 9a df 9c bd 34 1a a0 3d a3 b8 26 be
       -0.21131307 -0.07659836 0.07817498 -0.16281371
000310 fa 7d a0 3d 25 91 6f 3d dc ed 4d bd a8 c8 18 be
       0.07836528 0.05848803 -0.05027567 -0.14920294
000320 cc 1f 6b bd 45 4a ca 3d af 22 1e bd 1f 28 de bc
       -0.05740337 0.09877447 -0.038607296 -0.02711874
000330 38 8e 95 3d 60 37 1e be 5d 83 b7 bd 25 8e 13 3c
       0.07302517 -0.15450811 -0.089606024 0.009006058
000340 b9 a4 33 bd 11 8a 3d be 67 56 db 3c 8e 10 8e bd
       -0.043858264 -0.185097 0.026774598 -0.06936751
000350 9f 08 10 be 32 fa ed 3c 66 aa 22 3c 2c 56 b9 3d
       -0.14065789 0.029049966 0.0099283215 0.09049639
000360 4f 6e 8a 3d ca 1c 1a be 84 01 8d bd 36 f3 ca 3d
       0.06759321 -0.15050045 -0.06885055 0.0990967
000370 3b 65 68 bc 08 83 09 3e 87 52 25 3e eb 3e 88 3d
       -0.0141842915 0.1342889 0.16144763 0.06652626
000380 5b c0 93 bd a9 82 f0 3d 0a a1 10 be b5 94 e3 3d
       -0.07214423 0.117436714 -0.14123932 0.11112348
000390 87 7f 0c be a2 81 21 3e 8d ca 9d bc 67 7d e4 bd
       -0.13720523 0.15772107 -0.019261623 -0.11156731
0003a0 79 53 f5 bc 4c 5a 22 be 6d 36 26 3d 50 0c 70 3d
       -0.02994703 -0.15854758 0.04057925 0.058605492
0003b0 30 90 57 be 78 68 82 bd 84 c5 24 bd 6a cf 3a 3e
       -0.21051097 -0.06367582 -0.040227428 0.18243185
0003c0 47 0e 9d bd ba d6 b9 bc d6 47 66 bc 66 03 96 bd
       -0.07668739 -0.022685397 -0.014055213 -0.07324867
0003d0 de 90 3e bd 43 8c 53 be b4 ca 0c bd c6 0a 0d 3e
       -0.046524875 -0.20658974 -0.034373 0.13773641
0003e0 a4 55 e1 3d 0c 06 82 3c 14 8f 55 3e 7c 9e db 3d
       0.11002663 0.015872024 0.20855361 0.10723588
0003f0 8e 32 12 bc 23 0e 1f 3e 88 2d 3a 3e 12 ab 3e be
       -0.008923186 0.15532736 0.18181431 -0.18619946

bias f4 [100]
000000 57 ee 43 be 27 f9 50 be f5 f7 2c be 20 04 01 be
       -0.19133888 -0.20407544 -0.16891463 -0.1259923
000010 34 d9 00 3d a8 0a 80 be e8 94 3f be 71 00 31 3d
       0.03145714 -0.2500813 -0.18709147 0.04321331
000020 f2 0b f8 bd 35 a2 1f bc 0d 96 ce bd 08 de e0 bd
       -0.121116534 -0.009743263 -0.10087214 -0.10979849
000030 63 2c ed bd 30 57 2b be 46 c2 41 be 25 f9 d6 bd
       -0.11580732 -0.16732478 -0.18921766 -0.10496739
000040 db 1d 68 bd 38 df 2a be ad e2 d5 bd 8a d3 57 be
       -0.056669097 -0.16686714 -0.104436256 -0.2107679
000050 51 58 2a be cb 97 e6 bd 69 14 3b be ba 89 47 be
       -0.16635253 -0.11259421 -0.18269505 -0.19486132
000060 28 ba f7 bc 81 03 c2 bd 88 f9 62 be 56 de b0 bd
       -0.030240133 -0.094733246 -0.22165501 -0.08636157
000070 eb ee 1c be 56 de 2f be b6 c5 17 be c6 0b 4c be
       -0.15325515 -0.17174658 -0.14821514 -0.19926366
000080 84 3e 1d bd 80 dc 52 be e9 66 92 bd 29 d6 8c be
       -0.038389698 -0.20591927 -0.07148535 -0.2750714
000090 e6 9d 20 be dc 59 3e be ad 66 87 bd 42 82 08 be
       -0.15685233 -0.18588966 -0.06611381 -0.1333094
0000a0 5e bb 45 be 56 82 5c be 4f 80 7c bd b8 7c 57 bd
       -0.19309756 -0.21534094 -0.061645802 -0.052609175
0000b0 e5 e5 1d be 20 24 dc bd 85 1e 37 be a1 a0 ed bd
       -0.15419729 -0.10749078 -0.17882736 -0.11602903
0000c0 7e ab c9 bc 12 93 08 be 53 12 2d be 67 19 02 be
       -0.024617907 -0.13337353 -0.16901521 -0.12705003
0000d0 52 29 4a be 53 b7 35 be e3 2d 57 be 4d bc 25 be
       -0.19742325 -0.17745714 -0.21013598 -0.16185112
0000e0 41 bd a8 bd c5 fb 5a be f7 7b 37 be c3 76 d0 bd
       -0.08239222 -0.21385105 -0.17918383 -0.10178902
0000f0 f1 90 26 be d4 48 6f be af 7b 67 be 06 b1 87 bd
       -0.16266228 -0.23367625 -0.22605775 -0.066255614
000100 17 ab 23 be 65 85 49 bc 76 fb 3c be fc a8 63 bd
       -0.15983234 -0.01229987 -0.184553 -0.055581078
000110 63 f5 85 bd cd e9 e8 bd f6 6b 18 be 2c c3 9c bd
       -0.065409444 -0.11372719 -0.14884934 -0.076544136
000120 84 07 85 be 97 07 36 be 7b d4 8c be cf 65 2a bd
       -0.25982296 -0.17776333 -0.2750586 -0.041601
000130 29 3a 79 bd c2 bf 5d be ca 78 3b be 75 9c 91 bd
       -0.06084648 -0.21655181 -0.18307796 -0.0710992
000140 b6 fe 4f be 73 93 39 be 7c 33 31 be 8b 42 fd bd
       -0.20312008 -0.18122654 -0.17304796 -0.12366208
000150 d6 d0 49 be 63 b1 24 be b5 5a 53 be f6 de a2 bd
       -0.19708571 -0.16083293 -0.2064007 -0.07952683
000160 29 b0 6b be c9 a3 d7 bd 6e 11 0d bd ee 94 88 be
       -0.23016419 -0.105292864 -0.03444045 -0.26676124
000170 dd a1 78 bd ab b0 31 be 96 4d 64 bd 90 f4 c9 3a
       -0.06070124 -0.1735255 -0.055738054 0.0015407968
000180 e7 90 94 bd c7 bc 4c be 12 3c 46 be db ae 7d bd
       -0.072542004 -0.19993888 -0.19358853 -0.061934333

weight f4 [100, 100]
000000 db de 3e 3e 78 f1 b4 3d 74 06 f3 3d aa 7c 74 3e
       0.186397 0.08835119 0.11866465 0.2387568
000010 3b 57 19 be 8d 30 d7 bc 29 19 6c 3d 1a 36 3f be
       -0.14974682 -0.026268268 0.057641182 -0.18672982
000020 df ac 9f 3e e4 d4 00 3c 23 70 5d 3e 85 23 90 3d
       0.31186578 0.007863257 0.21624808 0.07038025
000030 79 e3 c6 3c 34 c4 e1 3d 5c c5 9d 3d 21 13 15 be
       0.02427839 0.11023751 0.07703659 -0.14558078
000040 02 8f a9 bd 41 f6 b4 3d 9d ef c8 bd 0b 14 4d 3e
       -0.0827923 0.08836032 -0.098113276 0.20027177
000050 4f 7b af 3d 8b 31 8e 3e 48 e6 ae 3e d0 00 19 3e
       0.08568441 0.27772173 0.34160066 0.14941716
000060 64 bc 40 be e1 c2 1a be 03 d3 5c 3e d5 ce 31 be
       -0.18821865 -0.15113403 0.2156487 -0.17364056
000070 42 90 78 3d 8b 70 c1 3d 1e 86 4e bd 2b 3f fe 3b
       0.06068445 0.09445294 -0.050420873 0.007758995
000080 57 82 12 be cf 72 0b 3e 8e 96 1f be a1 55 7d 3e
       -0.14307533 0.13618015 -0.15584776 0.24739696
000090 fd 41 0e 3d 34 22 06 3e f7 b3 c2 bd 4b 94 ae bd
       0.0347309 0.13098985 -0.09506982 -0.085243784
0000a0 97 36 f7 3d 99 a0 32 3e 71 b2 49 be 54 6c 5a be
       0.12070959 0.17444076 -0.19696976 -0.21330386
0000b0 c8 81 fe bd 48 95 ff bd 61 e4 f1 3d e4 2e 0d be
       -0.124270976 -0.12479645 0.11811138 -0.13787419
0000c0 dc c5 8a be 57 09 1b be 5c 7e ae 3d 25 af 41 3e
       -0.2710408 -0.15140282 0.08520195 0.18914469
0000d0 bd be ff 3d 05 e1 77 3d 7d 78 a2 3e 52 59 b5 3d
       0.12487552 0.06051733 0.3173255 0.08854927
0000e0 48 ac 8a 3d c7 f9 d2 3c 88 5a 4a 3e 2e 5e c7 3d
       0.06771141 0.025753869 0.19761097 0.0973476
0000f0 d6 5b ed bb fc d5 2b 3e 49 67 69 bd e8 ac 6a bd
       -0.0072436137 0.16780847 -0.056983266 -0.057293802
000100 f4 29 e0 3c 01 d8 0a bd fe ed 5a 3e 3e 9a 36 bd
       0.027363755 -0.033897404 0.2137985 -0.04458069
000110 9a f5 0f ba 50 22 2f be e1 1a 09 3d 3c a1 6a bd
       -0.00054916146 -0.17102933 0.0334729 -0.05728267
000120 0d c6 aa 3c 29 03 eb bd 0b 05 21 3c 42 51 31 be
       0.020846391 -0.11475212 0.0098278625 -0.17316154
000130 74 94 90 bd aa 62 a7 bd 2a 08 19 3c f7 b5 fe bd
       -0.07059565 -0.081731156 0.009340325 -0.12437051
000140 3c e2 16 3d 41 b5 3d be ff 67 f1 3d e4 39 c0 3d
       0.036836848 -0.18526174 0.11787414 0.09386042
000150 96 74 aa bc 8b 39 41 3e 87 22 2e 3d c2 45 ce bd
       -0.020807546 0.18869607 0.042513397 -0.10071899
000160 69 23 14 3e 73 cd 83 be 8e 29 8d bd c6 25 03 3e
       0.14466633 -0.25742683 -0.068926916 0.12807378
000170 48 f0 75 be ea 76 99 3d 07 be 89 bd 5b 01 2d be
       -0.24017441 0.07493384 -0.06725698 -0.16895048
000180 fd a8 0f be 9c d3 76 3c ed 06 b2 3d d3 82 b5 bd
       -0.14029308 0.0150651 0.08692727 -0.08862843
000190 eb 74 dd 3b 91 6e e4 bd 90 cc 84 3d d6 71 95 3e
       0.0067583225 -0.11153901 0.0648433 0.29188412
0001a0 d4 91 5e 3d 05 e2 7f 3e 08 12 aa 3d dd 18 ca bc
       0.05433829 0.24988563 0.083042204 -0.024670059
0001b0 85 68 ac 3c 86 74 ef 3c db 39 4b bd 06 79 2d bd
       0.021045933 0.029230367 -0.049615722 -0.042351745
0001c0 61 f5 8f 3d 36 25 2e 3e 76 a3 8a 3e f1 c4 05 be
       0.07029224 0.17006382 0.27077836 -0.13063408
0001d0 86 da 98 bd f9 dc f0 bc bd 26 1f 3c 57 37 91 3d
       -0.07463555 -0.029402243 0.009713826 0.07090633
0001e0 45 7e de bc b4 c4 8a 3e 57 a4 81 3e 8a 21 2f 3e
       -0.02715982 0.27103198 0.25320694 0.17102638
0001f0 3d 8b fb 3d ec 43 6e 3c 93 70 bd 3d 8f 20 07 be
       0.12282417 0.014542561 0.092499875 -0.13196014
000200 73 2f 91 3d 95 01 1a bd 84 0f 0c 3d c8 5c 88 bc
       0.07089128 -0.037599165 0.034194484 -0.016645804
000210 4d 4d 36 bd 91 20 2e 3e 83 25 51 3c 82 cf 7a 3e
       -0.044507314 0.1700461 0.012765291 0.2449322
000220 0a 09 cc 3d 92 4a 53 bc f6 b9 51 3c 8e 75 51 be
       0.099626616 -0.012896197 0.012800684 -0.20455
000230 02 b0 0b 3e 44 6d 49 3e 29 53 8c bd 43 e5 8e 3d
       0.1364136 0.19670588 -0.06851799 0.06977322
000240 c3 50 4a 3b 87 e1 ce bd 84 ab 6a 3c 99 29 ac bc
       0.0030870892 -0.1010161 0.014323119 -0.021015929
000250 9d 71 a4 bd 58 df a1 bc b5 b5 89 3e 45 02 dd 3c
       -0.080294825 -0.019759819 0.26896444 0.026978621
000260 1c 5d 9a 3e 1b 4f 1b 3e 67 f0 ec bb bc 14 71 3e
       0.30149162 0.15166895 -0.0072308066 0.23543066
000270 3b c1 ec 3d 1f 63 7c 3e 37 5e 1f 3d 4a ba 79 3e
       0.11560293 0.24647187 0.03890821 0.2438747
000280 1b 7b 96 3d 60 1b 5c 3e af 2e 21 3e 5d 44 01 3d
       0.07347699 0.21494818 0.15740465 0.031559337
000290 81 c0 70 3d df fb a0 bd da 6e f6 3c 18 9b a7 bd
       0.058777336 -0.078605406 0.030082155 -0.08183879
0002a0 f7 71 6d bd 2e 40 12 3e 16 de 42 3e 02 da 6e 3d
       -0.057970013 0.14282295 0.19030032 0.058313377
0002b0 c3 69 49 3d 8a 17 d8 3d fb 5c 81 3d 89 ea af bd
       0.049173128 0.10551365 0.06316563 -0.08589656
0002c0 45 7b b3 bd b5 98 06 3e d1 01 50 3e 2b 90 93 bc
       -0.08763746 0.1314419 0.20313193 -0.01801308
0002d0 82 02 7e bd c9 2f 76 3d 42 ef a6 3d 41 89 e4 bc
       -0.06201411 0.060104165 0.081511036 -0.027897479
0002e0 ae 57 f3 3c 3c 7c 53 3e 09 58 89 bd fd db fe 3c
       0.029704895 0.2065286 -0.067062445 0.031110758
0002f0 44 48 a3 3d 9f cc 8e 3d 76 e1 aa bc d9 25 a1 3c
       0.07972768 0.06972622 -0.020859461 0.019671367
000300 69 bb 4d 3c c3 31 d9 3c 76 d5 f1 bc 78 61 41 be
       0.012556889 0.026512986 -0.029520731 -0.18884838
000310 b3 9c f9 3d 02 da 20 be 04 9b 81 3d e3 4e 4e bb
       0.12188091 -0.15708163 0.06328395 -0.0031480126
000320 ee 27 10 be 03 51 57 be 78 ff 1a ba 48 d1 66 3d
       -0.14077732 -0.21026997 -0.00059127016 0.05635193
000330 3f 26 18 3c 83 70 ef bd 75 ad 3f 3e 0a 73 a8 3d
       0.009286462 -0.11691382 0.18718512 0.08225067
000340 aa 65 3f 3d 0c 27 18 bd ef 40 c5 bd 52 c4 10 be
       0.046727814 -0.037146613 -0.09631526 -0.1413739
000350 5e 33 a3 bd 3b a3 37 be 23 09 20 be 32 98 1d be
       -0.07968782 -0.17933361 -0.15628485 -0.15390089
000360 9a e3 a7 bd dc ef 16 be f3 16 bc bd dc 1a 8e be
       -0.081977084 -0.14739937 -0.09184065 -0.27754867
000370 df 8f 44 bd fe 2b 98 bd 6d 66 32 bd b9 ef ff 3d
       -0.04798877 -0.07430266 -0.043554712 0.12496895
000380 4a a8 cc 3b 83 82 4d be 3a a9 45 be 94 3d c0 3b
       0.0062456476 -0.20069318 -0.19302836 0.0058667157
000390 58 58 82 bd 80 d5 3e 3d b2 c5 02 be 28 ff 31 be
       -0.063645065 0.04659033 -0.12770727 -0.1738249
0003a0 aa d1 8b bc 22 bf 22 bd 19 c7 70 be fa ac c5 3d
       -0.017067749 -0.03973306 -0.2351345 0.09652133
0003b0 a8 a3 e1 bc bd 64 89 be 7a 2c 0d be 77 a6 c7 bd
       -0.027543858 -0.2683467 -0.13786498 -0.097485475
0003c0 ac 3f cc bd 71 73 f6 3d 67 01 e7 bd 46 1c e5 bd
       -0.09973082 0.120337375 -0.11279564 -0.11187033
0003d0 c8 ae 59 be 5f 50 d4 bd 6a fd 3d bd 7e a9 60 be
       -0.2125808 -0.10366892 -0.046384253 -0.21939656
0003e0 a7 3b 80 bb ed ac 7b be 21 d1 e8 bd f9 96 54 bd
       -0.003913361 -0.24577685 -0.11368013 -0.05190179
0003f0 3d 98 f9 bd 5a fc 6d be f1 32 28 be 3d 15 a7 bd
       -0.1218724 -0.23240796 -0.16425683 -0.08158348

bias f4 [100]
000000 13 72 20 bd 25 89 a0 bd 19 a0 e2 3c 55 ac 60 bd
       -0.03917129 -0.07838658 0.027664231 -0.05485185
000010 86 a5 7e bd f8 ce 48 bc 01 db 6d bc eb 75 a2 bc
       -0.062169574 -0.012256376 -0.014517547 -0.019831618
000020 71 eb 03 bb 22 af b7 bd 34 c4 af bc 4d 4b 83 bc
       -0.0020129348 -0.08968951 -0.021455862 -0.016027117
000030 64 35 93 bc 13 71 c2 3b 72 0b 83 bc 1e 60 90 bd
       -0.017969795 0.0059338897 -0.015996668 -0.07049583
000040 6f fe ac bd d2 d4 a5 bc df d6 55 bc 1c 92 ef bd
       -0.08446967 -0.020243082 -0.013051718 -0.1169779
000050 66 ec 06 3b f6 e6 7d bd 8a 16 8d bd 7c 4d 1d bd
       0.0020587682 -0.06198784 -0.068890646 -0.038403973
000060 16 3d 27 be ca 17 00 3b a1 15 ab bc 72 56 83 3b
       -0.16331896 0.001954543 -0.020884337 0.004008108
000070 61 c4 c0 bc d8 1a f8 bb b1 a3 9a bc a8 a0 09 bd
       -0.02353114 -0.0075715594 -0.018876882 -0.03360048
000080 66 81 25 bd 55 43 bc 3c 77 f1 59 b9 e1 b5 93 bd
       -0.040406607 0.022981325 -0.00020784685 -0.07212425
000090 03 38 be bd d7 22 b6 bc cf 8e a8 bd 6b da d6 bc
       -0.09288027 -0.02223341 -0.082303636 -0.026227197
0000a0 67 dd 50 bd c2 54 0f bd ed 7c 8f bd 56 67 29 bc
       -0.050992396 -0.03499294 -0.070062496 -0.010339579
0000b0 79 dd ad bc c8 06 97 3c 1b 3d 5e bd 7e dd 2b bc
       -0.02122377 0.01843585 -0.054257493 -0.01048982
0000c0 fc 6c ba 3c 81 cc bc b9 16 58 ec bc 08 23 9e bc
       0.022757046 -0.00036010522 -0.028850596 -0.019303814
0000d0 d1 58 fe bc 11 81 c9 bc 30 d0 c2 bc c1 68 69 bd
       -0.03104821 -0.024597676 -0.023780912 -0.056984667
0000e0 40 57 46 bb 6f 6e 20 bc 24 ec a4 bb 07 5b c2 bd
       -0.0030264407 -0.009791954 -0.005033033 -0.09490018
0000f0 0e c8 54 bc 28 ef 8e bc 3c 3a 28 be ee f0 61 bb
       -0.01298715 -0.017448023 -0.16428465 -0.003447588
000100 c9 a1 e0 bc 1a 38 d9 bc d3 32 f9 bc ed f7 72 bd
       -0.027420895 -0.02651601 -0.030419743 -0.05931847
000110 f0 8f ed bc 1e 3f c7 3c fb a1 ab bb b5 da 12 bd
       -0.028999299 0.024322089 -0.0052378154 -0.035853107
000120 be 9b 14 bc b4 46 28 bd cc 01 bc bb 86 72 13 bd
       -0.009070335 -0.041083053 -0.005737519 -0.03599789
000130 c8 88 55 bc 2a b1 47 bd 1b 90 e1 3b b7 97 3f 3c
       -0.0130330995 -0.04875294 0.006883634 0.0116938865
000140 73 31 a0 bd 2d 2d 92 3b 1f 51 d6 bc 6e 10 a4 bb
       -0.07821932 0.004460952 -0.026161728 -0.0050068414
000150 3f 4e 23 bd 92 3d 71 bd f9 0c bd bd ba 36 9f bc
       -0.039869543 -0.05889661 -0.0923099 -0.019435275
000160 05 7f 91 bd ff 1f 39 bd 38 8f 2c bd cb 28 38 bd
       -0.07104305 -0.04519653 -0.04212877 -0.04496078
000170 0a e6 e0 bc 32 66 c1 bc 6a 0c ea bb bd f8 dd bc
       -0.027453441 -0.0236083 -0.007142593 -0.027096147
000180 72 d0 84 bd 08 7c 2b be de d4 75 bc a9 4c ce bb
       -0.0648507 -0.16746533 -0.015004365 -0.0062957597

weight f4 [50, 100]
000000 59 df fd 39 0d 4c f1 bd 5a 10 e0 bd aa e1 05 be
       0.00048422327 -0.11782084 -0.10940619 -0.13074365
000010 ba 4d 7e 3e 3b d6 03 be 00 1c 20 3e 5d 4d 9a bd
       0.24834338 -0.12874691 0.15635681 -0.07534287
000020 5b b4 91 bd f5 11 80 bc 70 65 9a bd 6f c6 00 bd
       -0.07114478 -0.015633563 -0.07538879 -0.03143924
000030 9b f8 ce bd 50 23 db 3d e6 1e 3d be d3 f6 d5 bd
       -0.101060115 0.10700095 -0.18468818 -0.104474686
000040 2e 39 b9 bd 78 f5 b9 3b 4b eb 48 be 78 51 76 bd
       -0.09044109 0.005675014 -0.19621007 -0.06013629
000050 7b 25 22 3e 05 c5 a2 be e0 a1 04 be 4e 88 8d be
       0.1583461 -0.3179094 -0.12952375 -0.27643055
000060 8d f4 42 3c 53 77 81 be 0f d8 a6 bd 5e d1 f0 3b
       0.011899126 -0.2528635 -0.08146679 0.0073491773
000070 84 6e f0 bd 4c 35 84 3e ab cc 0e 3e 54 f2 26 be
       -0.11739829 0.25821912 0.13945262 -0.16303378
000080 8b 02 1a 3e 24 07 14 3e 7b 5e 89 3c 16 51 58 3e
       0.15040033 0.14455849 0.016768685 0.21124682
000090 d5 e9 b2 bd ef 0a 9f bd a8 1e b2 bd f2 11 3b be
       -0.08736006 -0.07765757 -0.086972535 -0.18268564
0000a0 86 30 1d be ed 39 02 be f7 4e 9a be 34 1a 36 3d
       -0.15350541 -0.1271741 -0.3013837 0.044458583
0000b0 03 f8 f4 3c 92 67 bf bc 33 08 83 3d e0 d0 32 3e
       0.029903417 -0.023364816 0.06398048 0.17462492
0000c0 48 67 ea bb a3 06 82 be 84 21 29 be f0 5f 70 3e
       -0.0071534254 -0.25395688 -0.16516691 0.23474097
0000d0 5a 9c a9 be c3 bf 8a bd 7f 10 29 3e 10 96 88 be
       -0.331271 -0.06774857 0.16510199 -0.2667699
0000e0 15 b9 a4 bd bb 3f 0b 3e 6e 8d 29 3c 86 64 66 3e
       -0.08043114 0.1359853 0.010348661 0.22499284
0000f0 ca ae d7 bb 2f fb 8e 3d dd fe 0b 3c 9f ac 85 bd
       -0.006582116 0.06981503 0.008544651 -0.065270655
000100 42 ce 30 3c c2 16 04 3e f2 91 4d 3e 48 99 4b 3e
       0.010791363 0.12899306 0.20075205 0.19882691
000110 28 83 3d bd 33 44 69 3e 52 3b 80 3e 38 99 07 bc
       -0.04626766 0.22779922 0.25045258 -0.008276276
000120 e2 44 82 be 75 2d 8b bb 74 5c e1 3d 28 af 4f 3d
       -0.25443178 -0.0042473623 0.11003962 0.05070415
000130 9e 80 74 3e b2 3d 19 be 5a e7 43 3e 54 44 82 bd
       0.23877189 -0.14964941 0.19131222 -0.06360689
000140 e9 b0 1f 3e 06 00 8a 3d 95 32 2a 3e 8b ff 5e bd
       0.1559483 0.06738286 0.16620858 -0.054442924
000150 26 46 03 b9 fe f6 e9 3d d9 9e 8a bd 06 d8 54 3e
       -0.00012519266 0.11424063 -0.06768579 0.20785531
000160 1c 2b e1 bd cf e7 f7 bc 16 d8 3d bc 96 d6 8f be
       -0.109945506 -0.030261902 -0.011587163 -0.28093404
000170 4a 9c 87 bd 5f e6 8c bc 75 46 ee bb 5c e3 63 bd
       -0.06621607 -0.017199693 -0.0072715827 -0.05563675
000180 25 f1 1e be 4f 56 f8 bd 0c bf cc bd 89 e1 b2 bc
       -0.15521677 -0.12125837 -0.09997377 -0.02183606
000190 21 73 94 3e 22 a2 b6 3d 32 26 fe bd 23 88 16 3e
       0.28994086 0.08917643 -0.12409629 0.1470037
0001a0 85 3e c0 bd ce e1 3e 3e 14 79 3c bd c9 59 8a bc
       -0.09386925 0.18640825 -0.046013907 -0.016888516
0001b0 23 d1 5d 3e 50 ea 04 3e 1b 35 8b 3e 0f ff 7a bc
       0.2166181 0.12980008 0.27188954 -0.0153196
0001c0 f4 96 07 3e 1a 4a 35 3d 4f 86 d1 3d a1 2d 46 3b
       0.13241178 0.044260122 0.102306955 0.00302396
0001d0 ac 66 a3 3d 46 7f 43 3c 6d 8d 98 3e 45 57 0e bd
       0.079785675 0.0119322 0.297954 -0.034751195
0001e0 9b a7 12 bc 4d 40 b1 3d 8b 79 2f 3d 16 e3 fd 3d
       -0.008951093 0.086548425 0.04284052 0.12396829
0001f0 b0 1c a6 3d e2 3e 47 3e d8 f6 77 3d 73 70 4c 3d
       0.081109405 0.19457582 0.060538143 0.049911927
000200 28 00 1b bd 87 4f de ba ec 43 d7 3d 09 0a dc bd
       -0.037841946 -0.0016960957 0.10511002 -0.107441016
000210 09 6f 5e bc a7 52 11 3e 0b e2 b9 3d 12 17 10 bd
       -0.0135762775 0.14191686 0.090763174 -0.03517825
000220 0f 12 01 be 35 59 85 3e 0c 3f 69 3e de 85 a8 3b
       -0.12604545 0.26044622 0.22777957 0.0051429113
000230 2d 47 a6 bc b3 cd 37 3e a2 43 ee 3d de 40 a5 3d
       -0.020297611 0.17949562 0.11633994 0.08069013
000240 2e 17 bc bd 94 99 0d 3d 1b c7 b8 bc 21 1c bd 3c
       -0.09184109 0.03457029 -0.022555878 0.023084702
000250 46 c0 e2 bd 03 df 1c 3e 62 f5 4c 3e 31 ea a4 3d
       -0.110718295 0.15319447 0.20015481 0.08052481
000260 67 67 1d 3e 2f eb 9f 3d 95 02 47 bd 2b 87 00 3d
       0.15371476 0.078085296 -0.048586447 0.031378906
000270 51 b6 3c 3e 95 18 16 be 4e e9 40 3e 60 f8 96 bc
       0.18428923 -0.14657815 0.18838999 -0.018428981
000280 4e 65 22 3e 82 4e 9f bd 83 56 a5 3b a5 20 9b 3e
       0.15858957 -0.07778646 0.0050457134 0.30298343
000290 f9 b9 0f 3e 5d a0 aa bb e4 f9 d6 3d 22 42 90 3c
       0.14035787 -0.005207105 0.104968816 0.01760966
0002a0 a0 3c ee 3d 37 42 70 bd 64 51 6a be 57 df 35 3e
       0.11632657 -0.058656897 -0.2288261 0.17760979
0002b0 bb 58 6d 3e f0 8d 22 bd 7b 78 bf bd 97 58 4e 3d
       0.23178379 -0.039686143 -0.09349152 0.050377455
0002c0 68 b7 6f 3d 28 b7 38 3e d2 d9 c0 bd 65 fc 93 3c
       0.05852452 0.18038619 -0.09416546 0.018064687
0002d0 9d f2 bb 3c 63 8d 17 3d 08 fe e6 bd 83 0c 58 3d
       0.022942835 0.03700007 -0.11278921 0.052746307
0002e0 3e 56 dd 3d c9 41 09 3e 26 83 6a 3d e2 58 33 be
       0.10807465 0.13404001 0.05725398 -0.17514375
0002f0 08 88 52 3e ca 22 80 3e 36 6d 82 3e 0f bf 68 3e
       0.20559704 0.25026542 0.25473946 0.22729133
000300 81 4c 7e 3e 60 27 a2 3c 24 03 3f 3e 75 18 4d 3e
       0.24833871 0.019794166 0.18653542 0.20028861
000310 4e 17 2f 3e aa 2c 6d 3d f9 ec 04 3e 38 6d f5 3d
       0.17098734 0.057903923 0.12981023 0.119837224
000320 d8 fa 27 3e 0c 84 70 3e d9 ec ed bd 48 58 0a bc
       0.16404283 0.23487872 -0.11617441 -0.008443899
000330 3d 16 f2 bd 30 dc 80 3e 10 72 32 3d 14 41 31 3d
       -0.11820648 0.2516799 0.04356581 0.043274954
000340 80 b6 6a 3e ba 52 ec 3d eb ef a0 3e d1 b4 65 3e
       0.2292118 0.11539216 0.31433043 0.22432257
000350 74 90 0b 3e 92 cd 83 be 44 ca df 3c 13 c6 21 bb
       0.13629323 -0.25742775 0.027318127 -0.0024684712
000360 4c 1b 50 3e 74 58 d5 3c 99 02 5e 3e 34 a7 29 3e
       0.20322913 0.026043154 0.21680678 0.16567689
000370 40 03 8f b9 c5 e4 42 3e c7 66 f4 bd 94 f1 f6 3d
       -0.00027277507 0.19032581 -0.11933666 0.12057796
000380 34 0e dd bd c6 1c 9b 3d 1e 4b d5 3d 4f 61 75 be
       -0.10793725 0.075738475 0.10414718 -0.23962902
000390 8e fe dc bc 6d 4e a4 bd a4 32 54 be 32 0e 6a 3e
       -0.02697685 -0.08022771 -0.20722443 0.22856978
0003a0 63 7e a7 bd 64 e9 1c bd de db f2 3c 0a 29 03 be
       -0.08178403 -0.038308516 0.029645856 -0.12808624
0003b0 89 fa e0 3d dc 7b 20 3e 6a 7c 26 3e e0 02 91 3d
       0.10985286 0.15672249 0.16258398 0.070806265
0003c0 59 dc 86 3e 3b 2b e9 bc 98 36 83 3d 17 4b 4b 3e
       0.26339987 -0.028462997 0.06406897 0.19852863
0003d0 a3 4d c7 3d 2c b6 07 3e 25 b5 44 3e b9 6c 03 3d
       0.09731605 0.13253087 0.19209726 0.032086108
0003e0 e3 c7 56 be 8a d9 fa 3d 16 00 3b 3d d7 1c 92 bb
       -0.20974688 0.122485235 0.04565438 -0.0044590044
0003f0 21 19 28 3d 9d 90 86 3d 72 cc 1a be 10 4c c0 3d
       0.04103959 0.065705515 -0.15117052 0.09389508

bias f4 [50]
000000 96 8e be bc df 49 05 bc e8 f1 0a be 44 76 17 bd
       -0.02326135 -0.008135288 -0.13568842 -0.03697802
000010 ac 4e c7 bd 24 79 44 bc 99 8f 9d bc 20 cd ce ba
       -0.09731802 -0.011991773 -0.019233512 -0.0015777685
000020 70 70 e8 bd 55 54 7e 3c aa 12 0f 3c 2f df 62 bc
       -0.11349571 0.015523036 0.008732477 -0.013847156
000030 26 fb 01 3c 27 96 e0 bc 67 95 11 be 74 8e cf bb
       0.007933414 -0.027415348 -0.14217149 -0.0063341204
000040 19 6b eb 3c 9c ab ce bb 4e 19 bb 3b ca 69 ec 3c
       0.028737592 -0.0063070785 0.0057098037 0.028859038
000050 3d 77 7c bc d2 67 dd bd 16 61 66 bd 05 8d 02 bc
       -0.015409288 -0.10810818 -0.056244932 -0.007968192
000060 59 3f ea bc 69 d2 0e bd c6 ef fd bd 10 4c e2 bd
       -0.02859466 -0.03486863 -0.12399249 -0.11049664
000070 bb 31 16 be 20 d6 e1 bb 34 1e 26 be 01 00 dc ba
       -0.14667408 -0.006891981 -0.16222459 -0.0016784669
000080 39 e2 27 bc f9 a0 80 bc 17 11 25 bd 25 ca c9 bd
       -0.010246807 -0.015701758 -0.0402995 -0.09853009
000090 cb 9c c7 bc ee 91 2c 3c 14 aa 63 bc d0 78 1d be
       -0.024366757 0.010532839 -0.01389553 -0.15378118
0000a0 d7 0a 35 bc 12 6d 79 bc 67 0c 4d 3c 68 40 9c ba
       -0.011049948 -0.015223758 0.012515164 -0.001192105
0000b0 02 49 88 bd 51 3b 34 bd aa 3e a4 3b f2 24 35 bc
       -0.0665455 -0.04400188 0.005012353 -0.011056172
0000c0 67 a0 b9 bd d5 05 11 bd
       -0.090637974 -0.035405952

weight f4 [25, 50]
000000 28 9a 09 be 7a 26 e7 3c 9e 62 54 bd 6c ce 6b be
       -0.13437712 0.02821659 -0.05185186 -0.23027962
000010 7e 87 0c be 12 e2 1f be ed 49 0e be e4 e1 ab bd
       -0.13723561 -0.15613583 -0.13895388 -0.083926946
000020 4a a4 20 be d6 09 f3 3d a1 04 ea bd 8d 7a d7 3c
       -0.15687671 0.118671104 -0.11426664 0.026303554
000030 7b 3c dd bc 1c 5a 28 be 69 a3 86 bd 86 b7 6c be
       -0.027006378 -0.16440624 -0.06574137 -0.23116884
000040 c9 09 e2 bd dc 43 4c be b0 e0 d7 3d 0f 10 f1 bd
       -0.110370226 -0.19947761 0.105409026 -0.11770641
000050 c0 63 4f bd 7e 8a c1 bd ff 4a 23 be e1 f9 0b bd
       -0.05063224 -0.094502434 -0.15946577 -0.03417385
000060 07 44 a0 bd 8c 08 84 3d 3f d6 6a bd 28 7c 1f be
       -0.07825475 0.06446943 -0.057333227 -0.15574706
000070 a7 c1 52 3d e8 f4 d2 bd 6e 8a 88 3d 29 3a db bb
       0.051454213 -0.103006184 0.06667028 -0.006690283
000080 64 1d 97 3b 0b 75 66 bd ea 83 2f be af c3 27 3d
       0.004611658 -0.056263965 -0.17140165 0.040958103
000090 44 b4 a5 bd b5 28 bd bd f0 a4 b2 3c 34 43 f0 bd
       -0.080910236 -0.0923628 0.021807164 -0.11731568
0000a0 bc c0 d8 bd 71 20 0e 3e 63 8d 52 bd 1c 35 ea bd
       -0.10583636 0.13879563 -0.051404368 -0.11435911
0000b0 22 cc b1 3d 69 15 f1 bd 3a c8 f1 bd 60 8c a3 bd
       0.08681513 -0.11771662 -0.11805768 -0.07985759
0000c0 8f 99 55 3d 76 ce 87 bd 8c b8 ec 3c 62 2b bd 3d
       0.052148398 -0.06631176 0.028896593 0.0923679
0000d0 1c 11 44 3e 49 47 38 bc 78 0c 35 3e 9c 5c 68 bc
       0.19147152 -0.011247464 0.17680538 -0.014182236
0000e0 f3 21 23 3e d8 58 1e be d2 65 7a 3d 43 ab 3e be
       0.1593092 -0.15463579 0.06113226 -0.18620019
0000f0 1b fc d2 bc 26 2c 74 3e 68 aa 73 3e fe b7 89 3e
       -0.025754979 0.23844966 0.23795474 0.26898187
000100 eb a0 3e 3e 52 b4 82 3e c5 f2 32 be a2 6f c2 3d
       0.18616073 0.25528198 -0.17475422 0.094939485
000110 93 34 3c 3e bf 6a 11 be 42 6c e9 3d 31 6c 60 bd
       0.1837943 -0.14200877 0.11397602 -0.05479068
000120 30 74 6f 3e 53 9d c2 3d c9 68 86 3e d6 27 27 be
       0.23384166 0.095026635 0.2625182 -0.1632379
000130 ea e5 f5 3d ef 37 cb 3d 90 1d 4a 3e ec 92 94 3d
       0.12006743 0.09922778 0.1973784 0.072545856
000140 14 4f 42 3d 85 71 ff 3d 98 9c 3b bd ef bb 18 be
       0.047438696 0.12472824 -0.045803636 -0.14915441
000150 c4 da 6b 3d e5 30 28 3e ac 09 0a 3e f3 37 05 be
       0.057581678 0.16424902 0.13480252 -0.13009624
000160 3f e5 0c 3e 41 df 4b 3d 40 12 9f bd c9 e3 37 bd
       0.13759325 0.04977346 -0.07767153 -0.044894967
000170 5c c4 14 be 50 fc a3 3d 1a 66 f5 3d 1c a3 17 3d
       -0.1452803 0.08007109 0.11982365 0.037020788
000180 88 09 f0 3d 10 98 6d 3e ba 94 02 3e cc a3 d3 3d
       0.11720568 0.23202538 0.12752047 0.10333976
000190 85 36 80 bd 48 0a f3 3d 7a 9a 3c 3e 45 69 42 3d
       -0.06260399 0.11867195 0.18418303 0.047463674
0001a0 fb 7c 05 3e da 8a 2b be 8f f9 b6 3c a2 cd 07 3d
       0.13035958 -0.16752186 0.022335796 0.03315509
0001b0 78 af 8b 3d 2a a7 2c 3c a8 72 28 bc 12 a2 3e 3e
       0.068205774 0.010537902 -0.010281242 0.18616512
0001c0 c6 86 67 3d 1a 48 9c 3c f4 7c 9b 3d 6a 9a ad 3d
       0.056525014 0.01907735 0.07592192 0.08476718
0001d0 4a 76 02 be ed b8 31 3d 79 17 2c 3e ed a4 eb bc
       -0.12740436 0.04338925 0.16805829 -0.028765166
0001e0 02 26 d9 bd 6a 21 8a bd ab c4 5c 3e db 13 18 3d
       -0.106029525 -0.067446545 0.21559398 0.03712831
0001f0 a0 cf 42 3e dd 54 bd bd 12 cd 0a be 03 1c 6e 3e
       0.19024515 -0.09244702 -0.1355479 0.23252873
000200 17 6f 88 3e 5e 49 96 bd 3d e0 0d 3e 6b 48 f5 bd
       0.26647255 -0.073382124 0.13855071 -0.11976703
000210 69 f7 a6 be df 65 86 be e1 e4 2e 3d 31 d6 84 3e
       -0.32610634 -0.26249596 0.042698745 0.25944665
000220 1d ec c3 bb 8f c0 1b be 05 f9 2a 3e ee 07 66 bd
       -0.0059790746 -0.15210174 0.16696556 -0.056159906
000230 f4 7a bc bd 26 45 95 bc 11 6f ae bd ab c2 e9 3c
       -0.09203139 -0.01822145 -0.08517278 0.028535208
000240 dd 74 2b 3e d0 48 07 3e 54 9b 30 bd 63 f1 a6 3c
       0.16743799 0.1321137 -0.043116882 0.020378774
000250 d4 8a e7 bc 19 cd 05 3e 15 25 2d bd bb 8f 30 3e
       -0.02826444 0.1306652 -0.042271692 0.17242329
000260 49 57 94 3e 9e 48 e9 3d 34 2b 41 3e 0b a9 92 bd
       0.28972843 0.11390804 0.18864137 -0.07161149
000270 a8 35 9c 3e b7 ff f7 bd 39 d4 66 3e c8 6e 83 bd
       0.30509686 -0.121093206 0.22541894 -0.06417614
000280 87 7d 3b bd 1d 19 73 3e 8a b5 2a 3e cc cd 23 3e
       -0.04577401 0.23740049 0.16670814 0.15996474
000290 d4 93 8d 3e ba 1f 15 3e 14 b8 00 be d5 9d 55 3e
       0.27651846 0.14562884 -0.1257022 0.2086099
0002a0 28 3d e2 3d d3 3e 9b bd b4 41 1a 3e 30 eb a3 3c
       0.11046821 -0.07580342 0.15064126 0.020009607
0002b0 84 5a 97 3d b7 cd 87 3e 2b bf a1 3e 91 be 38 3c
       0.07390311 0.26524135 0.31591162 0.011275903
0002c0 bd d2 0e 3d 4c 2f 84 3e b3 a9 b4 3e 60 91 43 3d
       0.034868944 0.25817335 0.3528572 0.047746062
0002d0 91 0a 1d 3e 42 8b 66 3e f3 0b b1 3c 37 31 a8 bd
       0.15336062 0.2251406 0.021612143 -0.08212512
0002e0 0c 6d 98 3e a9 73 a2 3e 55 91 4f 3e d6 b2 b8 bd
       0.29770696 0.31728867 0.20270284 -0.09018485
0002f0 1a 29 8e 3e 9c 9c ba bd 5b 8c 1c 3d da 3d 48 3c
       0.27765733 -0.09111902 0.03821979 0.012221778
000300 0a cf 73 3c 3f d3 1a 3e 58 c3 8f 3e 6b 38 8c 3e
       0.014880905 0.15119646 0.28078723 0.27386793
000310 9b 8c 5e 3e c5 d0 84 3e e2 d3 02 3e f9 a7 76 3e
       0.21733324 0.2594053 0.1277614 0.24087514
000320 d7 c2 1e 3e 52 db bb 3d a4 1e 2a bd b6 89 30 3e
       0.15504013 0.091726914 -0.041533127 0.17240033
000330 ae 79 80 be f7 a9 f8 3d c0 52 26 be d6 8f d8 3d
       -0.25092834 0.12141793 -0.16242504 0.105743095
000340 06 57 c6 3c 3a b3 50 3d a7 33 10 3e 02 b6 2d be
       0.024211418 0.050952174 0.14082204 -0.16963962
000350 d0 9b 3a be a9 36 15 bd ec dc 51 be 62 42 77 be
       -0.182235 -0.03642908 -0.20494431 -0.24146417
000360 a6 a1 a6 3d 81 c0 53 be ae c5 f7 bc 0e 97 7c bd
       0.08136301 -0.20678903 -0.030245628 -0.061667494
000370 b0 5a 4f be 45 27 c3 3e 14 86 92 bd 9c 3e 18 be
       -0.20249438 0.38115898 -0.071544796 -0.14867634
000380 62 8f 46 be c0 11 26 3e 87 c2 0a be 2e 48 99 bd
       -0.19390634 0.16217709 -0.13550769 -0.0748447
000390 c2 75 24 be 92 1d 8a 3e 72 29 a0 3c 7d 6a 71 bb
       -0.16060546 0.26975685 0.019551013 -0.0036837154
0003a0 1d d8 92 3e b7 be 35 bd 73 f7 2e bd d9 1a 73 3d
       0.28680506 -0.044371333 -0.042716455 0.059351776
0003b0 47 9e 72 be 9a 82 96 3e 2a ad 19 be 0c fe 56 3e
       -0.2369319 0.29396516 -0.15007463 0.20995349
0003c0 2f 17 75 3e 91 1b 3d 3e 01 68 11 3e d8 21 cd bd
       0.23934625 0.18467547 0.1419983 -0.10016221
0003d0 cc c9 50 bd c8 27 b9 bd d0 24 06 be e0 ad c2 be
       -0.0509737 -0.09040791 -0.1309998 -0.3802328
0003e0 bd ea 84 bd 66 7a cd 3b 73 dd a6 be 1c 9c f3 bd
       -0.06490085 0.0062706945 -0.32590827 -0.1189501
0003f0 a2 93 12 3e 72 3b 86 bd 4f f6 15 3e 84 5d 88 bd
       0.1431413 -0.06554307 0.1464474 -0.06658462

bias f4 [25]
000000 3a 49 6a bc d2 c1 43 3a 6b 6f b0 3b c0 20 35 bc
       -0.014299685 0.0007467541 0.005384376 -0.0110551715
000010 52 66 8f bc 09 a3 39 be 9a f0 62 bc cf 79 be bc
       -0.017504845 -0.18128599 -0.013851309 -0.023251442
000020 17 01 e5 ba 1a 25 16 3b 55 36 85 bb ce 18 24 3b
       -0.0017471638 0.0022910298 -0.004065315 0.0025039199
000030 b1 a4 1d bd fd 67 a6 bc 32 cf 07 bd 07 08 eb 3a
       -0.03848714 -0.020313257 -0.03315658 0.001793147
000040 79 06 65 be eb 69 2e bd ff 96 75 bc 07 db b9 3c
       -0.2236575 -0.04258148 -0.014989614 0.022687448
000050 f7 b1 ea bb 8c 2a b8 bc 15 ab 24 bc 47 f8 f2 39
       -0.0071623283 -0.022481225 -0.010050555 0.00046342818
000060 15 4f a8 bb
       -0.0051363804

weight_ih_l0 f4 [48, 25]
000000 a4 3f ff bd 7e 7d 1e be 43 96 9e 3e fc fe a4 3e
       -0.1246331 -0.15477559 0.30974016 0.32225788
000010 30 6c 96 3d 69 26 a0 3e 03 3d 2b 3e 09 af 40 3d
       0.07344854 0.31279305 0.16722493 0.047041927
000020 4c c6 1a bc 40 0a 0d 3e 69 28 c1 bc b0 c3 24 3e
       -0.009446692 0.13773441 -0.02357884 0.16090274
000030 c3 29 bd 3d 6c 39 8d be 6f c9 cf bd 7b 06 22 be
       0.09236481 -0.27582872 -0.10145842 -0.15822785
000040 63 49 16 3e 4b 72 92 be 2a 9c 8e bc ab cf 8f be
       0.14676432 -0.28602824 -0.01740845 -0.28088126
000050 7d 48 f8 3e d4 8a 83 3e 36 12 d8 3e 19 8c 0e be
       0.48492804 0.25691855 0.42201394 -0.1392063
000060 a9 89 95 be 4d 6a 56 3e 0c 2f 67 3e 8d 69 26 3e
       -0.2920659 0.20938988 0.2257654 0.16251202
000070 76 af 99 3e 62 1b 77 3d 28 20 02 3f 19 72 a8 3e
       0.3001668 0.06032885 0.50830317 0.3289955
000080 38 2d 51 bb 25 be 87 be 40 6e bb bc 5b a8 e2 ba
       -0.0031917822 -0.26512256 -0.02287972 -0.0017292605
000090 ba b2 23 3e 45 95 c9 be d7 05 2e bf 43 44 8a bc
       0.15986148 -0.39371696 -0.6797766 -0.016878253
0000a0 3e 3f 18 3e f4 cc 42 3e 22 cc a7 be a1 fc 9c be
       0.14867875 0.19023496 -0.32772928 -0.3066149
0000b0 9c 3d 82 3e 97 20 2e be da ea 65 3e 01 c4 40 3e
       0.2543763 -0.1700462 0.2245287 0.1882477
0000c0 ac a0 19 3d 2d 51 38 bc 25 6d b4 bd 7f d6 af bc
       0.037506744 -0.011249823 -0.0880988 -0.021464584
0000d0 94 a0 d8 bd e0 ab 54 bd 45 d0 63 3e 6c 06 40 be
       -0.10577503 -0.051921725 0.22247417 -0.1875245
0000e0 9b da 14 bd 72 be 51 3c e9 d1 ab 3e 38 a2 45 3d
       -0.03634129 0.012801753 0.33558586 0.048250407
0000f0 a6 86 06 be c8 ca 12 3c f3 af 93 3e dc 8c a7 3c
       -0.13137302 0.00895948 0.28845176 0.02045291
000100 7a cf 4a 3e 61 5e 62 be 81 2e 1b 3e 71 e6 1f 3d
       0.19805709 -0.22106315 0.15154459 0.039038125
000110 84 cb 11 be ba 02 39 be 94 65 20 be f5 c4 98 3d
       -0.14237791 -0.18067446 -0.15663749 0.074594416
000120 d4 49 dd bc db db 7f be bb 1a 3f be ee 7e 71 3c
       -0.027012743 -0.24986212 -0.1866254 0.014739735
000130 04 02 20 3e dc 8f c9 bd c6 3b 0e 3d 01 c9 56 be
       0.15625769 -0.09841892 0.034724973 -0.20975114
000140 f9 94 21 3e ae 98 b7 bd 28 24 e6 3c 05 c0 69 be
       0.15779485 -0.08964668 0.028093413 -0.22827156
000150 03 37 22 3e fa b7 e8 3d 13 56 a7 3d 58 5a 36 bd
       0.15841298 0.11363216 0.08170714 -0.044519752
000160 58 a7 54 be 36 85 9a be 92 ae ce 3d 86 d2 6f 3e
       -0.20766962 -0.30179757 0.100918904 0.23420152
000170 e5 c5 62 be f5 3c 10 3e 54 f6 35 be b9 1e 5d 3e
       -0.22145803 0.14085753 -0.17769748 0.21593751
000180 51 25 38 be 58 7e 08 3e c5 a8 6c be bf fc 4a 3e
       -0.17982985 0.13329446 -0.23111255 0.19822977
000190 f8 40 7b be 58 f4 c4 3e ed ed c4 bd ca 64 13 be
       -0.24536502 0.3846767 -0.09615693 -0.14393917
0001a0 40 ad 9d bd a6 0a 62 3e 92 c4 69 3e 98 2c 20 3e
       -0.076990604 0.22074375 0.22828892 0.15642011
0001b0 36 52 34 be 87 c5 23 3c 47 f8 7a 3d 5c 69 8e 3d
       -0.17609486 0.009995825 0.061271932 0.069536895
0001c0 15 aa 9c be bb 7c 92 be 28 d8 e2 be 23 e7 7a be
       -0.30598512 -0.28610787 -0.4430554 -0.24502234
0001d0 83 f1 99 3c 85 48 03 be f7 20 94 3d 01 62 00 3e
       0.01879192 -0.12820633 0.0723285 0.12537386
0001e0 f7 4f 6d 3e 1d e3 c3 3b fd d6 12 3e e7 a1 b2 bd
       0.23175035 0.0059780017 0.14339824 -0.08722287
0001f0 7a c6 81 bd 8e 84 38 3e 13 db 15 bf f1 08 92 bd
       -0.063366845 0.18019316 -0.58537406 -0.07130612
000200 f7 91 35 bf e0 fc ae be d6 71 ab be 23 13 b5 be
       -0.7092585 -0.34177303 -0.33485287 -0.35366163
000210 ff 5b de bd 45 b3 bb be 6b 2b 23 bf d2 71 a2 be
       -0.108573906 -0.3666021 -0.63738126 -0.31727463
000220 99 3b af be 12 ee 19 bf 46 a8 21 bf 23 d0 c9 be
       -0.34225157 -0.6012889 -0.6314739 -0.39416608
000230 7a 24 a7 be c3 d1 bd bc 2b 72 85 be fc 3d 7f be
       -0.32645017 -0.023171311 -0.26063666 -0.24925989
000240 72 e2 28 bf 71 00 da be 32 17 1a be 5b d1 1d bf
       -0.6597053 -0.42578462 -0.15047911 -0.61647576
000250 35 74 f6 be a9 61 fd be 68 f7 53 b9 f1 1b 96 be
       -0.48135534 -0.4948857 -0.00020214694 -0.29318193
000260 47 78 ba be 38 be b8 be 5f d9 44 3e 37 4a 44 be
       -0.3641989 -0.36082625 0.19223545 -0.19168936
000270 81 c0 dc bd 37 9d 01 be cc 11 03 3e c9 51 61 be
       -0.10778905 -0.12657629 0.12799758 -0.22003855
000280 2e 00 09 3d 34 00 34 be c8 e4 57 3e ae c6 17 3c
       0.033447437 -0.17578202 0.21083367 0.0092636775
000290 b9 07 ac bc 17 09 be be 14 51 b1 be 7c c2 2b 3e
       -0.020999776 -0.3711631 -0.3463217 0.16773409
0002a0 3c fb 17 bd 6e bf c7 be d9 58 9f be 1a ca 18 3e
       -0.03710483 -0.39013237 -0.31122473 0.14920846
0002b0 95 f4 dd be b1 03 dc be b3 38 04 bc 4b d7 7f bc
       -0.43350664 -0.42971566 -0.008070159 -0.015615295
0002c0 18 06 64 bd b7 06 0d 3d 6e a3 18 3e 84 e1 ee bd
       -0.055669874 0.034430232 0.14906093 -0.116641074
0002d0 7a 85 b5 3e e8 ed 66 3e 9e 63 7c be 45 ef ad 3d
       0.35453397 0.22551692 -0.24647376 0.08492903
0002e0 7a eb 05 3d 5f bd 00 3d ff de 6b 3e 16 33 80 3d
       0.03269527 0.0314306 0.23034285 0.06259744
0002f0 b3 76 a8 bc ce 45 49 bd 3e 7b bc 3e d2 4a 66 bd
       -0.020564413 -0.049138837 0.36812776 -0.056223698
000300 db 10 30 3e 17 cb e5 3c 0d b3 84 3e 3f 56 77 3d
       0.1719393 0.028050942 0.25917855 0.060384985
000310 46 da 5d be 92 fc a3 3c 14 0c 6e 3e 39 eb 3b be
       -0.21665296 0.020017896 0.23246795 -0.18351449
000320 1f 4c 25 3e f4 4e d7 3e 47 b1 9c 3d 9a 8f 86 3e
       0.16142319 0.42052424 0.076510005 0.26281434
000330 9b 10 8c be 94 c0 f6 3e e0 b8 54 3e 8a ec d5 be
       -0.2735642 0.481938 0.20773649 -0.41782027
000340 38 c7 a7 be 91 3f db 3d 09 02 74 3d 32 e4 3b 3e
       -0.3276918 0.10705484 0.059572253 0.18348768
000350 8e 97 c3 be f5 84 2d bf cd d7 bc be 1e 75 3f 3d
       -0.38201565 -0.67781 -0.36883393 0.04674255
000360 ef aa a4 3e be 45 1e bf 12 e9 e9 be 2f 6d a2 3e
       0.32161662 -0.6182517 -0.4568563 0.31723925
000370 39 56 6a bc 9c 4b 4f be dd ce af 3e 24 3a da bd
       -0.014302784 -0.20243686 0.34337512 -0.10655621
000380 2b 37 90 3e cd ce a7 bd d3 bf f8 be 6b 06 74 be
       0.2816709 -0.08193741 -0.4858385 -0.23830573
000390 34 ef ce bc 7f b2 9e 3d 63 f1 01 be fb 26 56 bd
       -0.025260545 0.07748889 -0.12689738 -0.05228327
0003a0 fc c6 b2 be 7f f6 df bd cb 70 82 be f7 a9 40 bd
       -0.34917438 -0.10935687 -0.2547668 -0.04703709
0003b0 c0 12 3d be e9 08 03 3e 1e e2 41 3e 79 02 30 3e
       -0.18464184 0.12796368 0.18933913 0.17188443
0003c0 3f 37 10 be 74 70 87 be 46 78 5f bd ca f5 39 be
       -0.14083575 -0.26452982 -0.05455806 -0.18160167
0003d0 6a 23 02 bf 8f a3 4e be b7 7b 9e 3e 28 3e d9 be
       -0.5083529 -0.2017958 0.30953762 -0.42430234
0003e0 2d f9 39 be 0c 7b 02 be 37 4c 48 bd 7b 1f cc be
       -0.1816146 -0.12742251 -0.04890081 -0.39867768
0003f0 bb 64 8d be f1 ae a8 be d3 35 02 be 3c ab 07 bf
       -0.27615914 -0.3294597 -0.12715845 -0.5299566

weight_hh_l0 f4 [48, 16]
000000 93 9d 5e 3e 94 b2 49 3e ad d6 41 be 6e ae de be
       0.21739797 0.19697028 -0.18929549 -0.43492454
000010 0e f1 77 3e 81 8b 90 be 9f 41 6c bd 34 87 a4 bd
       0.24213049 -0.28231433 -0.05767977 -0.080336004
000020 f0 5f 07 be e4 0d 37 be 92 c3 6c be c0 70 07 3e
       -0.13220191 -0.17876393 -0.23121479 0.13226604
000030 d5 63 be 3e ca 6f 28 be 05 0a c8 3d c6 50 89 3e
       0.3718554 -0.16448894 0.09767536 0.26819438
000040 be 3d d7 3d 14 ec f8 bc 78 05 13 bd 3d 28 88 be
       0.10509823 -0.030386008 -0.035893887 -0.265932
000050 46 3d 92 3c 7f be 21 be 78 29 21 be 8b 9f ee 3c
       0.017851483 -0.15795325 -0.15738475 0.02912881
000060 25 0c 40 3e 7e d9 87 be 93 21 14 3e 86 cf c9 3e
       0.18754633 -0.2653312 0.14465933 0.3941614
000070 d9 50 8b 3e 63 0e e6 bd 62 84 44 3e 74 a3 3a be
       0.2721012 -0.11233213 0.19191125 -0.18226415
000080 b4 bc 1f bc b5 1c 7e 3e 2b 88 9f 3e 9e 7c 8c 3e
       -0.00974958 0.24815638 0.31158575 0.27438825
000090 76 78 04 be 65 93 58 3e d6 77 b9 3e bc 8a 0b be
       -0.12936577 0.21149977 0.3622424 -0.13627142
0000a0 50 87 5a be 05 ae 52 be 54 41 4b 3e 4c 6b ba be
       -0.2134068 -0.20574196 0.1984914 -0.36409986
0000b0 41 ab b4 3c 1c 36 33 3e 55 f6 3f bd 37 e0 bf 3c
       0.022054316 0.1750111 -0.04686578 0.023422344
0000c0 cf 19 8b 3e a9 5d b0 3d 1c 72 94 3d 14 21 7b be
       0.27168128 0.08611614 0.07248327 -0.24524337
0000d0 ad 45 4c 3e 6b 88 32 bd 7b 13 a9 be 39 e8 19 bc
       0.19948454 -0.04358713 -0.33022675 -0.009393745
0000e0 f6 5e 80 bd c5 74 04 be 52 53 cf 3b 4a c5 5d 3e
       -0.06268112 -0.12935169 0.006327071 0.21657291
0000f0 a7 d3 f5 3c 76 43 22 be 1d 7d 7c 3e 10 85 1f 3e
       0.03000815 -0.15846047 0.24657102 0.15578103
000100 6e 28 8c 3e 92 a1 98 3d 5b 57 75 3e 33 00 ed 3d
       0.27374595 0.07452692 0.23959105 0.115723036
000110 ee 77 4b be ea e3 1b 3e af 66 cd bd 9d f7 50 be
       -0.19869968 0.15223661 -0.10029351 -0.20406957
000120 63 fb 9e 3d 91 18 f4 bd 56 4c 0d 3e 45 92 32 be
       0.07762792 -0.11918748 0.13798651 -0.1743861
000130 df b2 af bd 9b 3a 20 3c 56 77 04 be b9 90 dc 3d
       -0.08579039 0.009779598 -0.12936148 0.10769791
000140 ae 71 92 be 32 6d 62 3e ad 8a 57 3e 66 ea 39 be
       -0.28602356 0.22111967 0.21048994 -0.18155822
000150 16 91 70 3c dd 53 03 be c5 7e a6 be ae 59 82 bd
       0.014683029 -0.1282496 -0.32518592 -0.06364761
000160 9c 20 1e bd 3b 81 34 3e 35 6b 41 be f1 f9 93 3d
       -0.038605317 0.17627423 -0.18888552 0.07225407
000170 6e 23 75 3e e3 e6 dd bd 7e d8 3f be 71 d7 67 3e
       0.23939297 -0.10835054 -0.18734929 0.22640778
000180 c1 1a c8 bd 53 7b 13 be c3 3b 5b bd 92 88 5b be
       -0.09770728 -0.14402513 -0.05352379 -0.21438816
000190 25 84 e9 39 ed 8d 8f be 4f 9f 3d 3d bb 4a 09 3e
       0.00044539678 -0.28037968 0.046294507 0.13407414
0001a0 12 b0 f4 bd d8 d4 ea bd 3b 53 79 be a0 04 bb 3e
       -0.11947645 -0.11466378 -0.24348156 0.36526966
0001b0 a2 17 bc 3e e7 ff dd 3d 51 6f d1 bd a9 26 11 be
       0.3673678 0.10839825 -0.1022631 -0.14174904
0001c0 45 53 d6 3c f8 97 66 bb 4b 1c d2 bd 3c 32 b4 3e
       0.026162753 -0.0035185795 -0.10259303 0.35194576
0001d0 0f 72 49 3c ee 8f 3a 3d 47 2e e1 bd d6 fb 8c be
       0.01229526 0.04554742 -0.10995155 -0.27535886
0001e0 c0 53 dd 3d 1b 7b 3a be 8c ce 99 3d ce 87 25 be
       0.1080699 -0.18211024 0.07510099 -0.16165087
0001f0 aa 90 8d 3d 56 8d 22 3e 70 22 33 bd 55 13 40 be
       0.06912358 0.15874228 -0.043734014 -0.18757375
000200 4b af 54 3e d3 5f 1b be 45 1a 0d be ef 53 01 3e
       0.20769994 -0.15173273 -0.13779552 0.12629674
000210 6f 0b 83 3d 7e c8 1c 3e 24 6d 29 3c 15 b0 e2 3d
       0.06398665 0.15310857 0.010340963 0.11068741
000220 12 ec 6d 3e 59 7e c3 3d a8 c5 7d bd b1 04 4c 3e
       0.23234585 0.09545583 -0.061956078 0.19923665
000230 3a 68 bd 3d 07 9c 00 3e 58 8c 07 be 05 95 9b bd
       0.09248395 0.1255952 -0.1323713 -0.075967826
000240 49 e4 4c 3e fb d6 6c 3e 69 cd 20 3d 07 59 ae 3d
       0.20008959 0.23128884 0.039258394 0.08513074
000250 c1 94 a4 be 47 b5 7a 3d 4d 71 54 be 92 d9 44 3e
       -0.3214474 0.061208036 -0.20746346 0.19223621
000260 15 b1 67 3e 9b 52 e7 3d 09 0c ea bd 4f 2e 5e 3e
       0.22626145 0.112950526 -0.11428077 0.21697353
000270 6b 64 b0 bd 2c a9 15 be 60 8f 9c be 8b 07 84 be
       -0.08612903 -0.14615315 -0.30578136 -0.25787005
000280 92 15 3a be 2a 11 b5 be eb b4 02 be 2b 0e 3a bd
       -0.18172291 -0.35364658 -0.12764327 -0.045423668
000290 25 e3 8b ba ff c1 aa be b4 09 14 3d ca d7 91 be
       -0.0010672553 -0.33351132 0.036142066 -0.28484946
0002a0 25 e6 27 be 1a 74 5a 3e 4d cd 06 3c 8a 5f 07 be
       -0.16396387 0.21333352 0.008227658 -0.13220039
0002b0 6e 87 c5 be b6 75 90 bd 4c 58 b8 be 5c c9 01 3e
       -0.38579887 -0.070537016 -0.36004865 0.12674469
0002c0 f0 b2 3d 3e bd dd 10 3e 72 04 68 3e 7d f1 77 be
       0.1852529 0.14147086 0.22657946 -0.24213214
0002d0 4d 88 43 3e ea 50 7f 3d 26 7e b9 3c 56 24 d7 bc
       0.19094963 0.062333025 0.02264316 -0.026262444
0002e0 83 14 a4 3e 6d d4 6b bd 07 f4 9a 3e a3 60 8e be
       0.320469 -0.057575632 0.30264303 -0.27808103
0002f0 4a 42 d3 bc 31 51 b0 be fc 39 15 3e 38 11 eb be
       -0.025788445 -0.34436944 0.145729 -0.45911574
000300 72 57 8b 3e d3 79 05 3e d9 36 57 be 5a 58 8b be
       0.27215153 0.13034754 -0.21017016 -0.27215844
000310 4d 65 3e 3d 05 9a 9e bd 6d 88 9f bd ae 97 f4 3d
       0.046483327 -0.07744221 -0.07789693 0.11942993
000320 0a d0 19 3e 80 9b 5b 3e 0c 70 82 3e fc ad da bd
       0.15020767 0.21446037 0.2547611 -0.10677716
000330 04 ca 7d 3e 6b 8d a4 be a4 cd c2 3e 23 2d ed 3d
       0.24784094 -0.32139143 0.38047516 0.11580875
000340 32 72 f4 3d ce 96 24 3e 68 cd 38 be e9 9e a6 be
       0.119358435 0.16073152 -0.18047106 -0.32543114
000350 9a 65 c6 3e f8 3d 49 3d 4d ce 71 be a5 c1 6c be
       0.3874939 0.049131364 -0.23613854 -0.23120745
000360 a5 0c 2f 3e fb 31 16 3d 80 95 34 be b7 83 a7 3e
       0.17094667 0.03666876 -0.17635155 0.32717678
000370 37 a0 6d 3e ab 12 f3 3d c4 d0 9c 3d 9b 49 4a 3e
       0.23205648 0.11868795 0.076570064 0.19754641
000380 4e d1 1f 3e 58 6e 73 3e c5 b2 30 bd 1d 1d 8e 3d
       0.15607187 0.23772562 -0.043139238 0.06939147
000390 4d 07 36 3e 64 ae 86 3e 82 e9 c3 bd 2c f0 04 bd
       0.17776223 0.26304924 -0.095660225 -0.03245561
0003a0 71 3e 9a 3d a2 f3 6f 3d ef 2b 8e bd 7e 5e b2 bc
       0.07531441 0.058581956 -0.069419734 -0.021773573
0003b0 df 20 15 bd a8 2e 9e be 1c 62 a0 3d 27 3d 44 3e
       -0.0364083 -0.3089497 0.07831213 0.19163953
0003c0 eb 01 7a 3c 0a e0 90 3e fc b4 56 bd 44 63 2b be
       0.015259246 0.28295928 -0.052418694 -0.16737086
0003d0 e4 0f 98 3e b2 0e 9b be ec ac eb bd 08 f4 b2 bc
       0.29699624 -0.3028465 -0.115075916 -0.021844879
0003e0 57 75 a5 bc 22 f2 9e bd 62 1c 78 be d3 30 94 3d
       -0.020197554 -0.07761027 -0.24229577 0.07235875
0003f0 78 3b 6b 3d b0 07 18 be 03 52 5a 3e ac e2 06 be
       0.05742976 -0.14846683 0.21320347 -0.13172406
